results/quickstart_20251215_152218/models/final_model.pt (torch, 149423 bytes, 30 tensors)

actor_net.0.weight f4 [64, 8]
-0.040503997 -0.13249221 0.25489527 0.36846203 -0.13256916 0.6293144 0.123932086 -0.016501216
0.057384964 0.13491951 -0.12076533 0.037791878 -0.10984344 0.10896231 0.15113959 -0.101176016
0.048190795 -0.23509577 0.09540326 0.14630711 -0.27243254 -0.3602611 0.12096273 -0.120590515
0.010583862 -0.10751929 0.0061721685 0.16736989 0.111051075 -0.35454655 -0.16029564 -0.1354858
0.2391098 0.094131455 -0.25167745 0.078758396 0.20037195 0.2958233 -0.3085096 0.4951749
-0.024271537 -0.13044347 0.019635977 -0.13998151 -0.15239564 -0.20077701 0.1556984 0.07045927
0.43902513 -0.07184415 0.4679733 -0.19831617 -0.26661646 -0.006087686 0.03745816 0.004653312
-0.23911776 0.20273925 -0.16449963 -0.1857762 0.29252133 0.0030239301 -0.004302292 -0.1518421
0.25001457 -0.10812805 0.0011556958 -0.35708153 0.26764596 0.23240592 -0.35537544 0.024675993
-0.22520393 -0.030918078 0.12518553 0.17010222 -0.011972079 -0.2939948 -0.17395404 -0.21348904
-0.073894486 -0.05251651 -0.036693547 -0.077239774 -0.09220353 -0.16262949 -0.40190336 -0.05501602
0.042449582 -0.1067449 -0.0784095 -0.14101852 -0.07220809 -0.2437795 0.07203241 0.1903127
-0.059338626 -0.015572268 0.012670625 0.37372166 0.16704613 -0.048664592 -0.12808053 0.0026290065
-0.25094652 0.032307755 -0.011964123 -0.21033083 0.17763394 -0.16317283 0.048262965 0.21909615
-0.094406545 -0.6330381 -0.40196717 0.2951945 0.12739532 0.08566893 -0.066665955 0.024518108
-0.26127464 -0.42950866 -0.62111926 -0.050099585 0.12971748 -0.09427886 0.10983812 -0.0579075
-0.25419223 0.013759987 0.108598866 0.21451382 -0.12278872 -0.15495469 -0.14471163 -0.03954224
0.06490518 0.12287181 -0.06390643 -0.09260007 0.1123194 0.22330149 0.19498655 -0.14513233
0.1090533 -0.09406508 0.055506308 -0.26147494 0.323701 -0.09104448 -0.006731362 -0.07588124
0.14274964 -0.34316057 -0.5078759 0.03442771 0.08484044 0.27200598 0.30231646 -0.020550994
0.049015976 0.023434108 0.006344066 0.56234866 0.24030717 -0.06119464 0.080744304 -0.124225914
0.118133515 -0.21081834 0.002226618 0.0078468155 -0.10723447 -0.388699 0.0062757623 -0.033469226
-0.05847222 0.06251846 0.52838516 0.009857523 -0.32556605 -0.29141393 0.07538485 0.096850514
-0.267958 0.1343683 0.03557362 -0.20942326 -0.2908699 -0.42266876 -0.04713028 0.051787477
-0.057824593 -0.091754995 -0.68876517 0.14651878 0.2349522 0.1395137 0.20001853 -0.20572397
-0.3145747 -0.3665543 -0.43967402 -0.093644544 0.08193628 -0.02490756 0.14529356 -0.058441415
0.21961886 0.008427302 -0.10023745 -0.10263062 0.3007746 0.14660667 0.15276138 -0.14347447
-0.09636546 -0.06070291 0.035383247 0.40681246 -0.43401036 -0.64427686 -0.05289976 0.13184313
0.05462495 0.2600908 -0.16558447 -0.041089714 0.15832658 0.3578959 -0.18363294 -0.19751784
0.03331951 -0.14708729 -0.017565278 -0.0130655235 -0.41571778 -0.23423845 -0.384736 -0.11814983
0.39483175 0.34013686 0.7205855 -0.074314676 -0.049788658 -0.3721489 -0.23610857 -0.031676162
-0.30413157 -0.08460135 0.2069462 0.03313787 0.013938679 0.023745466 0.06671033 0.11442901
00000000: 85e7 25bd 0aac 07be a281 823e 0ea7 bc3e
00000010: 36c0 07be c01a 213f 1bd0 fd3d 8f2d 87bc
00000020: 7f0c 6b3d 5728 0a3e d053 f7bd a8cb 1a3d
00000030: 99f5 e0bd a227 df3d 56c4 1a3e 5f35 cfbd
00000040: b663 453d f2bc 70be c962 c33d 88d1 153e
00000050: 477c 8bbe 2574 b8be 4fbb f73d 29f8 f6bd
00000060: ef67 2d3c 1333 dcbd e73f ca3b 0363 2b3e
00000070: bf6e e33d 2087 b5be 8a24 24be cabc 0abe
00000080: 33d9 743e fec7 c03d dedb 80be 154c a13d
00000090: 4e2e 4d3e 2776 973e f8f4 9dbe 9187 fd3e
000000a0: 1ad5 c6bc f992 05be a1db a03c 5057 0fbe
000000b0: 9a0d 1cbe 7d98 4dbe 676f 1f3e f34c 903d
000000c0: e7c7 e03e 0723 93bd 329a ef3e 6513 4bbe
000000d0: f481 88be 367b c7bb ba6d 193d cf7a 983b
000000e0: 49db 74be e19a 4f3e 9772 28be 1e3c 3ebe
000000f0: 5bc5 953e 212d 463b 3efa 8cbb 7f7c 1bbe
00000100: e901 803e 3d72 ddbd b77a 973a 64d3 b6be
00000110: e408 893e d1fb 6d3e c5f3 b5be 4f25 ca3c
00000120: dc9b 66be e947 fdbc a330 003e 472f 2e3e
00000130: 8a26 44bc 7d86 96be 0221 32be df9c 5abe
00000140: fe55 97bd 8d1b 57bd f94b 16bd e32f 9ebd
00000150: 34d5 bcbd 5888 26be 47c6 cdbe 7a58 61bd
00000160: 9ddf 2d3d 129d dabd 2995 a0bd 2967 10be
00000170: d6e1 93bd 55a1 79be ba85 933d 55e1 423e
00000180: 0f0d 73bd d322 7fbc 7498 4f3c 7258 bf3e
00000190: 240e 2b3e 8654 47bd 8b27 03be 694b 2c3b
000001a0: 107c 80be 2355 043d 2b05 44bc f760 57be
000001b0: ace5 353e c716 27be 63af 453d be5a 603e
000001c0: 3858 c1bd c90e 22bf a4ce cdbe bc23 973e
000001d0: eb73 023e 3173 af3d 2988 88bd 33da c83c
000001e0: cac5 85be 8fe8 dbbe ac01 1fbf 3935 4dbd
000001f0: a9d4 043e 4615 c1bd cff2 e03d 6a30 6dbd
00000200: 7c25 82be 9271 613c 1569 de3d 83a9 5b3e
00000210: a778 fbbd 71ac 1ebe 492f 14be 0bf7 21bd
00000220: 02ed 843d 37a4 fb3d 60e1 82bd 1ba5 bdbd
00000230: b707 e63d 25a9 643e 8eaa 473e 929d 14be
00000240: 5657 df3d 31a5 c0bd 955a 633d 0be0 85be
00000250: 23bc a53e 8775 babd c292 dcbb a067 9bbd
00000260: f62c 123e beb2 afbe 2804 02bf 1204 0d3d
00000270: d3c0 ad3d 5e44 8b3e 39c9 9a3e 8f5a a8bc
00000280: fac4 483d e3f8 bf3c e2e1 cf3b 15f6 0f3f
00000290: 1513 763e 3ba7 7abd 455d a53d 286a febd
000002a0: fcef f13d c3e0 57be 73ec 113b ee8f 003c
000002b0: bf9d dbbd 8e03 c7be e9a4 cd3b 0717 09bd
000002c0: 9180 6fbd ae09 803d 4044 073f 7381 213c
000002d0: 98b0 a6be 3534 95be 5f63 9a3d 9059 c63d
000002e0: ca31 89be d897 093e a5b5 113d 0d73 56be
000002f0: e6ec 94be 0a68 d8be ae0b 41bd 1b1f 543d
00000300: 7bd9 6cbd 0bea bbbd ea52 30bf 0509 163e
00000310: 4f97 703e aedc 0e3e a8d1 4c3e 4ea9 52be
00000320: ef0f a1be 01ad bbbe f41c e1be b6c8 bfbd
00000330: 35ce a73d f00a ccbc d6c7 143e 4460 6fbd
00000340: c4e3 603e ab12 0a3c 4b49 cdbd 0130 d2bd
00000350: 21ff 993e 0f20 163e 7b6d 1c3e f9ea 12be
00000360: 415b c5bd 9da3 78bd 06ee 103d b949 d03e
00000370: 9b36 debe 54ef 24bf 6bad 58bd e301 073e
00000380: 69be 5f3d 9f2a 853e fa8e 29be b04d 28bd
00000390: 5d20 223e 223e b73e 460a 3cbe 1e42 4abe
000003a0: 0a7a 083d 0d9e 16be 0fe5 8fbc c710 56bc
000003b0: f6d8 d4be 34dc 6fbe 1efc c4be 8af8 f1bd
000003c0: 6327 ca3e 6b26 ae3e 4b78 383f 4b32 98bd
000003d0: 31ef 4bbd 4d8a bebe 72c6 71be ddbe 01bd
000003e0: 22b7 9bbe 7943 adbd b4e9 533e 93bb 073d
000003f0: 0f5f 643c da85 c23c 6d9f 883d c259 ea3d

actor_net.0.bias f4 [64]
0.033463705 -0.006252581 -0.033131797 -0.029116573 0.014589498 -0.02552957 -0.044794418 -0.03128184
0.017649336 -0.020847186 -0.03317933 -0.023600178 0.032882072 0.0016376846 0.06129118 0.093283124
-0.019738177 0.026059667 0.00027113303 -0.014869199 0.056093957 -0.03428793 -0.039350662 -0.036824927
0.029256048 0.050750587 0.03338708 -0.03636066 0.035097122 -0.04828282 -0.03969158 -0.011031984
0.044173855 0.043751277 0.028400406 0.04974094 -0.0057682577 0.015849086 -0.041994512 -0.048451047
0.070186585 0.020765891 -0.036936723 0.032806043 0.037770044 0.025697326 0.024753898 -0.039517697
0.05420077 0.027000915 -0.031034386 0.024376187 -0.045102663 -0.028759057 -0.022339966 0.028531915
-0.043867126 -0.05306005 0.04262969 -0.07227173 -0.033992156 0.037256777 -0.044332307 0.13988148
00000000: 3d11 093d 73e2 ccbb 35b5 07bd e185 eebc
00000010: ca08 6f3c 6423 d1bc 5a7a 37bd 6321 00bd
00000020: 5795 903c b8c7 aabc 0de7 07bd 2955 c1bc
00000030: 5aaf 063d 94a7 d63a 760c 7b3d 390b bf3d
00000040: f5b1 a1bc 157b d53c dc26 8e39 f19d 73bc
00000050: c7c2 653d 8071 0cbd 292e 21bd bcd5 16bd
00000060: 61aa ef3c d9df 4f3d e4c0 083d eaee 14bd
00000070: 00c2 0f3d 35c4 45bd a393 22bd 7fbf 34bc
00000080: a5ef 343d 8a34 333d f8a7 e83c 28bd 4b3d
00000090: a703 bdbb f1d5 813c 7002 2cbd 9b74 46bd
000000a0: fcbd 8f3d 3b1d aa3c f64a 17bd a15f 063d
000000b0: c3b4 1a3d 3383 d23c b0c8 ca3c 4fdd 21bd
000000c0: a001 5e3d 0631 dd3c d33b febc 92b0 c73c
000000d0: 92bd 38bd 1d98 ebbc 4e02 b7bc c3bb e93c
000000e0: 04ae 33bd 7f55 59bd 789c 2e3d 3303 94bd
000000f0: 5c3b 0bbd 909a 183d cb95 35bd 173d 0f3e

actor_net.2.weight f4 [64, 64]
0.17200287 0.009697026 -0.38553745 -0.015922977 0.31722328 -0.38786504 -0.19077416 0.12416942
0.24857344 -0.05295386 -0.0878499 -0.15006 -0.17697349 0.0023755198 -0.16881235 0.23048039
0.18574432 -0.06998717 -0.06695829 -0.045035586 0.13567954 0.19075671 0.040481113 0.03862699
0.3010958 -0.18846887 -0.005672094 -0.3908002 -0.10160474 0.18868494 -0.08909488 0.30593318
0.100762405 -0.010494327 0.11378537 0.010038737 0.21514404 -0.26461887 -0.08248234 -0.23654625
-0.32797557 0.15442036 -0.2868623 -0.15811232 -0.07679171 0.24649464 0.07271473 -0.18298024
0.25091636 0.1663607 -0.028517803 0.07798561 0.16360359 0.3049783 -0.0789938 0.07777713
0.091767065 0.096991725 0.013920162 -0.3000842 -0.17699653 0.1095257 0.15326308 0.15384263
0.0103446655 0.32965523 -0.03160517 0.37541422 0.06802051 -0.093291305 0.23090607 -0.09255224
0.07192752 0.21145926 0.050234344 0.52948326 -0.09646915 -0.08223342 -0.011105878 -0.26818088
0.2831956 -0.12152833 0.23846133 -0.23120543 0.103774644 0.0860935 0.13533068 0.34259272
-0.1837279 -0.19967759 0.10747029 0.2028549 -0.09803073 -0.3618321 -0.027520044 0.113138475
-0.10562004 -0.05567165 -0.3372547 -0.21491475 0.13789272 -0.049926523 0.13497004 0.20390867
0.0001197218 0.0002642113 0.2929823 -0.10308381 -0.033839453 0.1420419 -0.34369427 -0.058428634
0.19917782 -0.11778042 0.17546986 0.1197938 0.025275702 0.01767249 -0.10211114 -0.22079921
0.034384046 -0.07822834 -0.11921633 0.4399843 0.1310126 0.116994835 -0.1226443 -0.017703993
0.065636516 0.15364328 0.031799797 -0.06586446 0.17988643 -0.0732401 0.16585375 -0.09649023
0.34325153 0.09093336 -0.16388649 -0.021453857 -0.10227686 0.09217193 0.07739586 -0.005829269
0.0832832 0.06620193 -0.07310654 0.07353719 -0.22654407 0.0030026142 -0.2427437 0.292254
0.43485945 0.32509792 -0.09518171 -0.07340089 0.14644781 0.09191011 -0.26154068 -0.23739424
0.11930186 0.18452933 0.12110678 0.39810696 0.21215673 0.057207786 0.2119737 0.0937728
0.25202832 0.18996635 -0.40066382 0.3596019 0.3649416 0.16516009 0.357295 -0.109935515
-0.13267629 0.03349233 -0.048618432 0.048296448 0.04909621 0.19224283 0.0227995 0.10368868
-0.036365084 -0.11784208 0.15576333 -0.03661395 0.2600117 0.17340776 -0.16130897 0.4003893
-0.21556433 -0.0442582 0.025500558 -0.13547029 0.013346981 0.111269034 0.11341976 -0.07453905
-0.3438011 0.11031974 0.0386671 0.1511556 0.07527932 0.096945524 -0.17544243 -0.39504188
0.18662055 0.23740795 -0.20961049 -0.25882247 -0.3229722 0.00859581 0.4076964 0.049130313
0.010238019 -0.33225116 -0.33270404 0.051821202 0.041130565 -0.24831638 0.3799317 0.026223548
0.25209752 -0.2207048 -0.0019328383 -0.038210005 0.35633728 -0.14777793 -0.2655257 0.13031703
-0.37852713 -0.13916665 0.17029071 0.0017733974 0.2772807 -0.12104192 -0.1487494 0.2375209
-0.2949073 -0.1108271 0.21762733 -0.18280588 -0.08667227 0.03485056 0.10397914 0.06755394
0.24586329 0.15270609 0.014750277 0.2883861 0.012921582 -0.15199994 -0.046547607 0.18815884
00000000: 8521 303e 46e0 1e3c 2a65 c5be e770 82bc
00000010: 176b a23e 3f96 c6be 4d5a 43be 894c fe3d
00000020: 098a 7e3e 26e6 58bd a6ea b3bd 54a9 19be
00000030: 8a38 35be 9cae 1b3b 25dd 2cbe 0d03 6c3e
00000040: c233 3e3e 6f55 8fbd 6e21 89bd 3c77 38bd
00000050: 94ef 0a3e ba55 433e 86cf 253d 5637 1e3d
00000060: 3b29 9a3e fcfd 40be f9dc b9bb f716 c8be
00000070: 2516 d0bd a036 413e 6077 b6bd 46a3 9c3e
00000080: 855c ce3d 66f0 2bbc 4e08 e93d 8479 243c
00000090: b84e 5c3e 207c 87be 80ec a8bd 2e39 72be
000000a0: 6aec a7be 5f20 1e3e 9edf 92be 32e8 21be
000000b0: f944 9dbd 1769 7c3e 76eb 943d 2c5f 3bbe
000000c0: 1c78 803e 765a 2a3e 2b9e e9bc ebb6 9f3d
000000d0: b387 273e 1e26 9c3e 80c7 a1bd 9e49 9f3d
000000e0: 5ff0 bb3d 99a3 c63d 6411 643c a3a4 99be
000000f0: 943e 35be 034f e03d fff0 1c3e ec88 1d3e
00000100: ac7c 293c 92c8 a83e 6c74 01bd 4b36 c03e
00000110: 564e 8b3d 830f bfbd a472 6c3e 078c bdbd
00000120: bc4e 933d c788 583e 87c2 4d3d 378c 073f
00000130: 9e91 c5bd ff69 a8bd 6ef5 35bc 014f 89be
00000140: 04ff 903e d8e3 f8bd 352f 743e 1ec1 6cbe
00000150: cd87 d43d ca51 b03d 2094 0a3e 5068 af3e
00000160: 2b23 3cbe 4878 4cbe 6219 dc3d 32b9 4f3e
00000170: 56c4 c8bd 0f42 b9be b771 e1bc 25b5 e73d
00000180: 524f d8bd f507 64bd a6ac acbe 9d12 5cbe
00000190: c033 0d3e c17f 4cbd 9635 0a3e 6fcd 503e
000001a0: 2713 fb38 d785 8a39 c701 963e 9b1d d3bd
000001b0: 3d9b 0abd 6f73 113e b2f8 afbe dd52 6fbd
000001c0: 45f5 4b3e dc36 f1bd 5fae 333e 7456 f53d
000001d0: fd0e cf3c e6c5 903c a51f d1bd 3019 62be
000001e0: 49d6 0c3d 2e36 a0bd b127 f4bd 9f45 e13e
000001f0: 2b28 063e fd9a ef3d ef2c fbbd f707 91bc
00000200: 706c 863d aa54 1d3e 8140 023d f2e3 86bd
00000210: 2634 383e e8fe 95bd 91d5 293e ab9c c5bd
00000220: aabe af3e 453b ba3d dcd1 27be 00c0 afbc
00000230: 8876 d1bd a3c4 bc3d b881 9e3d 7403 bfbb
00000240: 6290 aa3d e194 873d e2b8 95bd ab9a 963d
00000250: 2bfb 67be 82c7 443b ce91 78be 51a2 953e
00000260: e6a5 de3e 3c73 a63e a1ee c2bd 3553 96bd
00000270: 6af6 153e 5e3b bc3d a9e8 85be 7a17 73be
00000280: 8954 f43d 42f5 3c3e d506 f83d add4 cb3e
00000290: 9d3f 593e b652 6a3d a20f 593e f40b c03d
000002a0: db09 813e 8a86 423e cf23 cdbe be1d b83e
000002b0: a0d9 ba3e ba1f 293e 5fef b63e df25 e1bd
000002c0: 4bdc 07be 412f 093d 1f24 47bd 7fd2 453d
000002d0: 1c19 493d 4edb 443e 04c6 ba3c bb5a d43d
000002e0: 8ef3 14bd 3057 f1bd 6c80 1f3e 82f8 15bd
000002f0: 4120 853e ce91 313e 2e2e 25be d4ff cc3e
00000300: e5bc 5cbe 1648 35bd 8ce6 d03c b9b8 0abe
00000310: 4cad 5a3c 05e1 e33d 9e48 e83d eea7 98bd
00000320: b306 b0be 51ef e13d 6561 1e3d 89c8 1a3e
00000330: 0b2c 9a3d 608b c63d 2ea7 33be ee42 cabe
00000340: 7519 3f3e 121b 733e 22a4 56be 6184 84be
00000350: 9d5c a5be 71d5 0c3c 95bd d03e de3c 493d
00000360: 5dbd 273c d31c aabe 2f58 aabe 7842 543d
00000370: 8678 283d a646 7ebe 6886 c23e c4d2 d63c
00000380: ed12 813e 7000 62be 4b57 fdba 1882 1cbd
00000390: d771 b63e 1953 17be fcf2 87be d471 053e
000003a0: 4fce c1be b481 0ebe b060 2e3e 5871 e83a
000003b0: bcf7 8d3e d3e4 f7bd c351 18be ae38 733e
000003c0: 17fe 96be 52f9 e2bd b3d9 5e3e 7731 3bbe
000003d0: 3b81 b1bd 76bf 0e3d 04f3 d43d b859 8a3d
000003e0: 96c3 7b3e fc5e 1c3e 25ab 713c 58a7 933e
000003f0: 0bb5 533c dfa5 1bbe b4a8 3ebd b6ac 403e

actor_net.2.bias f4 [64]
0.06771154 -0.04906697 0.061975993 -0.04483449 -0.06569737 0.05585777 0.09129436 -0.06634348
-0.02736198 0.04743935 0.04770868 -0.14629774 0.036308683 0.058545 -0.039346095 -0.038535748
-0.0014347049 -0.039693397 -0.05173808 0.0897235 -0.08373429 0.044483256 -0.070751026 0.049088202
0.024316233 -0.05752314 0.029957552 -0.05492289 -0.055776566 0.06351235 -0.13986868 0.048480917
0.03169998 0.05064211 0.056495804 0.054954365 -0.03359595 -0.05905304 0.07131985 0.053647045
0.038254093 0.050304167 0.04919778 -0.05021244 -0.05971987 0.077991635 -0.043889567 0.06638258
-0.11810978 0.046688173 0.060338173 0.060955517 0.043446023 -0.049938086 0.076126255 -0.05872705
-0.05160738 -0.052718055 0.03324713 0.04533202 -0.056589928 0.06518574 0.047828224 0.044204026
00000000: 59ac 8a3d 72fa 48bd 8ada 7d3d 5fa4 37bd
00000010: 588c 86bd 1ecb 643d 8af8 ba3d 17df 87bd
00000020: 3b26 e0bc c44f 423d 2d6a 433d 13cf 15be
00000030: 6ab8 143d e2cc 6f3d 5f29 21bd a9d7 1dbd
00000040: b50c bcba 8b95 22bd 4feb 53bd f4c0 b73d
00000050: e27c abbd 1334 363d eae5 90bd b610 493d
00000060: d632 c73c 629d 6bbd 8a69 f53c d3f6 60bd
00000070: f875 64bd c312 823d bc39 0fbe ed93 463d
00000080: d7d7 013d 1a6e 4f3d 2568 673d d417 613d
00000090: e89b 09bd 9ae1 71bd 2410 923d 01bd 5b3d
000000a0: 53b0 1c3d be0b 4e3d 9d83 493d 8fab 4dbd
000000b0: d39c 74bd 14ba 9f3d 8cc5 33bd 97f3 873d
000000c0: 8ae3 f1bd 193c 3f3d 2925 773d 7eac 793d
000000d0: 75f4 313d e18b 4cbd 15e8 9b3d c68b 70bd
000000e0: 4362 53bd e3ee 57bd 252e 083d 11ae 393d
000000f0: d7ca 67bd 1a80 853d 87e7 433d 480f 353d

actor_mean.weight f4 [1, 64]
-0.101874076 0.10934786 -0.16182788 0.14843081 0.116853274 -0.20154491 -0.07290057 0.23370305
0.119564846 -0.085752055 -0.10683184 0.06723404 -0.20852818 -0.20705776 0.16966525 0.10281788
-0.116269104 0.18805085 0.26242334 -0.073777415 0.053105205 -0.074594125 0.09186384 -0.12956291
-0.15334398 0.10596342 -0.18779683 0.23314315 0.09053072 -0.08991526 0.036204513 -0.18156719
-0.15970093 -0.1629071 -0.18418986 -0.11433997 0.13877098 0.043380644 -0.10221531 -0.10224416
-0.24121222 -0.20803039 -0.27667433 0.19389538 0.08942719 -0.07234592 0.15886979 -0.04226799
0.06142873 -0.28272143 -0.30190432 -0.10455955 -0.14578703 0.08219007 -0.073399715 0.19272625
0.1329284 0.10517264 -0.22490871 -0.18547817 0.2037457 -0.28858882 -0.13999915 -0.08174927
00000000: 5ba3 d0bd c5f1 df3d 35b6 25be 3ffe 173e
00000010: c550 ef3d ca61 4ebe e54c 95bd da4f 6f3e
00000020: 6ade f43d c69e afbd a7ca dabd 00b2 893d
00000030: 6988 55be f306 54be babc 2d3e 2e92 d23d
00000040: 7f1e eebd 6790 403e 5a5c 863e 9d18 97bd
00000050: d884 593d cec4 98bd 1c23 bc3d 24ac 04be
00000060: 3406 1dbe 5903 d93d d04d 40be 14bd 6e3e
00000070: 2c68 b93d 7e25 b8bd 2f4b 143d c0ec 39be
00000080: a488 23be 1ed1 26be 449c 3cbe 132b eabd
00000090: fb19 0e3e e7af 313d 4356 d1bd 6365 d1bd
000000a0: 5600 77be eb05 55be 42a8 8dbe 838c 463e
000000b0: 9a25 b73d 192a 94bd c3ae 223e 3321 2dbd
000000c0: b19c 7b3d ddc0 90be 3493 9abe 5123 d6bd
000000d0: 3249 15be 4453 a83d 9752 96bd 085a 453e
000000e0: 621e 083e c164 d73d 784e 66be fded 3dbe
000000f0: b6a2 503e eac1 93be f05b 0fbe 296c a7bd

critic_net.0.weight f4 [64, 8]
0.14505292 0.048013624 0.020469569 -0.015553457 0.27006978 0.59641546 0.12602092 -0.10595177
-0.016697241 -0.37630063 0.07282744 0.072551206 -0.4766294 -0.52641624 -0.019883092 -0.54723084
0.20884253 -0.0008701538 0.3805208 0.032496702 -0.38029224 -0.01964254 -0.2416814 0.112015806
0.33579972 0.3252219 0.46483216 -0.14637531 -0.46528018 -0.039019078 0.1762633 -0.33997104
0.10976881 0.10641867 -0.010698052 -0.008115078 0.19844833 0.31288743 0.18443978 0.33116364
0.38840672 0.12811838 0.039371755 -0.12385265 -0.6084618 -0.06865118 -0.22569475 -0.15230455
0.106218666 0.18156508 0.20718624 0.068896405 -0.5467966 -0.2848648 -0.13668941 -0.16570437
0.047061034 -0.16598332 -0.03243777 -0.3181156 -0.26296574 -0.51321495 -0.020650674 -0.06995537
0.4244808 0.19326502 0.12781742 -0.009115668 -0.36119336 -0.23981155 0.33414358 0.23268062
-0.06293372 0.31928328 -0.06321284 0.015823862 -0.05450719 0.80991906 -0.6138022 -0.052557558
0.08494215 -0.21857266 -0.08149413 -0.2670763 -0.5636517 -0.5358127 -0.16935296 -0.047280446
-0.3706012 -0.28485042 -0.57372034 -0.20960243 0.4726428 0.44975737 0.25458258 0.08571815
0.27763298 0.4230201 0.08780084 0.008172955 -0.518061 -0.28786907 -0.07894266 0.08798416
0.13665771 0.34650177 0.38124803 -0.10769932 -0.29670572 -0.38771182 0.22157966 0.01273692
0.053092334 0.061708063 -0.0070536197 0.3004017 -0.26447555 0.52592766 -0.25084096 -0.09164121
0.087733395 0.14562966 -0.056467272 -0.3582562 -0.4032277 -0.24202412 -0.09284637 -0.18971223
0.036990732 -0.609729 -0.30764663 0.015901558 0.59837776 0.36613065 0.17622492 -0.05762861
-0.22485581 -0.6342564 -0.4784736 0.1588301 0.5998816 0.27544343 0.10032611 -0.015921433
-0.08231906 -0.10531382 -0.058254503 -0.01245619 -0.5705571 -0.7520035 0.080169484 0.020330256
-0.0063534784 -0.34571663 -0.46215317 0.12790972 0.10682874 0.3214618 -0.10801686 -0.040119495
-0.38786268 -0.26836437 -0.10065706 -0.39052567 0.2498964 0.12553662 0.24579811 0.0969285
-0.3386499 0.23903528 -0.10756293 0.031208476 -0.060096417 -0.85182214 -0.062205847 0.1651107
-0.45782638 -0.24105963 -0.5406345 -0.05326963 0.35525835 0.25701478 0.06233782 0.2799835
0.2513577 -0.216235 0.33613563 -0.2576361 0.06504798 0.18730871 -0.41922462 -0.19083224
-0.22588792 -0.06398804 -0.31800157 0.120912276 0.40341195 0.49562916 0.10887939 -0.22267674
0.028998863 0.0736204 0.095754445 0.097449884 0.28332862 0.39786065 -0.8264683 -0.14841974
0.23348881 -0.13661207 0.11353787 0.21880454 0.31473717 0.6126116 0.008206436 -0.17704326
0.38089997 0.5227776 0.43036288 -0.067074746 -0.52136314 -0.27434087 -0.36171567 0.13600844
-0.3654249 0.05200367 0.084660396 0.08811828 -0.08677274 -0.378047 0.63642156 -0.25377727
0.3049803 -0.03220432 0.16220213 0.1788643 -0.24649659 -0.08858454 -0.17832059 0.13282736
0.058595687 0.20947407 -0.05017739 -0.06353941 0.66097516 0.5446621 -0.23976961 -0.17042926
-0.056527786 0.23845212 0.102376804 -0.1735905 0.5960354 0.49657497 0.13533954 -0.16067109
00000000: c188 143e efa9 443d ccaf a73c edd3 7ebc
00000010: 9646 8a3e afae 183f a10b 013e 3efd d8bd
00000020: a7c8 88bc 7aaa c0be 8e26 953d ba95 943d
00000030: c508 f4be 37c3 06bf dee1 a2bc 5217 0cbf
00000040: d1da 553e 081b 64ba 9fd3 c23e 431b 053d
00000050: aab5 c2be 64e9 a0bc 547b 77be 8b68 e53d
00000060: f1ed ab3e 7c83 a63e 7bfe ed3e 69e3 15be
00000070: 3439 eebe 78d2 1fbd 5e7e 343e af10 aebe
00000080: 78ce e03d 08f2 d93d e246 2fbc 1bf5 04bc
00000090: 0a36 4b3e c832 a03e c8dd 3c3e 488e a93e
000000a0: 3fdd c63e 7731 033e 4744 213d 75a6 fdbd
000000b0: 27c4 1bbf fd98 8cbd 861c 67be b9f5 1bbe
000000c0: 2c89 d93d 32ec 393e a128 543e 8f19 8d3d
000000d0: ddfa 0bbf cdd9 91be 4ff8 0bbe 68ae 29be
000000e0: 12c3 403d 88f7 29be 78dd 04bd 0ce0 a2be
000000f0: 72a3 86be 0e62 03bf 9a2b a9bc c344 8fbd
00000100: 8c55 d93e 44e7 453e 92e2 023e e259 15bc
00000110: 56ee b8be 2991 75be de14 ab3e d443 6e3e
00000120: 65e3 80bd 1979 a33e bc75 81bd 0ba1 813c
00000130: ee42 5fbd db56 4f3f 2422 1dbf 9846 57bd
00000140: 26f6 ad3d 83d1 5fbe 65e6 a6bd 3abe 88be
00000150: 7a4b 10bf 052b 09bf dd6a 2dbe 24a9 41bd
00000160: 71bf bdbe ead7 91be 56df 12bf 05a2 56be
00000170: 3dfe f13e 9946 e63e a658 823e ff8c af3d
00000180: e925 8e3e 1796 d83e edd0 b33d dce7 053c
00000190: a59f 04bf 9363 93be b0ac a1bd 0a31 b43d
000001a0: 00f0 0b3e ae68 b13e f132 c33e 7691 dcbd
000001b0: d0e9 97be 2a82 c6be c7e5 623e 84ae 503c
000001c0: 5977 593d 98c1 7c3d 0d22 e7bb 40ce 993e
000001d0: 5769 87be 32a3 063f 3a6e 80be 63ae bbbd
000001e0: 91ad b33d f11f 153e 3a4a 67bd 5b6d b7be
000001f0: dc73 cebe 2cd5 77be 3d26 bebd ec43 42be
00000200: 9883 173d 3317 1cbf dc83 9dbe fc43 823c
00000210: 492f 193f 7a75 bb3e 4e74 343e fa0b 6cbd
00000220: 9a40 66be a15e 22bf 7efa f4be 5ca4 223e
00000230: d791 193f ec06 8d3e c777 cd3d aa6d 82bc
00000240: e596 a8bd c6ae d7bd 469c 6ebd 0c15 4cbc
00000250: 0810 12bf 4d83 40bf e62f a43d a38b a63c
00000260: d730 d0bb c501 b1be 579f ecbe c4fa 023e
00000270: 07c9 da3d a496 a43e f237 ddbd 5754 24bd
00000280: f095 c6be 0e67 89be 4a25 cebd fbf2 c7be
00000290: d8e4 7f3e ac8c 003e 80b2 7b3e 7382 c63d
000002a0: 8563 adbe aac5 743e f449 dcbd eba8 ff3c
000002b0: a927 76bd 0411 5abf 8fcb 7ebd c812 293e
000002c0: 3868 eabe 56d8 76be 0667 0abf 4131 5abd
000002d0: 6ce4 b53e 7197 833e f155 7f3d ff59 8f3e
000002e0: f5b1 803e b56c 5dbe f819 ac3e e1e8 83be
000002f0: e037 853d dbcd 3f3e 9ca4 d6be 8769 43be
00000300: 2a4f 67be 290c 83bd 1ad1 a2be dba0 f73d
00000310: 038c ce3e 1bc3 fd3e 28fc de3d 5f05 64be
00000320: 068f ed3c 4bc6 963d e81a c43d ce93 c73d
00000330: 7310 913e 64b4 cb3e 6d93 53bf 58fb 17be
00000340: b117 6f3e 09e4 0bbe 8b86 e83d 4c0e 603e
00000350: 3b25 a13e 1dd4 1c3f 4a74 063c d44a 35be
00000360: 5205 c33e c1d4 053f 8658 dc3e 7c5e 89bd
00000370: 0e78 05bf 6876 8cbe cc32 b9be cc45 0b3e
00000380: f918 bbbe cd01 553d 6e62 ad3d 5b77 b43d
00000390: e8b5 b1bd 608f c1be 86ec 223f 18ef 81be
000003a0: 6126 9c3e ade8 03bd 5118 263e 3428 373e
000003b0: 9a69 7cbe d06b b5bd ac99 36be e503 083e
000003c0: 0802 703d 5f80 563e cf86 4dbd f320 82bd
000003d0: ab35 293f fa6e 0b3f 2a86 75be 0285 2ebe
000003e0: ae89 67bd cb2c 743e eeaa d13d b5c1 31be
000003f0: c795 183f 133f fe3e 7396 0a3e f686 24be

critic_net.0.bias f4 [64]
0.08970367 -0.14362031 -0.11697511 -0.15836665 0.12425702 -0.10305337 -0.16329806 -0.12511572
-0.26413757 0.11937813 -0.08603757 0.07999354 -0.13126536 -0.13465399 0.08274463 -0.09826168
0.09611116 0.13688235 -0.09940687 0.11790798 0.11642543 -0.11711713 0.097012304 0.093056954
0.08664679 0.17350285 0.08051356 -0.06882088 -0.029741675 -0.09446968 0.1426644 0.1213476
-0.11531886 -0.13128093 -0.05351221 -0.17567247 0.102501795 -0.03524368 -0.14622456 0.13259478
-0.10685966 0.07860171 -0.093551464 0.14218041 0.18203403 -0.1015482 0.009740829 -0.12566076
0.13040166 0.028529413 0.11461786 0.03570122 -0.05950946 -0.036849074 0.11406096 0.12657876
0.11920824 0.13440464 0.076483555 -0.030299544 -0.111054935 0.056106996 -0.09359392 0.023859274
00000000: 8fb6 b73d 3411 13be a590 efbd de2a 22be
00000010: 777a fe3d a50d d3bd 9b37 27be 561e 00be
00000020: 0a3d 87be 857c f43d 7734 b0bd a7d3 a33d
00000030: 6d6a 06be bce2 09be 0476 a93d 6b3d c9bd
00000040: eed5 c43d e32a 0c3e d495 cbbd bd79 f13d
00000050: 7570 ee3d 1bdb efbd 63ae c63d a594 be3d
00000060: df73 b13d bbaa 313e 4be4 a43d f6f1 8cbd
00000070: d0a4 f3bc 5279 c1bd 9e16 123e 1785 f83d
00000080: 4b2c ecbd 826e 06be 9e2f 5bbd 7ce3 33be
00000090: 76ec d13d ad5b 10bd e4bb 15be edc6 073e
000000a0: 3dd9 dabd eff9 a03d e997 bfbd be97 113e
000000b0: 2167 3a3e 81f8 cfbd ff97 1f3c 37ad 00be
000000c0: 0388 053e 84b6 e93c c5bc ea3d 713b 123d
000000d0: 31c0 73bd 0eef 16bd cb98 e93d dd9d 013e
000000e0: 7323 f43d 5fa1 093e 69a3 9c3d c036 f8bc
000000f0: c570 e3bd 73d0 653d 2bae bfbd 8674 c33c

critic_net.2.weight f4 [64, 64]
-0.002477372 -0.012417088 0.21831931 0.1750582 0.24442609 0.24237339 0.39752507 0.04209077
0.2364017 -0.15647812 0.014083038 -0.27614945 0.20768827 0.033552162 -0.1107288 0.40115082
-0.7777215 -0.17447656 -0.09011451 -0.112885624 -0.43506503 0.08910639 -0.22194892 0.312437
-0.17867492 0.12378895 -0.048400294 0.38775033 -0.12407803 0.27943045 0.0012759515 0.3249947
0.62020165 0.50340897 -0.0211079 0.33532327 -0.5319105 0.46059993 0.6423554 -0.13653287
0.5040062 0.14542986 0.4411269 -0.29807243 -0.017784236 0.12058545 0.08829097 0.22033429
-0.12519598 0.062015224 0.015120789 -0.02389501 0.24242187 -0.17889334 -0.40569347 0.016384026
-0.5395282 -0.26144275 0.035397828 -0.4515157 0.23925132 0.19835243 0.12757088 -0.065569356
-0.29520535 0.5835222 -0.0095893415 -0.13340749 -0.19404285 0.1491324 -0.24120888 0.099784486
-0.13700256 -0.067633025 0.47506452 0.24816513 -0.19182682 -0.12125155 -0.22275583 0.2094941
-0.047344793 -0.09023776 -0.0019999791 0.39944863 -0.026287436 0.09237967 -0.28234816 0.047091376
0.34309888 0.2267886 -0.45595828 0.1346822 -0.12946483 0.04522603 -0.14899857 -0.13519129
-0.097039826 -0.020783167 -0.24709946 0.055507045 -0.26252383 0.017724548 -0.08270162 -0.08767695
-0.12852 -0.24002714 0.039922886 -0.51217425 0.17781684 0.12347242 -0.06782361 0.18142323
-0.13321708 -0.17351137 0.18508737 0.20241621 -0.07836224 -0.13496223 -0.355777 -0.24074523
-0.06862158 -0.058420934 -0.14604706 -0.013362849 0.29658508 -0.39959687 0.007235516 0.21052451
0.37657043 -0.39673743 0.19667873 -0.011289765 -0.0027631458 0.0041107587 -0.19062504 -0.1356757
0.04855976 0.35343426 -0.25173944 0.16541705 0.32051224 -0.24290101 -0.16971989 -0.12903802
0.058724336 -0.096545696 -0.25477302 0.28999642 0.10912921 -0.11138748 0.21368103 0.18239312
0.0672957 0.11950073 0.1779727 -0.03160021 0.1337096 0.095294446 -0.19778605 0.37273303
-0.06324015 -0.10201265 0.27159956 0.016972952 -0.041882865 0.08396267 0.035358876 0.38635033
-0.0002477907 0.32994205 0.04543869 0.2550219 0.10512676 0.14108652 -0.32769728 -0.36267108
0.07507499 -0.12030916 0.08658954 0.21252711 -0.27868652 -0.1351626 0.23279378 0.12539577
0.104357 -0.37898305 0.07277388 0.25520775 0.04228758 -0.26815525 -0.24135995 0.12534341
0.23488328 -0.45263314 -0.55222195 -0.30033985 0.24477993 -0.11454357 -0.10322041 0.20326564
-0.06694814 0.11364276 0.013150172 0.1744366 0.04610639 -0.14669146 -0.050127044 -0.18758641
0.1630759 0.13004866 -0.3104454 0.021590061 -0.0036073788 -0.21871154 -0.083628066 0.030463602
0.072620034 -0.19036222 0.24423614 -0.25875407 -0.13032275 -0.08901573 -0.019408211 0.236205
0.25666144 -0.39081264 -0.0074946587 -0.089309804 -0.100177824 0.18862467 -0.03932522 0.40516827
0.2516286 -0.00191549 0.19846869 -0.06235264 -0.042601246 0.117709816 0.13780704 -0.043648142
-0.14306635 -0.2467772 -0.054416455 0.27347845 -0.16964546 -0.01666464 0.22883625 0.21324013
-0.0040715453 0.30921102 -0.15146023 -0.20448422 -0.36699226 0.27105218 -0.23704772 0.08509254
00000000: 685b 22bb 0b71 4bbc 198f 5f3e 7542 333e
00000010: d54a 7a3e bb30 783e 6888 cb3e 5f67 2c3d
00000020: 4a13 723e cd3b 20be 8bbc 663c 7663 8dbe
00000030: 3cac 543e fe6d 093d c8c5 e2bd a463 cd3e
00000040: c218 47bf fca9 32be f58d b8bd 9430 e7bd
00000050: d8c0 debe 697d b63d 9446 63be bef7 9f3e
00000060: 8ff6 36be 1085 fd3d 633f 46bd 3687 c63e
00000070: 9f1c febd 8211 8f3e d43d a73a b565 a63e
00000080: 89c5 1e3f 69df 003f 7aea acbc 7eaf ab3e
00000090: 492b 08bf c1d3 eb3e 6771 243f 46cf 0bbe
000000a0: 8d06 013f 91eb 143e 63db e13e f39c 98be
000000b0: 3fb0 91bc 81f5 f63d e5d1 b43d 509f 613e
000000c0: 6033 00be ad03 7e3d 30bd 773c 78bf c3bc
000000d0: 703d 783e d12f 37be 0eb7 cfbe cb37 863c
000000e0: 851e 0abf d3db 85be 50fd 103d 112d e7be
000000f0: 4cfe 743e e61c 4b3e f1a1 023e 3a49 86bd
00000100: 2825 97be b661 153f 9d1c 1dbc f99b 08be
00000110: 2bb3 46be 2ab6 183e 76ff 76be cf5b cc3d
00000120: 664a 0cbe 2f83 8abd a83b f33e 001f 7e3e
00000130: 406e 44be bc52 f8bd 1b1a 64be 9f85 563e
00000140: 9dec 41bd 93ce b8bd 1512 03bb 8884 cc3e
00000150: c058 d7bc 8d31 bd3d f08f 90be e3e2 403d
00000160: a8aa af3e 453b 683e 5d73 e9be 21ea 093e
00000170: 6e92 04be ee3e 393d 1593 18be 966f 0abe
00000180: d1bc c6bd 7641 aabc a407 7dbe 5b5b 633d
00000190: 8669 86be 1233 913c 785f a9bd f98f b3bd
000001a0: bf9a 03be adc9 75be 2e86 233d da1d 03bf
000001b0: 9e15 363e 1cdf fc3d 1be7 8abd 03c7 393e
000001c0: 0f6a 08be f7ac 31be 8b87 3d3e 3246 4f3e
000001d0: 627c a0bd 8a33 0abe 6728 b6be eb85 76be
000001e0: 7989 8cbd ca4a 6fbd 5c8d 15be daef 5abc
000001f0: 00da 973e f697 ccbe e817 ed3b bd93 573e
00000200: d7cd c03e 2b21 cbbe 2666 493e b5f8 38bc
00000210: e515 35bb 8bb3 863b 3633 43be 92ee 0abe
00000220: 99e6 463d 56f5 b43e fee3 80be 1663 293e
00000230: 2e1a a43e 0bbb 78be 0dcb 2dbe 8b22 04be
00000240: ee88 703d c0b9 c5bd 9c71 82be 697a 943e
00000250: 237f df3d 1e1f e4bd 33cf 5a3e 43c5 3a3e
00000260: 54d2 893d ccbc f43d 7a3e 363e 396f 01bd
00000270: 2beb 083e bc29 c33d 6d88 4abe ddd6 be3e
00000280: 0d84 81bd 02ec d0bd 190f 8b3e dc0a 8b3c
00000290: 5e8d 2bbd 9ff4 ab3d 78d4 103d b6cf c53e
000002a0: e8e9 81b9 2aee a83e eb1d 3a3d 3b92 823e
000002b0: b34c d73d fc78 103e f0c7 a7be 06b0 b9be
000002c0: ebc0 993d a664 f6bd db55 b13d b5a0 593e
000002d0: 00b0 8ebe 1168 0abe 7e61 6e3e c067 003e
000002e0: 1fb9 d53d 110a c2be 790a 953d 97aa 823e
000002f0: be35 2d3d a54b 89be 1027 77be 065a 003e
00000300: 3e85 703e 88bf e7be 6b5e 0dbf 25c6 99be
00000310: 97a7 7a3e d295 eabd 3965 d3bd de24 503e
00000320: 1b1c 89bd 89bd e83d d273 573c 829f 323e
00000330: 0eda 3c3d 4936 16be 0452 4dbd a716 40be
00000340: 5efd 263e 7a2b 053e b3f2 9ebe a4dd b03c
00000350: c669 6cbb ebf5 5fbe 3145 abbd ce8e f93c
00000360: d0b9 943d 50ee 42be 0a19 7a3e 6a7b 84be
00000370: 5473 05be e14d b6bd f8fd 9ebc b9df 713e
00000380: 2169 833e 9818 c8be c195 f5bb 0fe8 b6bd
00000390: 082a cdbd d326 413e 7b13 21bd 3772 cf3e
000003a0: 77d5 803e 2e11 fbba 603b 4b3e 7b65 7fbd
000003b0: a57e 2ebd d811 f13d 4a1d 0d3e 65c8 32bd
000003c0: fc7f 12be 2ab3 7cbe cae3 5ebd 5e05 8c3e
000003d0: 8ab7 2dbe 4884 88bc 0d54 6a3e 9f5b 5a3e
000003e0: 996a 85bb e850 9e3e 6418 1bbe 5064 51be
000003f0: 69e6 bbbe 5ac7 8a3e a3bc 72be ff44 ae3d

critic_net.2.bias f4 [64]
-0.117327355 -0.2043343 0.11131059 0.114290416 0.10576922 0.08852443 0.1062209 -0.060428225
-0.12613979 0.13396908 -0.085232235 -0.051320333 -0.07058299 -0.13600518 -0.05644006 0.13905522
0.09499994 0.09073933 0.11515682 0.08340981 -0.125872 -0.12499803 0.12360414 0.10724641
-0.1880988 0.12304503 0.13907608 0.10228767 -0.094091974 -0.09972441 -0.13816577 0.068347566
-0.13364574 -0.11932041 -0.13173811 0.10114368 -0.1104237 -0.09473216 -0.123551965 0.05134876
0.0930005 0.1310183 -0.13270187 -0.121480666 -0.06793751 -0.10144035 -0.11958161 0.24627498
-0.10112327 -0.09606232 -0.18167819 0.061662763 -0.100608505 0.086802825 0.20413624 0.09955528
-0.11188914 0.17254356 -0.11386278 -0.11190134 0.09609277 0.10553978 -0.10168311 0.094933376
00000000: 5349 f0bd 033d 51be cef6 e33d 1811 ea3d
00000010: 889d d83d 4c4c b53d 588a d93d 9683 77bd
00000020: ca2a 01be 312f 093e 3d8e aebd 4535 52bd
00000030: d18d 90bd f144 0bbe b12d 67bd 7e64 0e3e
00000040: 548f c23d 8bd5 b93d 57d7 eb3d c3d2 aa3d
00000050: 97e4 00be f8fe ffbd 2b24 fd3d 01a4 db3d
00000060: f99c 40be 08ff fb3d f669 0e3e 337c d13d
00000070: 4bb3 c0bd 503c ccbd 547b 0dbe cff9 8b3d
00000080: 6eda 08be 425e f4bd 5be6 06be 6b24 cf3d
00000090: d225 e2bd ef02 c2bd d008 fdbd 1453 523d
000000a0: 0c77 be3d a929 063e 00e3 07be dbca f8bd
000000b0: d222 8bbd f5bf cfbd 34e7 f4bd 822f 7c3e
000000c0: b819 cfbd 52bc c4bd d909 3abe 1892 7c3d
000000d0: d50b cebd aec5 b13d 1709 513e a3e3 cb3d
000000e0: 2226 e5bd 42af 303e e430 e9bd 882c e5bd
000000f0: 49cc c43d 3d25 d83d 3c3f d0bd 6e6c c23d

critic_head.weight f4 [1, 64]
0.43492147 0.18725453 -0.38153484 -0.32042572 -0.41425854 -0.414693 -0.5162181 0.39041868
0.6200172 -0.5165051 0.42968932 0.29936966 0.4074458 0.6010788 0.31033626 -0.329301
-0.560637 -0.29110718 -0.40354425 -0.63385993 0.576702 0.41931036 -0.35047248 -0.3818718
0.26959485 -0.43452212 -0.5514219 -0.65048593 0.358216 0.45647803 0.4558297 -0.42259774
0.40381712 0.4825947 0.2850338 -0.31661725 0.50512373 0.50597656 0.38227525 -0.4303516
-0.36801744 -0.5744368 0.48971447 0.5475037 0.6392729 0.6589926 0.35721192 -0.3709327
0.40990528 0.46094692 0.2664047 -0.4652683 0.40389624 -0.41973498 -0.33160755 -0.46878803
0.73818254 -0.316984 0.33959168 0.46078476 -0.70822346 -0.58341974 0.58342457 -0.46730095
00000000: 07ae de3e a7bf 3f3e 8958 c3be d70e a4be
00000010: b219 d4be a452 d4be df26 04bf f5e4 c73e
00000020: 72b9 1e3f ae39 04bf 3d00 dc3e fb46 993e
00000030: bc9c d03e 4de0 193f 65e4 9e3e 249a a8be
00000040: e885 0fbf 000c 95be 5a9d cebe a544 22bf
00000050: bea2 133f d9af d63e 2171 b3be b384 c3be
00000060: 5608 8a3e af79 debe fc29 0dbf 3f86 26bf
00000070: 1668 b73e 7db7 e93e 8362 e93e bb5e d8be
00000080: 1ec1 ce3e a716 f73e f3ef 913e a81b a2be
00000090: ca4f 013f ae87 013f 95b9 c33e 0b57 dcbe
000000a0: c86c bcbe 4a0e 13bf dbbb fa3e 3429 0c3f
000000b0: 64a7 233f bdb3 283f 7be4 b63e e4ea bdbe
000000c0: 1bdf d13e 3c01 ec3e 3266 883e a637 eebe
000000d0: 7dcb ce3e 81e7 d6be 77c8 a9be fc04 f0be
000000e0: 88f9 3c3f ba4b a2be f6de ad3e fbeb eb3e
000000f0: 224e 35bf ff5a 15bf 505b 153f 1242 efbe

exp_avg f4 [64, 8]
-0.00036798898 -0.00039488272 -0.0004281162 -0.00036697675 -3.9864903e-05 -2.8456236e-06 -0.0013842615 -0.0014093751
-2.3239512e-07 -5.4944724e-07 -9.1228674e-07 -6.1475826e-06 -9.200063e-07 -1.4387723e-07 2.9472892e-06 -2.805785e-06
0.0005412625 0.0005905211 0.0006499498 0.00059084396 6.8643305e-05 4.829361e-06 0.0019816032 0.0020943643
0.00021798642 0.00023903127 0.0002646686 0.0002129378 2.1029758e-05 1.9090653e-06 0.00086126 0.0009334885
-0.00027747295 -0.0003042016 -0.00033598708 -0.00035997605 -3.764432e-05 -2.643264e-06 -0.001004235 -0.0010670628
0.00031751223 0.00034947405 0.00038758526 0.00036887603 4.137839e-05 2.902477e-06 0.001011749 0.0011064698
0.00042025436 0.00046327247 0.00051728124 0.00041022777 5.643668e-05 1.4019357e-06 0.001471797 0.0015541906
6.9998845e-05 7.678816e-05 8.491426e-05 0.00010000214 1.1660583e-05 5.021897e-07 0.00018833937 0.00020093842
-0.00022604346 -0.00024350369 -0.00026500536 -0.00022941809 -2.032967e-05 -2.4118526e-06 -0.0009538208 -0.0010180445
0.00022233822 0.00024687828 0.0002762035 0.0002760922 2.7004697e-05 2.1418516e-06 0.0007744007 0.0008730614
0.00015384737 0.00016943534 0.0001881697 0.00019297289 2.006925e-05 1.2990356e-06 0.00047231483 0.0005276946
0.00037036013 0.0004078476 0.00045240577 0.0003939396 4.6388013e-05 3.5034275e-06 0.0011661543 0.0012789165
-2.6289537e-05 -2.9358074e-05 -3.2452695e-05 -6.977126e-05 -8.946721e-06 -4.465385e-07 3.9468174e-05 3.0901047e-05
7.9623205e-05 8.932878e-05 0.00010076197 9.35297e-05 1.07746755e-05 8.352384e-07 0.00021859427 0.0002570326
-0.0006929607 -0.0007612547 -0.00084762945 -0.00067973224 -9.1668364e-05 -2.1493315e-06 -0.002453958 -0.0025851806
-0.00049957284 -0.000535775 -0.0005831845 -0.00032326186 -4.6323927e-05 -1.0281659e-06 -0.0022107086 -0.0021730366
0.00015986843 0.00017487248 0.00019314852 0.00013372868 1.7830806e-05 1.5967324e-06 0.0006443658 0.000699184
-0.0003015323 -0.00033021494 -0.00036472126 -0.00030962558 -3.863804e-05 -2.8171933e-06 -0.0010343312 -0.0011203478
1.9347883e-05 2.2226854e-05 2.4746327e-05 6.7550754e-05 6.2726263e-06 5.129558e-07 -0.0001030035 -9.09479e-05
-0.0002753628 -0.0002985406 -0.00032840122 -0.00018812277 -2.2670769e-05 -6.646272e-07 -0.0012011086 -0.001218736
-0.00014489 -0.00015378297 -0.00016470307 -0.00014262111 -1.6588641e-05 -1.1274368e-06 -0.0005283376 -0.00052142376
0.0003682757 0.0003999788 0.0004384924 0.0003761792 4.771263e-05 3.018665e-06 0.001325561 0.0013825091
0.00037434607 0.00041172348 0.00045886327 0.00032839426 3.9773226e-05 1.2923653e-06 0.001439156 0.0015139001
0.00057599397 0.00062398624 0.0006817046 0.0006028242 7.459642e-05 5.432597e-06 0.0020311095 0.002125785
-0.0007411292 -0.00081267254 -0.00090285664 -0.00065631245 -8.209513e-05 -2.1600335e-06 -0.002831712 -0.0029234823
-0.00049517455 -0.0005319387 -0.0005799916 -0.00034454314 -4.6437824e-05 -1.0622172e-06 -0.002160167 -0.0021351958
-0.00039914527 -0.0004352891 -0.0004786505 -0.000438994 -5.4272587e-05 -3.692571e-06 -0.0013458167 -0.0014312732
0.0006578629 0.00070322724 0.0007596874 0.00059492013 6.5995315e-05 5.9039357e-06 0.0027045358 0.002750824
-0.00041709788 -0.00046376468 -0.0005183177 -0.0005038215 -5.3279655e-05 -4.682201e-06 -0.0012732722 -0.0014547405
8.516278e-05 9.46232e-05 0.000105971114 7.214962e-05 8.706859e-06 8.178317e-07 0.00033278955 0.00038080657
0.0011668495 0.0012557324 0.0013713522 0.00074084237 0.00011166861 2.4638412e-06 0.005104628 0.005084607
8.6481705e-05 9.342113e-05 0.00010179518 9.943093e-05 1.0508595e-05 7.4868814e-07 0.00031033444 0.0003179079
00000000: a5ee c0b9 4308 cfb9 c974 e0b9 c966 c0b9
00000010: 9d34 27b8 71f7 3eb6 1c70 b5ba c8ba b8ba
00000020: 4988 79b4 ba7d 13b5 dee3 74b5 5547 ceb6
00000030: 5af6 76b5 ac7c 1ab4 0bca 4536 054b 3cb6
00000040: 83e3 0d3a 33cd 1a3a 6561 2a3a dee2 1a3a
00000050: 98f4 8f38 e50b a236 c9dd 013b 9a41 093b
00000060: 4993 6439 78a4 7a39 38c3 8a39 0e48 5f39
00000070: 1069 b037 7e1d 0036 2ec6 613a 5ab5 743a
00000080: ca79 91b9 3f7d 9fb9 6c27 b0b9 2bbb bcb9
00000090: 48e4 1db8 ee62 31b6 89a0 83ba b0dc 8bba
000000a0: c577 a639 9d39 b739 d034 cb39 b465 c139
000000b0: b58d 2d38 2dc8 4236 aa9c 843a f706 913a
000000c0: 9655 dc39 61e3 f239 289a 073a d713 d739
000000d0: 6cb6 6c38 252a bc35 50e9 c03a fcb5 cb3a
000000e0: 58cc 9238 5409 a138 ff13 b238 3db8 d138
000000f0: d3a1 4337 37ce 0635 f77c 4539 ffb2 5239
00000100: 1406 6db9 0655 7fb9 6bf0 8ab9 f38f 70b9
00000110: a289 aab7 50db 21b6 d509 7aba e86f 85ba
00000120: 7623 6939 716f 8139 68cf 9039 78c0 9039
00000130: 2588 e237 bbbc 0f36 2701 4b3a 29de 643a
00000140: 1752 2139 74aa 3139 6b4f 4539 c458 4a39
00000150: 635a a837 865a ae35 06a1 f739 fc54 0a3a
00000160: e52c c239 61d4 d539 e030 ed39 ae89 ce39
00000170: c090 4238 6d1c 6b36 a5d9 983a 51a1 a73a
00000180: 5a88 dcb7 fc45 f6b7 d11d 08b8 2952 92b8
00000190: e019 16b7 c9bb efb4 a18a 2538 bf9b 0138
000001a0: 62fb a638 0656 bb38 2c50 d338 6025 c438
000001b0: e1c4 3437 2535 6035 7436 6539 55c2 8639
000001c0: cea7 35ba f08e 47ba 7333 5eba 0f30 32ba
000001d0: 143e c0b8 3c3d 10b6 95d2 20bb 226c 29bb
000001e0: c4f5 02ba 4073 0cba d9e0 18ba 797b a9b9
000001f0: f04b 42b8 83ff 89b5 89e1 10bb 8169 0ebb
00000200: 5ba2 2739 f95d 3739 e987 4a39 8539 0c39
00000210: 5d93 9537 4f4f d635 a8ea 283a 7249 373a
00000220: fb16 9eb9 b320 adb9 0f38 bfb9 3e55 a2b9
00000230: 480f 22b8 030f 3db6 6592 87ba a2d8 92ba
00000240: 434d a237 ce73 ba37 5596 cf37 09aa 8d38
00000250: 7379 d236 0eb2 0935 9503 d8b8 48bb beb8
00000260: 925e 90b9 7185 9cb9 442d acb9 d242 45b9
00000270: 1b2d beb7 d568 32b5 846e 9dba ffbd 9fba
00000280: 9ded 17b9 cd40 21b9 25b4 2cb9 908c 15b9
00000290: d627 8bb7 6f52 97b5 2380 0aba 28b0 08ba
000002a0: 2115 c139 3fb4 d139 74e5 e539 eb39 c539
000002b0: 0c1f 4838 4594 4a36 72be ad3a 4f35 b53a
000002c0: e143 c439 97dc d739 9693 f039 552c ac39
000002d0: 2dd2 2638 5575 ad35 10a2 bc3a 0f6e c63a
000002e0: 4dfe 163a 0293 233a 6cb4 323a d906 1e3a
000002f0: a670 9c38 a749 b636 5d1c 053b c150 0b3b
00000300: 5748 42ba 8809 55ba afad 6cba 620c 2cba
00000310: 7d2a acb8 18f5 10b6 3e94 39bb e597 3fbb
00000320: 9ace 01ba cd71 0bba 940a 18ba cca3 b4b9
00000330: 3cc6 42b8 8191 8eb5 9791 0dbb a4ee 0bbb
00000340: 5f44 d1b9 8437 e4b9 62f3 fab9 c728 e6b9
00000350: bfa2 63b8 e3cd 77b6 1d66 b0ba 8f99 bbba
00000360: 6f74 2c3a c858 383a c225 473a 6af4 1b3a
00000370: f766 8a38 6c1a c636 953e 313b 2b47 343b
00000380: eead dab9 7125 f3b9 b6df 07ba e312 04ba
00000390: 9878 5fb8 cd1b 9db6 ede3 a6ba feac beba
000003a0: 6b99 b238 7270 c638 cf3c de38 084f 9738
000003b0: ad13 1237 f788 5b35 427a ae39 fea6 c739
000003c0: f9f0 983a 6397 a43a f2be b33a 1735 423a
000003d0: a12f ea38 7858 2536 b944 a73b c69c a63b
000003e0: 835d b538 16eb c338 df7a d538 9385 d038
000003f0: 124e 3037 75f9 4835 62b4 a239 e0ac a639

exp_avg_sq f4 [64, 8]
4.060162e-06 4.605938e-06 5.315495e-06 2.627682e-06 6.753723e-07 2.16757e-09 1.1128135e-05 9.962012e-06
5.753468e-07 6.854148e-07 8.225251e-07 2.1016072e-07 3.0854718e-08 8.266935e-10 7.087703e-07 5.475372e-07
8.645761e-06 1.0057098e-05 1.1851419e-05 6.220662e-06 1.0403638e-06 4.9444773e-09 2.0744323e-05 1.6594771e-05
2.2048062e-06 2.5238044e-06 2.9358093e-06 1.5383981e-06 3.221071e-07 1.9463446e-09 5.6953304e-06 4.8711786e-06
2.5474278e-06 3.0265776e-06 3.6265358e-06 1.7725135e-06 2.1734547e-07 1.2477418e-09 5.361884e-06 3.8483004e-06
2.6329437e-06 3.0928052e-06 3.6840258e-06 2.1841001e-06 3.5450103e-07 1.3392267e-09 5.9156714e-06 5.283865e-06
2.1785756e-06 2.3078371e-06 2.4937883e-06 3.3542524e-06 7.1742494e-07 7.032592e-10 1.2144637e-05 1.0504148e-05
9.828168e-08 1.19011524e-07 1.4565838e-07 9.6090574e-08 1.163333e-08 7.5914074e-11 2.0063818e-07 1.7873447e-07
2.239632e-06 2.5913998e-06 3.0353733e-06 1.218953e-06 3.2505093e-07 1.5069798e-09 4.5755646e-06 4.4952885e-06
2.374739e-06 2.7896042e-06 3.314752e-06 1.7902562e-06 2.9032344e-07 1.9804731e-09 5.1420075e-06 4.436197e-06
9.128978e-07 1.0564323e-06 1.2443609e-06 6.8960696e-07 1.3762586e-07 1.3591669e-09 1.9344027e-06 1.9790837e-06
3.9587894e-06 4.6239406e-06 5.479518e-06 3.1535458e-06 5.500749e-07 2.0536903e-09 9.046556e-06 8.128098e-06
1.1456229e-07 1.4068809e-07 1.7317e-07 8.069812e-08 6.700529e-09 2.9401498e-10 2.7566662e-07 1.4110891e-07
3.508566e-07 4.0988957e-07 4.8594785e-07 3.2593817e-07 5.6535132e-08 2.2470417e-10 8.755678e-07 8.302372e-07
6.0026223e-06 6.284474e-06 6.7223555e-06 9.076609e-06 2.0780367e-06 2.953097e-09 3.400292e-05 3.0199479e-05
3.5876653e-06 3.7018972e-06 3.8727453e-06 4.533255e-06 1.2909429e-06 9.865334e-10 2.307083e-05 1.9139656e-05
1.7139281e-06 1.990351e-06 2.337776e-06 1.0493591e-06 1.9707905e-07 2.0277204e-09 3.936867e-06 3.156852e-06
4.360708e-06 5.092989e-06 6.0251573e-06 2.8701177e-06 5.085085e-07 3.898933e-09 9.151319e-06 7.878211e-06
1.4798529e-07 1.8332678e-07 2.2765471e-07 9.726888e-08 5.4867484e-09 1.0503638e-10 1.6639598e-07 1.1579984e-07
1.8804892e-06 1.9250988e-06 2.0099235e-06 2.3712819e-06 6.006277e-07 2.3057234e-09 1.162034e-05 9.37806e-06
7.746226e-07 8.8655895e-07 1.0299107e-06 3.9436785e-07 1.046842e-07 6.138811e-10 1.8176884e-06 1.6192e-06
3.4423178e-06 3.951944e-06 4.6082155e-06 2.5839038e-06 5.025349e-07 1.6067375e-09 9.277648e-06 7.717925e-06
2.4014928e-06 2.4924052e-06 2.6515058e-06 3.255882e-06 7.8244534e-07 2.7702949e-09 1.3400768e-05 1.1525762e-05
1.22374695e-05 1.4355985e-05 1.7013796e-05 7.099246e-06 1.3304859e-06 6.4305503e-09 2.4870615e-05 2.0826792e-05
8.603028e-06 8.9152745e-06 9.426141e-06 1.2032678e-05 2.752827e-06 5.8797256e-09 5.239744e-05 4.2199674e-05
3.6698948e-06 3.7895218e-06 3.966273e-06 4.6296645e-06 1.2931225e-06 1.4353491e-09 2.3646386e-05 1.9366906e-05
6.915717e-06 8.114146e-06 9.622936e-06 4.3018135e-06 7.326668e-07 5.1815983e-09 1.38854575e-05 1.158741e-05
1.6329983e-05 1.8799275e-05 2.1926722e-05 9.344111e-06 2.1587548e-06 9.562953e-09 4.080995e-05 3.3202898e-05
6.3878924e-06 7.5893827e-06 9.113979e-06 4.5801607e-06 7.001673e-07 3.1974812e-09 1.1073991e-05 1.0209478e-05
5.035319e-07 5.699681e-07 6.5755876e-07 3.5160588e-07 7.859175e-08 8.5729757e-10 1.1717445e-06 1.1493365e-06
2.166114e-05 2.2338661e-05 2.3326365e-05 2.7676213e-05 7.3274114e-06 1.0384519e-08 0.00014199922 0.00011297177
3.4069595e-07 3.9756327e-07 4.6957882e-07 2.3076394e-07 4.589259e-08 6.647831e-10 8.3165133e-07 7.0324285e-07
00000000: 873c 8836 b58c 9a36 c15b b236 3c57 3036
00000010: 3b4b 3535 4bf4 1431 fab2 3a37 8422 2737
00000020: 8871 1a35 59fd 3735 7fcb 5c35 8aa8 6134
00000030: 1f85 0433 623d 6330 5342 3e35 78fa 1235
00000040: 430d 1137 e8ba 2837 75d5 4637 14bb d036
00000050: a1a2 8b35 15e4 a931 1804 ae37 0035 8b37
00000060: 48f6 1336 a15e 2936 d204 4536 f57a ce35
00000070: 10ee ac34 75c0 0531 841a bf36 1b73 a336
00000080: 7af4 2a36 351c 4b36 695f 7336 1ae7 ed35
00000090: 785f 6934 037d ab30 3cea b336 a620 8136
000000a0: a1b1 3036 fd8d 4f36 153b 7736 8e92 1236
000000b0: 4052 be34 da0f b830 3b7f c636 0e4c b136
000000c0: a533 1236 57e0 1a36 f55a 2736 9e19 6136
000000d0: 1195 4035 774f 4130 d2c0 4b37 f93a 3037
000000e0: ed0e d333 4793 ff33 4566 1c34 5a5a ce33
000000f0: eddb 4732 d3ef a62e 016f 5734 28ea 3f34
00000100: 964c 1636 e9e7 2d36 51b3 4b36 e89a a335
00000110: a982 ae34 231e cf30 cd87 9936 3cd6 9636
00000120: b55d 1f36 0935 3b36 0173 5e36 bc48 f035
00000130: c0dd 9b34 da18 0831 8289 ac36 a4da 9436
00000140: dc0d 7535 bdca 8d35 ea03 a735 6e1d 3935
00000150: 4fc6 1334 6fcd ba30 c9d0 0136 66d0 0436
00000160: bed5 8436 5927 9b36 b4dc b736 81a1 5336
00000170: dca8 1335 e720 0d31 aac6 1737 ea5d 0837
00000180: 4905 f633 0c10 1734 9bf0 3934 434c ad33
00000190: 7a3a e631 eea2 a12f 55ff 9334 b983 1734
000001a0: 5d5d bc34 cb0e dc34 1572 0235 9afc ae34
000001b0: 09d1 7233 9a10 772f 9008 6b35 77dd 5e35
000001c0: 226a c936 38df d236 9890 e136 bd47 1837
000001d0: 6674 0b36 6fef 4a31 5b9e 0e38 e354 fd37
000001e0: 9fc3 7036 1c6e 7836 a1f2 8136 5d1c 9836
000001f0: 7644 ad35 8f96 8730 3b88 c137 198e a037
00000200: 1f0a e635 f891 0536 b0e2 1c36 b4d7 8c35
00000210: ad9c 5334 0958 0b31 6e19 8436 4eda 5336
00000220: 3252 9236 71e4 aa36 b52b ca36 3f9c 4036
00000230: 7080 0835 61f7 8531 9e88 1937 a92c 0437
00000240: e3e5 1e34 7bd8 4434 4071 7434 22e2 d033
00000250: f385 bc31 3afa e62e 94aa 3234 a3ad f833
00000260: 1e65 fc35 f230 0136 39e2 0636 5022 1f36
00000270: d23a 2135 b772 1e31 fbf4 4237 7656 1d37
00000280: a9ef 4f35 defb 6d35 763b 8a35 81b9 d334
00000290: bfce e033 0bbe 2830 4cf7 f335 4a53 d935
000002a0: 9202 6736 f19a 8436 45a0 9a36 2167 2d36
000002b0: efe5 0635 0dd4 dc30 32a7 1b37 3c7c 0137
000002c0: 5529 2136 3243 2736 86f0 3136 a07f 5a36
000002d0: 3c09 5235 8b5f 3e31 dcd3 6037 c55e 4137
000002e0: 884f 4d37 7cda 7037 d9b8 8e37 0f36 ee36
000002f0: 2693 b235 b8f3 dc31 3da1 d037 32b5 ae37
00000300: b955 1037 d092 1537 f824 1e37 f5df 4937
00000310: 35bd 3836 9d06 ca31 53c5 5b38 8eff 3038
00000320: 5048 7636 7d4f 7e36 0716 8536 8458 9b36
00000330: 5a8f ad35 db45 c530 3a5c c637 1d76 a237
00000340: 8f0d e836 fe21 0837 3272 2137 4c58 9036
00000350: 7bac 4435 d209 b231 96f5 6837 8c67 4237
00000360: 5ffc 8837 23b3 9d37 47ef b737 a7c4 1c37
00000370: 20df 1036 504a 2432 5a2b 2b38 5743 0b38
00000380: 9457 d636 4da8 fe36 3ee8 1837 48af 9936
00000390: 21f3 3b35 afba 5b31 6eca 3937 6049 2b37
000003a0: 732a 0735 e9ff 1835 1883 3035 58c4 bc34
000003b0: 46c6 a833 f4a6 6b30 d644 9d35 e742 9a35
000003c0: f2b4 b537 e963 bb37 fdac c337 372a e837
000003d0: fcdd f536 9967 3232 a0e5 1439 42eb ec38
000003e0: e5e8 b634 ae70 d534 6c1a fc34 e9c7 7734
000003f0: 701b 4533 f4bb 3630 a53e 5f35 7bc6 3c35

exp_avg f4 [64]
-0.0011750296 -1.5013625e-06 0.0017246153 0.0007386512 -0.0008844377 0.0009138841 0.0012841091 0.00017895768
-0.0008104413 0.00069822185 0.00043572756 0.001048783 2.476072e-06 0.00020707173 -0.002140769 -0.001782332
0.00055272627 -0.0009166223 -5.255069e-05 -0.000976802 -0.00044632767 0.0011506602 0.0012186874 0.0017742406
-0.0023859981 -0.0017510392 -0.001194378 0.0022589264 -0.0011739682 0.00029104817 0.0041490686 0.00026758754
-0.0022904454 -0.0006290614 -0.000807143 -0.001489373 0.00046590302 -0.0017629077 0.0006503698 0.00044020734
-0.00017014491 -0.0019455539 0.0009895954 -0.00111987 -0.00032855166 -0.0011315102 -0.0012542179 0.000805321
-0.00084930327 -4.1153056e-05 0.000451252 -0.0014422232 0.00023976153 0.0012186529 0.0011791071 -0.0016384788
0.0003204676 0.00035108768 -0.0011791207 0.004532739 0.0017554489 -0.0014962844 0.0005621472 -0.0021094314
00000000: 7303 9aba 6c82 c9b5 7d0c e23a 0ba2 413a
00000010: 9cd9 67ba b991 6f3a 8d4f a83a 96a6 3b39
00000020: cc73 54ba e008 373a 5d72 e439 5177 893a
00000030: 982a 2636 6521 5939 254c 0cbb 239d e9ba
00000040: d5e4 103a 7b49 70ba e069 5cb8 0908 80ba
00000050: 1601 eab9 c0d1 963a 5dbc 9f3a a38d e83a
00000060: 685e 1cbb 2083 e5ba ad8c 9cba 7f0a 143b
00000070: d6df 99ba d397 9839 e9f4 873b fe4a 8c39
00000080: 4c1b 16bb 99e7 24ba 7396 53ba 1137 c3ba
00000090: 7244 f439 5e11 e7ba 947d 2a3a a1cb e639
000000a0: ed68 32b9 f501 ffba 50b5 813a 9ac8 92ba
000000b0: 7541 acb9 2f4f 94ba 9264 a4ba 2d1c 533a
000000c0: c7a3 5eba c29b 2cb8 0596 ec39 fb08 bdba
000000d0: 7f68 7b39 35bb 9f3a 458c 9a3a 3ac2 d6ba
000000e0: 6f04 a839 3112 b839 ba8c 9aba 5f87 943b
000000f0: 1717 e63a f91e c4ba 0f5d 133a 633e 0abb
