results/quickstart_20251215_150633/models/checkpoint_20.pt (torch, 145955 bytes, 30 tensors)

actor_net.0.weight f4 [64, 8]
-0.03344766 -0.12730949 0.2579782 0.36276856 -0.13709247 0.6167486 0.13382912 -0.016963707
0.06234274 0.13829982 -0.1189467 0.027058857 -0.112385914 0.10273726 0.16424273 -0.091621146
0.043205805 -0.23800795 0.0946535 0.1456006 -0.26841435 -0.34966293 0.10890978 -0.121427394
0.0046213553 -0.111481845 0.0044694687 0.16718702 0.11628817 -0.34473354 -0.17293623 -0.13657174
0.24348655 0.0962446 -0.25157475 0.076764815 0.19553015 0.2870056 -0.29633376 0.49625233
-0.028874472 -0.1324936 0.020151129 -0.13561356 -0.14714496 -0.18971083 0.14222237 0.06997913
0.42657027 -0.08045852 0.46340317 -0.20591876 -0.26181367 0.007465604 0.023838751 0.0020760268
-0.23857115 0.20665823 -0.15760839 -0.16505472 0.30344748 0.011424114 -0.015195914 -0.14967914
0.2565809 -0.10321298 0.0044270563 -0.35929608 0.26173356 0.2230621 -0.34551933 0.020890063
-0.22821325 -0.03146913 0.1269565 0.17585088 -0.0035559 -0.28528357 -0.18564232 -0.21252929
-0.072969414 -0.049541835 -0.031399563 -0.06046917 -0.077885866 -0.15472007 -0.40985504 -0.04764564
0.035778083 -0.11085472 -0.07991226 -0.13749687 -0.06772257 -0.23210026 0.057517204 0.18775445
-0.0754405 -0.031951785 -0.0038451694 0.35251823 0.16655074 -0.04558119 -0.13333952 -0.0042336807
-0.26239005 0.024200486 -0.01695257 -0.20279819 0.18210453 -0.1543052 0.032809816 0.21281321
-0.08268001 -0.6240905 -0.39663434 0.30267766 0.12026849 0.073165976 -0.054882817 0.024849951
-0.24705082 -0.41816914 -0.61300606 -0.042488936 0.121795684 -0.109011255 0.118349366 -0.058797695
-0.2616283 0.008372104 0.105163366 0.21264665 -0.11855358 -0.14792816 -0.15690032 -0.04190053
0.07054325 0.12630492 -0.06274107 -0.09467655 0.10867861 0.21432649 0.2095061 -0.14160407
0.12616684 -0.07575764 0.07479981 -0.2182278 0.33949882 -0.08698516 0.00018174227 -0.0677012
0.15794156 -0.33026168 -0.49833637 0.042923447 0.0815228 0.26350683 0.31550708 -0.016477583
0.05476745 0.027722478 0.009029392 0.5573019 0.23744465 -0.070646636 0.08988688 -0.12463843
0.11085594 -0.21587074 -0.0004441978 0.0058869133 -0.10490557 -0.37582242 -0.0069353017 -0.036449183
-0.068912335 0.05475435 0.5244006 0.0057180026 -0.3195981 -0.28264123 0.0643902 0.09681981
-0.2727054 0.13184544 0.035044942 -0.20529124 -0.2860394 -0.41194507 -0.058718745 0.050866682
-0.043371286 -0.079982325 -0.68058854 0.15624969 0.23163505 0.12883502 0.21312138 -0.20182827
-0.3003559 -0.3553266 -0.43171188 -0.08612317 0.07484598 -0.037244335 0.15456755 -0.058469865
0.22430544 0.0109286755 -0.09981954 -0.10477892 0.2969647 0.1373893 0.1660734 -0.14065665
-0.10325197 -0.06566141 0.03240653 0.40607423 -0.43199858 -0.6330701 -0.064264886 0.13016543
0.0598857 0.26316872 -0.16470341 -0.044511195 0.1527446 0.34715447 -0.16921753 -0.19648412
0.03243223 -0.14670588 -0.015473534 -0.004137525 -0.39668545 -0.22665444 -0.38954183 -0.107925504
0.3779939 0.32615355 0.70964503 -0.086153984 -0.044326805 -0.36163822 -0.24724397 -0.033850208
-0.31266004 -0.090776235 0.20288086 0.034400117 0.016690807 0.028110255 0.055706643 0.11224497
00000000: 6a00 09bd 6b5d 02be b815 843e cdbc b93e
00000010: f861 0cbe 3ce3 1d3f 800a 093e 79f7 8abc
00000020: 1a5b 7f3d 789e 0d3e 549a f3bd 89aa dd3c
00000030: 962a e6bd ea67 d23d 3f2f 283e dea3 bbbd
00000040: 92f8 303d 5bb8 73be b2d9 c13d 5318 153e
00000050: 9b6d 89be 0507 b3be 170c df3d edae f8bd
00000060: bd6e 973b 9850 e4bd 9f74 923b 1333 2b3e
00000070: 7e28 ee3d ea80 b0be 3216 31be 76d9 0bbe
00000080: 8a54 793e e41b c53d 68ce 80be df36 9d3d
00000090: 0e39 483e 66f2 923e 0fb9 97be c914 fe3e
000000a0: 288a ecbc 67ac 07be fb13 a53c 48de 0abe
000000b0: 2bad 16be 8e43 42be bea2 113e 3851 8f3d
000000c0: 6b67 da3e 70c7 a4bd 2e43 ed3e 5edc 52be
000000d0: 710c 86be 07a2 f43b 7c49 c33c f30d 083b
000000e0: ff4b 74be 379e 533e 1864 21be 1b04 29be
000000f0: 785d 9b3e 352c 3b3c 48f8 78bc 7d45 19be
00000100: 925e 833e 5461 d3bd d710 913b a8f5 b7be
00000110: f101 863e 646a 643e e9e7 b0be a321 ab3c
00000120: bcb0 69be c6e5 00bd e200 023e 4112 343e
00000130: 1a0a 69bb b010 92be 0519 3ebe 47a1 59be
00000140: fd70 95bd 61ec 4abd d49c 00bd 85ae 77bd
00000150: a082 9fbd f06e 1ebe 85d8 d1be 1328 43bd
00000160: 0a8c 123d cd07 e3bd 0aa9 a3bd fbcb 0cbe
00000170: 21b2 8abd b1ab 6dbe 2997 6b3d b442 403e
00000180: 8d80 9abd e0df 02bd 3dff 7bbb 457d b43e
00000190: 478c 2a3e 58b3 3abd 288a 08be b0ba 8abb
000001a0: fd57 86be 1940 c63c 1ee0 8abc 54aa 4fbe
000001b0: 9c79 3a3e 2f02 1ebe 9663 063d b5eb 593e
000001c0: 2354 a9bd 65c4 1fbf a813 cbbe 91f8 9a3e
000001d0: 534f f63d 0bd8 953d cecc 60bd 2092 cb3c
000001e0: e4fa 7cbe 441a d6be f7ed 1cbf e108 2ebd
000001f0: 0470 f93d 4b41 dfbd 2761 f23d dad5 70bd
00000200: 25f4 85be 262b 093c e45f d73d 0bc0 593e
00000210: 38cc f2bd 7b7a 17be 7aaa 20be e49f 2bbd
00000220: fb78 903d 1456 013e 647e 80bd c7e5 c1bd
00000230: e492 de3d 6778 5b3e c488 563e a800 11be
00000240: e131 013e d226 9bbd a530 993d 1c77 5fbe
00000250: cad2 ad3e 4725 b2bd 1292 3e39 eda6 8abd
00000260: 6fbb 213e 0f18 a9be f225 ffbe 7fd0 2f3d
00000270: 6df5 a63d 5eea 863e 258a a13e fffb 86bc
00000280: d553 603d 401a e33c 04f0 133c 56ab 0e3f
00000290: b124 733e 2faf 90bd 9d16 b83d 6f42 ffbd
000002a0: 7008 e33d 380d 5dbe 38e3 e8b9 02e7 c03b
000002b0: bbd8 d6bd cc6b c0be 8741 e3bb bd4b 15bd
000002c0: e921 8dbd 1946 603d 1e3f 063f 155e bb3b
000002d0: 5da2 a3be 5ab6 90be 02df 833d 7749 c63d
000002e0: 0ba0 8bbe 7e02 073e 498b 0f3d de37 52be
000002f0: c273 92be 77ea d2be 1183 70bd 9559 503d
00000300: 17a6 31bd c6cd a3bd 0d3b 2ebf ebff 1f3e
00000310: bd31 6d3e 54ed 033e 7e3c 5a3e 12ac 4ebe
00000320: 40c8 99be 5eed b5be 5709 ddbe 5861 b0bd
00000330: d948 993d 848d 18bd f546 1e3e 197e 6fbd
00000340: 53b0 653e 300e 333c 306e ccbd 5596 d6bd
00000350: c20b 983e c8af 0c3e 250f 2a3e 4c08 10be
00000360: c575 d3bd 7d79 86bd b6bc 043d f6e8 cf3e
00000370: eb2e ddbe e210 22bf 4f9d 83bd 164a 053e
00000380: b54a 753d 0dbe 863e 03a8 28be 5f51 36bd
00000390: 1569 1c3e 3bbe b13e 5c47 2dbe 2233 49be
000003a0: a8d7 043d 113a 16be b584 7dbc 1394 87bb
000003b0: 5b1a cbbe 1a18 68be 0772 c7be 0c08 ddbd
000003c0: 6b88 c13e 99fd a63e 4cab 353f 8071 b0bd
000003d0: 0690 35bd a528 b9be 862d 7dbe 84a6 0abd
000003e0: fa14 a0be e4e8 b9bd 00c0 4f3e 23e7 0c3d
000003f0: 29bb 883c 7a47 e63c a62c 643d b1e0 e53d

actor_net.0.bias f4 [64]
0.012207243 -0.023941249 -0.018553767 -0.0104140425 0.0027860473 -0.008013892 -0.027056562 -0.008029949
-0.0039992165 -0.0009516973 -0.005092156 -0.0052043116 0.04524705 0.02285568 0.040952865 0.07105824
-0.0035758514 0.008907003 0.012981285 -0.03173107 0.036337055 -0.018252844 -0.019956782 -0.01876878
0.012696324 0.02958429 0.01680272 -0.01957718 0.016463296 -0.018846743 -0.021430397 0.0066552754
0.026979007 0.0249936 0.013374711 0.0296926 0.011958864 2.6843782e-05 -0.019576827 -0.025753079
0.043532606 0.0042733094 -0.019539393 0.016786328 0.017366169 0.0067760292 0.008972882 -0.02504948
0.031704407 0.038602978 -0.011518052 0.006251879 -0.029476948 -0.009160981 -0.0044973386 0.010068827
-0.012587651 -0.022994952 0.023280762 -0.052048154 -0.015773095 0.020064488 -0.028985454 0.1134717
00000000: e300 483c 7020 c4bc 12fe 97bc a99f 2abc
00000010: 1e96 363b b34c 03bc b9a5 ddbc 0c90 03bc
00000020: dc0b 83bb 537b 79ba 1adc a6bb ee88 aabb
00000030: f854 393d d63b bb3c 31be 273d fc86 913d
00000040: d558 6abb aeee 113c 75af 543c 70f8 01bd
00000050: 2ad6 143d fd86 95bc 687c a3bc fcc0 99bc
00000060: 3e04 503c c15a f23c dca5 893c 5260 a0bc
00000070: 09de 863c 7c64 9abc cd8e afbc 7f14 da3b
00000080: 1403 dd3c 61bf cc3c 9b21 5b3c e53d f33c
00000090: 1cef 433c 952e e137 955f a0bc 1ff8 d2bc
000000a0: 3f4f 323d 1e07 8c3b 1411 a0bc 7b83 893c
000000b0: 7f43 8e3c 7409 de3b ff02 133c 9134 cdbc
000000c0: 7bdc 013d 281e 1e3d 36b6 3cbc 90dc cc3b
000000d0: a479 f1bc f017 16bc 695e 93bb b9f7 243c
000000e0: 6f3c 4ebc e95f bcbc 4cb7 be3c 7230 55bd
000000f0: 9436 81bc 485e a43c e772 edbc da63 e83d

actor_net.2.weight f4 [64, 64]
0.171837 0.036998924 -0.37122005 -0.02490244 0.30550316 -0.37091345 -0.18858616 0.124711886
0.24139811 -0.061810713 -0.09386593 -0.13968791 -0.20507142 0.0019259193 -0.17137097 0.226918
0.17053965 -0.050626248 -0.06433041 -0.025283813 0.13343543 0.19538449 0.04134192 0.039249424
0.31104165 -0.18903008 0.012645421 -0.4020166 -0.10950184 0.18566215 -0.09056106 0.30095047
0.095263615 -0.018627353 0.11014608 0.017682485 0.21057197 -0.27968404 -0.09227466 -0.23697521
-0.3302582 0.1481794 -0.28754374 -0.16584423 -0.07370638 0.24556553 0.0637963 -0.17420462
0.24759082 0.13509943 -0.046642262 0.068136446 0.16666687 0.30021614 -0.065765366 0.08172843
0.0902629 0.10021221 0.009079871 -0.28960392 -0.18170738 0.08924815 0.17271526 0.14462376
0.004439172 0.2962222 -0.044792574 0.38756213 0.07440749 -0.10729813 0.21818869 -0.086536184
0.08427399 0.2237278 0.060916826 0.5221412 -0.071158685 -0.077389024 0.0021916612 -0.25569934
0.29981068 -0.14331593 0.24233639 -0.2448282 0.10079361 0.08646715 0.12573595 0.3475425
-0.18427993 -0.19056766 0.088076346 0.20640443 -0.08641794 -0.35453668 -0.035824597 0.11589417
-0.10386259 -0.051367335 -0.33855307 -0.22796164 0.13737282 -0.03899919 0.15093128 0.20879292
-0.0019235843 0.0016452781 0.298957 -0.10065174 -0.04116772 0.13691188 -0.34036183 -0.062393963
0.19761527 -0.08751736 0.19652751 0.140201 0.014107385 0.016744077 -0.11860228 -0.22864974
0.04030821 -0.07681611 -0.112822585 0.41824508 0.14141311 0.13729301 -0.14113651 0.0008172013
0.06646763 0.18146695 0.043826 -0.076134264 0.17128596 -0.05700761 0.17033963 -0.09771312
0.335428 0.08061222 -0.17113578 -0.010936563 -0.12996992 0.091854714 0.072448134 -0.011773813
0.06720962 0.085581586 -0.07110117 0.09154774 -0.22817199 0.0059284084 -0.23979406 0.29169807
0.4420187 0.32226524 -0.07703355 -0.08371283 0.13738929 0.087624595 -0.26044485 -0.24160495
0.11490622 0.17610846 0.11853724 0.4062552 0.20909105 0.042832345 0.20145084 0.0917876
0.2511426 0.18531305 -0.40266585 0.35311717 0.36967552 0.16527419 0.3502497 -0.10346668
-0.13425128 0.003410709 -0.067184895 0.03712262 0.053860437 0.18896286 0.036047786 0.10911299
-0.039197695 -0.11606089 0.14915134 -0.024037024 0.25453568 0.1536856 -0.14228977 0.3888591
-0.2220828 -0.07423251 0.01181919 -0.12539 0.01805145 0.09976426 0.10256165 -0.068370044
-0.3314185 0.12091829 0.048727274 0.14534578 0.09375525 0.10267726 -0.1639932 -0.38240314
0.2005695 0.21837237 -0.20263109 -0.27194515 -0.32759708 0.008876215 0.39907208 0.055239566
0.009298314 -0.32264212 -0.34989434 0.05167902 0.051981613 -0.24146262 0.37107265 0.028443689
0.25341988 -0.21718828 -0.00449212 -0.051031865 0.35465714 -0.1412216 -0.2501815 0.13468604
-0.38069895 -0.13944106 0.17608595 0.0018730947 0.27069253 -0.12750539 -0.14739247 0.23380695
-0.296606 -0.08679335 0.23637144 -0.16478491 -0.09715035 0.032074124 0.08820815 0.06070793
0.2514439 0.15433942 0.02022411 0.26690426 0.02326989 -0.13428529 -0.06306139 0.20646073
00000000: 0af6 2f3e 2f8c 173d 8e10 bebe 3400 ccbc
00000010: e96a 9c3e 5ee8 bdbe bb1c 41be f268 ff3d
00000020: 1131 773e 3b2d 7dbd c83c c0bd 590a 0fbe
00000030: 3efe 51be 216f fc3a df7b 2fbe 315d 683e
00000040: f2a1 2e3e 785d 4fbd a9bf 83bd 0020 cfbc
00000050: 4ca3 083e df12 483e 2556 293d 01c4 203d
00000060: da40 9f3e 1a91 41be bd2e 4f3c 1fd5 cdbe
00000070: 8042 e0bd 381e 3e3e 1478 b9bd 2e16 9a3e
00000080: 9219 c33d 6498 98bc 4594 e13d dcda 903c
00000090: 2ea0 573e bf32 8fbe 7ffa bcbd a1a9 72be
000000a0: 9a17 a9be 57bc 173e ef38 93be 12d3 29be
000000b0: 5ff3 96bd 8875 7b3e a2a7 823d b262 32be
000000c0: 7388 7d3e 8157 0a3e f50b 3fbd 1f8b 8b3d
000000d0: b8aa 2a3e eeb5 993e feaf 86bd 3c61 a73d
000000e0: c1db b83d 0f3c cd3d bdc3 143c f746 94be
000000f0: 8011 3abe bcc7 b63d 45dc 303e 4018 143e
00000100: 7976 913b 70aa 973e 6b78 37bd 8b6e c63e
00000110: f462 983d 1fbf dbbd db6c 5f3e e239 b1bd
00000120: d797 ac3d e718 653e ec83 793d 0cab 053f
00000130: a5bb 91bd 237e 9ebd f9a1 0f3b 06eb 82be
00000140: c980 993e 69c1 12be 0827 783e 3eb4 7abe
00000150: e16c ce3d b015 b13d edc0 003e 17f1 b13e
00000160: e1b3 3cbe 2b24 43be 5f61 b43d af5b 533e
00000170: e4fb b0bd d585 b5be d0bc 12bd ec59 ed3d
00000180: e9b5 d4bd 8e66 52bd d456 adbe c76e 69be
00000190: 76ab 0c3e 9dbd 1fbd bb8d 1a3e d0cd 553e
000001a0: c720 fcba 5fa6 d73a e410 993e 8022 cebd
000001b0: 7c9f 28bd a132 0c3e e843 aebe d090 7fbd
000001c0: a85b 4a3e 4d3c b3bd 823e 493e da90 0f3e
000001d0: a922 673c e02a 893c c1e5 f2bd 2823 6abe
000001e0: 391a 253d c451 9dbd 870f e7bd 3824 d63e
000001f0: 99ce 103e 8a96 0c3e 1786 10be 7339 563a
00000200: 2e20 883d 79d2 393e e482 333d 48ec 9bbd
00000210: 9665 2f3e d080 69bd 836d 2e3e d11d c8bd
00000220: 38bd ab3e 0518 a53d 383e 2fbe 452f 33bc
00000230: d616 05be 531e bc3d b05f 943d f3e6 40bc
00000240: 32a5 893d 6645 af3d 7d9d 91bd 627d bb3d
00000250: eba5 69be 1843 c23b 938c 75be 7359 953e
00000260: 4650 e23e f3ff a43e c4c3 9dbd a271 abbd
00000270: c7af 0c3e 8674 b33d 0759 85be 4a67 77be
00000280: f453 eb3d c755 343e a7c3 f23d ae00 d03e
00000290: f71b 563e f870 2f3d 2149 4e3e 23fb bb3d
000002a0: c395 803e b4c2 3d3e 382a cebe c6cb b43e
000002b0: 1c46 bd3e a33d 293e ee53 b33e 57e6 d3bd
000002c0: 2b79 09be 3486 5f3b 3c98 89bd e30d 183d
000002d0: c39c 5c3d 7b7f 413e d8a6 133d a276 df3d
000002e0: c38d 20bd 55b1 edbd 21bb 183e 4be9 c4bc
000002f0: 8052 823e c25f 1d3e 69b4 11be 8a18 c73e
00000300: ac69 63be 3707 98bd 47a5 413c 3c66 00be
00000310: a2e0 933c 3451 cc3d d80b d23d 9805 8cbd
00000320: b0af a9be 02a4 f73d 4096 473d 86d5 143e
00000330: c102 c03d 7548 d23d d5ed 27be 58ca c3be
00000340: 1762 4d3e 029d 5f3e 867e 4fbe 653c 8bbe
00000350: ceba a7be 8b6d 113c 2d53 cc3e e242 623d
00000360: f557 183c 5931 a5be 5a25 b3be 61ad 533d
00000370: acea 543d fa41 77be 3cfd bd3e bd02 e93c
00000380: 40c0 813e 9b66 5ebe a232 93bb ca06 51bd
00000390: 9f95 b53e 659c 10be ca17 80be 23eb 093e
000003a0: f9ea c2be a3c9 0ebe e04f 343e a182 f53a
000003b0: 3698 8a3e c690 02be 0dee 16be 176b 6f3e
000003c0: bedc 97be b6c0 b1bd 5b0b 723e 60bd 28be
000003d0: c3f6 c6bd 2860 033d 79a6 b43d e1a8 783d
000003e0: 41bd 803e 270b 1e3e 08ad a53c ada7 883e
000003f0: 7fa0 be3c 1582 09be 5426 81bd 716a 533e

actor_net.2.bias f4 [64]
0.05183693 -0.034235384 0.046070587 -0.030919194 -0.048350222 0.04168402 0.056828577 -0.048818387
-0.01318992 0.03253865 0.026687887 -0.09852911 0.020138618 0.04156064 -0.025860276 -0.019882351
-0.012655981 -0.025411837 -0.03441662 0.055760328 -0.059893608 0.028254746 -0.043960135 0.031633925
0.0053461683 -0.03672937 0.01605611 -0.038435772 -0.03143678 0.04309423 -0.08982945 0.032907788
0.01857242 0.03464568 0.04012952 0.03901824 -0.020076852 -0.037308708 0.05200202 0.035010476
0.021724608 0.033448536 0.03520942 -0.034026872 -0.038952153 0.050344616 -0.02554883 0.047468897
-0.07565066 0.030185755 0.043356407 0.04076937 0.027959857 -0.024097497 0.04586552 -0.041077964
-0.03356615 -0.031803176 0.016161693 0.03166414 -0.03801878 0.047033567 0.028339475 0.030194588
00000000: f652 543d 673a 0cbd 83b4 3c3d 404a fdbc
00000010: e20a 46bd ddbc 2a3d 15c5 683d caf5 47bd
00000020: 891a 58bc 3f47 053d 8ea0 da3c a1c9 c9bd
00000030: bef9 a43c 7d3b 2a3d eed8 d3bc 50e0 a2bc
00000040: 085b 4fbc 7c2c d0bc 71f8 0cbd f164 643d
00000050: 0053 75bd 7f76 e73c 8b0f 34bd 9392 013d
00000060: e92e af3b 8971 16bd 1a88 833c d46e 1dbd
00000070: dac3 00bd 9383 303d 81f8 b7bd 51ca 063d
00000080: 3025 983c a1e8 0d3d da5e 243d 97d1 1f3d
00000090: 3678 a4bc 04d1 18bd 1200 553d 2567 0f3d
000000a0: cef7 b13c 5501 093d c137 103d c35f 0bbd
000000b0: 4b8c 1fbd 2836 4e3d c84b d1bc bf6e 423d
000000c0: bcee 9abd 1e48 f73c 7d96 313d c8fd 263d
000000d0: 120c e53c 1d68 c5bc 7cdd 3b3d 5e41 28bd
000000e0: a97c 09bd 0c44 02bd 8765 843c 42b2 013d
000000f0: 95b9 1bbd 45a6 403d 3028 e83c a45a f73c

actor_mean.weight f4 [1, 64]
-0.07290624 0.119627334 -0.13671863 0.12813644 0.08323283 -0.16351037 -0.06649486 0.19630687
0.11193968 -0.093012 -0.09548643 0.053488072 -0.19183844 -0.18225041 0.13895637 0.10550746
-0.10245078 0.17600124 0.23102622 -0.0643 0.043636587 -0.08311544 0.09141216 -0.11814693
-0.15054359 0.089476205 -0.17921124 0.20790485 0.08098282 -0.08143879 0.025403205 -0.16019543
-0.13695647 -0.1499227 -0.14160231 -0.12389749 0.13356972 0.0451394 -0.103323475 -0.072972946
-0.2269365 -0.17334862 -0.2573128 0.1933047 0.0793148 -0.06325478 0.15337458 -0.04183262
0.05115119 -0.25921127 -0.25855297 -0.09809988 -0.12529887 0.07622348 -0.06743045 0.18272011
0.114776075 0.099721044 -0.2141485 -0.16083403 0.18817855 -0.26554292 -0.1280506 -0.08253463
00000000: de4f 95bd 2dff f43d f8ff 0bbe 3336 033e
00000010: f975 aa3d 436f 27be 752e 88bd ab04 493e
00000020: a240 e53d 137d bebd 648e c3bd 4f16 5b3d
00000030: 4c71 44be da9f 3abe 944a 0e3e 4c14 d83d
00000040: b7d1 d1bd ab39 343e 2392 6c3e b8af 83bd
00000050: 47bc 323d 6e38 aabd 4c36 bb3d 05f7 f1bd
00000060: 1928 1abe 4d3f b73d 2783 37be 02e5 543e
00000070: 52da a53d 61c9 a6bd 621a d03c 450a 24be
00000080: 513e 0cbe 5685 19be 3200 11be f8bd fdbd
00000090: 80c6 083e 17e4 383d 429b d3bd d772 95bd
000000a0: 0b62 68be 4d82 31be 81be 83be abf1 453e
000000b0: cc6f a23d b98b 81bd 3a0e 1d3e ae58 2bbd
000000c0: e983 513d 57b7 84be 0e61 84be 97e8 c8bd
000000d0: 594e 00be 0e1b 9c3d fa18 8abd fb1a 3b3e
000000e0: b80f eb3d 8c3a cc3d bf49 5bbe adb1 24be
000000f0: e1b1 403e 3ef5 87be b21f 03be eb07 a9bd

critic_net.0.weight f4 [64, 8]
0.15454873 0.047853623 0.008184029 -0.021767752 0.27168143 0.52536076 0.124124795 -0.09681097
-0.009000432 -0.36010876 0.101957165 0.09148595 -0.4270919 -0.46553773 -0.016415047 -0.539414
0.19438101 -0.01106026 0.37314656 0.028636528 -0.3759415 0.008387652 -0.2425797 0.107322276
0.31412318 0.3114545 0.46068594 -0.1467765 -0.46754566 0.005861944 0.16489655 -0.3475886
0.110323675 0.09785621 -0.032430947 -0.028309092 0.17904566 0.24952953 0.18708695 0.33419612
0.3824719 0.122356325 0.031394366 -0.13799112 -0.57727474 -0.051468134 -0.23155582 -0.14964905
0.09902329 0.1808198 0.20642202 0.06431429 -0.50656176 -0.29945028 -0.13617995 -0.16274267
0.046733715 -0.16378376 -0.021869905 -0.3251173 -0.2553251 -0.44718072 -0.0094223935 -0.06953757
0.40624464 0.18685012 0.13642274 0.010527858 -0.36012632 -0.18115748 0.31342354 0.23496652
-0.051980544 0.32169974 -0.0748591 -0.0011607693 -0.03716585 0.7244606 -0.57519436 -0.03627385
0.08341101 -0.21738487 -0.07049366 -0.27189806 -0.5423069 -0.47193626 -0.17186405 -0.045285262
-0.3501919 -0.27100116 -0.5686437 -0.19332087 0.46929866 0.39646122 0.24527873 0.09068374
0.25759465 0.41099593 0.086441256 0.0037565222 -0.5225438 -0.23378362 -0.07271894 0.08202594
0.115370214 0.33431113 0.38140675 -0.09965423 -0.3058321 -0.33182874 0.2102524 0.0069957394
0.06448895 0.06783043 -0.011244291 0.3077643 -0.2250517 0.45041502 -0.23156291 -0.07109723
0.07605285 0.14226906 -0.05098386 -0.36855394 -0.39237407 -0.20267975 -0.083400585 -0.19828643
0.05651833 -0.5970307 -0.30542985 0.022630844 0.5980126 0.30912647 0.1689839 -0.050064914
-0.20417279 -0.62203985 -0.4789701 0.16281438 0.5982724 0.2114701 0.09159522 -0.010636641
-0.0883544 -0.10189419 -0.042362526 -0.0073918058 -0.55792993 -0.6771369 0.08927896 0.013969665
0.011091729 -0.33574554 -0.46361852 0.12606674 0.108849354 0.26638797 -0.1013147 -0.03574147
-0.36804524 -0.2545049 -0.093970574 -0.37700903 0.24568498 0.078794315 0.24102427 0.105652995
-0.3525972 0.23776963 -0.09530032 0.0376793 -0.068953276 -0.76515526 -0.05407045 0.15121849
-0.43560737 -0.22728013 -0.53756 -0.045322053 0.35567623 0.20329928 0.054687977 0.28632754
0.25481123 -0.21899365 0.32548496 -0.27098 0.102356374 0.122558914 -0.408086 -0.18565325
-0.20968732 -0.056640495 -0.32270145 0.11864111 0.40759802 0.43535855 0.101053685 -0.21581988
0.039305713 0.07560724 0.08499803 0.08186398 0.30196995 0.310376 -0.78313386 -0.13588291
0.24693076 -0.13251686 0.10598744 0.22502387 0.3139042 0.535677 -0.00078218547 -0.1675989
0.35771286 0.5078526 0.4255902 -0.08040404 -0.5164647 -0.21837513 -0.35699373 0.12814352
-0.37584546 0.053375334 0.09809619 0.10170852 -0.10438711 -0.3122548 0.6077855 -0.2660216
0.29102728 -0.04342816 0.15300888 0.17157166 -0.24717976 -0.0546709 -0.17902651 0.13053848
0.06600165 0.20815673 -0.063337706 -0.06782699 0.6392647 0.476685 -0.2342078 -0.163989
-0.05031417 0.23749861 0.08948546 -0.17919338 0.58334494 0.42374465 0.13555497 -0.14965972
00000000: 0642 1e3e 2902 443d 4e16 063c 4952 b2bc
00000010: d419 8b3e 0b7e 063f 2435 fe3d d444 c6bd
00000020: 8c76 13bc 2d60 b8be ebce d03d fc5c bb3d
00000030: caab dabe f65a eebe d978 86bc 0917 0abf
00000040: d10b 473e 1836 35bc 110d bf3e 2797 ea3c
00000050: 677b c0be 5d6c 093c d066 78be c8cb db3d
00000060: c1d4 a03e f776 9f3e 07df eb3e 944c 16be
00000070: 2562 efbe 8d15 c03b a4da 283e 22f7 b1be
00000080: 61f1 e13d d668 c83d 50d6 04bd 78e8 e7bc
00000090: bf57 373e ab84 7f3e b993 3f3e c11b ab3e
000000a0: 5bd3 c33e f495 fa3d 6197 003d 8b4d 0dbe
000000b0: 47c8 13bf 40d0 52bd f81c 6dbe 9a3d 19be
000000c0: b9cc ca3d d328 393e 4b60 533e 36b7 833d
000000d0: 08ae 01bf 8c51 99be c272 0bbe 04a6 26be
000000e0: da6b 3f3d eeb6 27be 8428 b3bc c675 a6be
000000f0: f9b9 82be dff4 e4be 6260 1abc b769 8ebd
00000100: 4cff cf3e a355 3f3e 67b2 0b3e 097d 2c3c
00000110: 7a62 b8be 5981 39be 0d79 a03e 109b 703e
00000120: 8de9 54bd d4b5 a43e ba4f 99bd f424 98ba
00000130: 383b 18bd 4076 393f f03f 13bf e393 14bd
00000140: 64d3 aa3d 249a 5ebe fb5e 90bd 3936 8bbe
00000150: a0d4 0abf a1a1 f1be 21fd 2fbe 0a7d 39bd
00000160: 5a4c b3be aac0 8abe a292 11bf e8f5 45be
00000170: ea47 f03e f7fc ca3e 592a 7b3e 66b8 b93d
00000180: 72e3 833e 0f6e d23e 1d08 b13d fc2f 763b
00000190: 6ec5 05bf f964 6fbe abed 94bd 37fd a73d
000001a0: 3847 ec3d d42a ab3e bf47 c33e 8417 ccbd
000001b0: 0696 9cbe 75e5 a9be 684c 573e 843c e53b
000001c0: c812 843d aeea 8a3d fa39 38bc 4893 9d3e
000001d0: f473 66be cc9c e63e d41e 6dbe 6d9b 91bd
000001e0: 99c1 9b3d fbae 113e 74d4 50bd 1ab3 bcbe
000001f0: 41e5 c8be 488b 4fbe edcd aabd 990b 4bbe
00000200: c47f 673d 01d7 18bf 4d61 9cbe 5264 b93c
00000210: 5b17 193f d345 9e3e 1e0a 2d3e de10 4dbd
00000220: ac12 51be 013e 1fbf 923b f5be d0b8 263e
00000230: 6128 193f 9e8b 583e 4696 bb3d 4e45 2ebc
00000240: 27f3 b4bd e7ad d0bd 5484 2dbd f636 f2bb
00000250: 7fd4 0ebf d858 2dbf e3d7 b63d 06e1 643c
00000260: 15ba 353c d7e6 abbe 685f edbe a417 013e
00000270: 69ec de3d 0164 883e 157e cfbd a665 12bd
00000280: 6d70 bcbe 774e 82be a573 c0bd 5407 c1be
00000290: d894 7b3e ea5e a13d 11cf 763e 9960 d83d
000002a0: 9f87 b4be e279 733e d02c c3bd 9c55 1a3d
000002b0: 6037 8dbd 37e1 43bf fa78 5dbd 05d9 1a3e
000002c0: ee07 dfbe 1fbc 68be 889d 09bf 9ea3 39bd
000002d0: 321b b63e b02d 503e 8000 603d 8699 923e
000002e0: 9e76 823e df3f 60be f7a5 a63e e4bd 8abe
000002f0: 38a0 d13d 2b00 fb3d a6f0 d0be e31b 3ebe
00000300: 46b8 56be ddff 67bd 2039 a5be 1cfa f23d
00000310: b0b0 d03e 51e7 de3e 3cf5 ce3d e3ff 5cbe
00000320: 07ff 203d f8d7 9a3d 7213 ae3d 4da8 a73d
00000330: ce9b 9a3e 9ae9 9e3e 767b 48bf e424 0bbe
00000340: 6bdb 7c3e 80b2 07be f10f d93d a86c 663e
00000350: 0db8 a03e 2122 093f 940b 4dba 0c9f 2bbe
00000360: 2426 b73e a102 023f f5e6 d93e e0aa a4bd
00000370: 0837 04bf bb9d 5fbe e2c7 b6be 0e38 033e
00000380: d16e c0be 18a0 5a3d a8e6 c83d 8e4c d03d
00000390: e9c8 d5bd dcdf 9fbe d597 1b3f fc33 88be
000003a0: 8701 953e bae1 31bd 5cae 1c3e 7bb0 2f3e
000003b0: b11c 7dbe 98ee 5fbd ba52 37be e1ab 053e
000003c0: e02b 873d 0a27 553e 33b7 81bd e0e8 8abd
000003d0: daa6 233f 0e10 f43e 2bd4 6fbe bbec 27be
000003e0: 3b16 4ebd d632 733e 2744 b73d 787e 37be
000003f0: 1856 153f 0ff5 d83e ecce 0a3e 6640 19be

critic_net.0.bias f4 [64]
0.07586297 -0.115368046 -0.1137004 -0.14716704 0.10430216 -0.09999869 -0.16221362 -0.10271163
-0.23575582 0.09618819 -0.06342055 0.06866702 -0.11869068 -0.11708717 0.06280559 -0.095120355
0.08583084 0.121502474 -0.08293583 0.10095689 0.11188941 -0.10321545 0.08481035 0.06114071
0.07370453 0.14945488 0.065075524 -0.060335614 -0.006377918 -0.08775447 0.12800632 0.111398764
-0.10598197 -0.11715767 -0.06750133 -0.15720358 0.0937897 -0.04103797 -0.13227536 0.11002707
-0.096635945 0.065678366 -0.07856231 0.12902956 0.16515584 -0.09108745 -0.020399367 -0.10879636
0.13794461 0.039352052 0.10017644 0.029610142 -0.028685521 -0.01913062 0.098689355 0.11261887
0.103408016 0.11794402 0.091422185 -0.016517574 -0.09356321 0.048328355 -0.07827582 0.013035898
00000000: 0b5e 9b3d 1546 ecbd c1db e8bd f5b2 16be
00000010: 5f9c d53d 1dcc ccbd 541b 26be 7a5a d2bd
00000020: f969 71be 50fe c43d a2e2 81bd 4ba1 8c3d
00000030: 1914 f3bd 66cb efbd 38a0 803d 76ce c2bd
00000040: 14c8 af3d 4ad6 f83d 43da a9bd 7cc2 ce3d
00000050: 4626 e53d 9f62 d3bd 0cb1 ad3d ae6e 7a3d
00000060: 67f2 963d b30a 193e 5146 853d 7a22 77bd
00000070: dbfd d0bb 9eb8 b3bd 1714 033e 0925 e43d
00000080: 130d d9bd 5cf0 efbd 233e 8abd faf9 20be
00000090: d014 c03d 6e17 28bd 3173 07be df55 e13d
000000a0: 11e9 c5bd 6182 863d 47e5 a0bd 5320 043e
000000b0: 9d1e 293e 0f8c babd 931c a7bc a0d0 debd
000000c0: 5a41 0d3e 9e2f 213d 4e29 cd3d f890 f23c
000000d0: e6fd eabc d1b7 9cbc a51d ca3d b9a4 e63d
000000e0: 95c7 d33d a28c f13d 8e3b bb3d dd4f 87bc
000000f0: 119e bfbd f4f3 453d 134f a0bd 8594 553c

critic_net.2.weight f4 [64, 64]
0.005851878 -0.015623231 0.18599005 0.1611623 0.24574941 0.22517827 0.3836001 0.034208845
0.21999593 -0.1435343 0.005445139 -0.25505885 0.16015925 0.024262888 -0.109085746 0.39163348
-0.73020303 -0.1466307 -0.0979238 -0.10767638 -0.4122198 0.07662548 -0.20611253 0.31262484
-0.14219108 0.1498131 -0.035766445 0.34960732 -0.12312196 0.24675086 0.0073953355 0.33847052
0.5341444 0.4887487 -0.023364844 0.30909863 -0.52555394 0.44352698 0.5693413 -0.12902287
0.4676004 0.15283301 0.42637154 -0.23263521 0.018647172 0.12613781 0.090064205 0.2079003
-0.1125938 0.068549365 0.028954193 -0.01595017 0.250625 -0.16740483 -0.3917268 0.021951033
-0.5148629 -0.25479722 0.026047656 -0.4181496 0.23411568 0.21425778 0.11819903 -0.053672638
-0.2612791 0.5466287 -0.0140949115 -0.14835072 -0.16045368 0.12088299 -0.27445337 0.061221212
-0.123915665 -0.072858445 0.44101474 0.23177175 -0.18304367 -0.105596475 -0.2057286 0.17542805
-0.053988613 -0.099483944 -0.04216937 0.38161054 -0.030857338 0.05479678 -0.2880863 0.03189433
0.3254693 0.22337575 -0.4199872 0.1507557 -0.12596132 0.060749643 -0.13267605 -0.10333026
-0.09956626 -0.011960848 -0.21998364 0.062013097 -0.27257726 0.008990414 -0.0835719 -0.05007661
-0.15567197 -0.20561711 0.057968013 -0.5089341 0.16633222 0.13606039 -0.07306716 0.1317062
-0.09995655 -0.15646273 0.1691943 0.2267298 -0.10402811 -0.11787368 -0.31160823 -0.2044479
-0.076165095 -0.02315314 -0.123465605 -0.029575195 0.2570127 -0.3754844 -0.02675018 0.18406522
0.35817868 -0.38616684 0.20037577 -0.016287101 -0.010503363 0.01731931 -0.18663067 -0.122970104
0.054741833 0.33697024 -0.23706004 0.15628238 0.33078754 -0.24660642 -0.17376566 -0.11777288
0.054647192 -0.10055358 -0.23101985 0.30065686 0.097941965 -0.08855284 0.21342453 0.17816003
0.06290351 0.08901982 0.15947722 -0.019618366 0.13684341 0.10143009 -0.21718073 0.345874
-0.05296224 -0.099224284 0.26559374 0.028012209 -0.036001015 0.08620042 0.051969863 0.3703115
0.008060885 0.31008238 0.050025232 0.24444985 0.095663406 0.12244482 -0.33977056 -0.33399886
0.06508628 -0.11394969 0.07780884 0.191419 -0.27632672 -0.14356092 0.20431717 0.110022195
0.090361714 -0.39248383 0.085363545 0.24569026 0.054261193 -0.26965553 -0.22395138 0.12516667
0.21153718 -0.43771416 -0.5461561 -0.30859685 0.23244436 -0.09612493 -0.09374722 0.21946236
-0.06672599 0.10470309 0.031997625 0.16708936 0.05314365 -0.15518829 -0.049647164 -0.17196599
0.15904401 0.12956047 -0.28178933 0.036615934 -0.013855805 -0.19319406 -0.08107879 0.031815782
0.07059213 -0.21333419 0.22277658 -0.24841024 -0.1313684 -0.083699875 -0.035535783 0.20411246
0.2658718 -0.39024356 -0.01782481 -0.0834538 -0.093762875 0.19488366 -0.024034435 0.3850863
0.26206267 -0.02732841 0.19886641 -0.06966495 -0.048502475 0.09893211 0.13109526 -0.010864115
-0.15917194 -0.23896575 -0.05981091 0.24566637 -0.17024817 -0.028472476 0.19396311 0.19234253
-0.011030135 0.29180488 -0.14561969 -0.21355182 -0.35213298 0.26732907 -0.21526131 0.08787946
00000000: 1cc1 bf3b 95f8 7fbc 2d74 3e3e bb07 253e
00000010: bca5 7b3e 2295 663e 3b67 c43e 931e 0c3d
00000020: 9d46 613e a8fa 12be 236d b23b 1397 82be
00000030: c900 243e f7c2 c63c 5968 dfbd 2f84 c83e
00000040: 96ee 3abf 5c26 16be 468c c8bd 6f85 dcbd
00000050: 790e d3be d2ed 9c3d 2a0f 53be 5d10 a03e
00000060: 8a9a 11be 9b68 193e d67f 12bd bbff b23e
00000070: 5e27 fcbd 42ac 7c3e 9254 f23b 024c ad3e
00000080: b0bd 083f 453d fa3e a167 bfbc 2d42 9e3e
00000090: b48a 06bf f815 e33e 5ac0 113f 921e 04be
000000a0: 5269 ef3e 4280 1c3e 5f4d da3e ed37 6ebe
000000b0: f4c1 983c 452a 013e 9573 b83d d1e3 543e
000000c0: 9497 e6bd 9c63 8c3d 5831 ed3c eea9 82bc
000000d0: ec51 803e 2c6c 2bbe 6a90 c8be a7d2 b33c
000000e0: 0ece 03bf c874 82be e561 d53c b417 d6be
000000f0: 05bc 6f3e 6466 5b3e 5512 f23d d7d7 5bbd
00000100: 60c6 85be dcef 0b3f 58ee 66bc 40e9 17be
00000110: f84d 24be 8091 f73d 2785 8cbe 18c3 7a3d
00000120: 7fc7 fdbd cf36 95bd afcc e13e 9355 6d3e
00000130: cd6f 3bbe f742 d8bd 85aa 52be 69a3 333e
00000140: 2a23 5dbd 3dbe cbbd cab9 2cbd 7562 c33e
00000150: 87c8 fcbc 9772 603d 0c80 93be a1a3 023d
00000160: e9a3 a63e 9dbc 643e 9008 d7be b45f 1a3e
00000170: 01fc 00be 9ed4 783d 3bdc 07be d19e d3bd
00000180: 65e9 cbbd 6ff7 43bc 6443 61be 7201 7e3d
00000190: 3f8f 8bbe 884c 133c bf27 abbd 221d 4dbd
000001a0: 7968 1fbe 4b8d 52be de6f 6d3d 8149 02bf
000001b0: fe52 2a3e 6a53 0b3e 3ca4 95bd fddd 063e
000001c0: 05b6 ccbd c437 20be 4541 2d3e db2b 683e
000001d0: b10c d5bd c267 f1bd 1d8b 9fbe ca5a 51be
000001e0: 72fc 9bbd a7ab bdbc 89db fcbd ae47 f2bc
000001f0: 2b97 833e 7e3f c0be 3223 dbbc 987b 3c3e
00000200: 3263 b73e a9b7 c5be 4e2f 4d3e 876c 85bc
00000210: 4c16 2cbc 3ae1 8d3c 1c1c 3fbe c0d7 fbbd
00000220: f938 603d 5d87 ac3e debf 72be 7d08 203e
00000230: fc5c a93e 6586 7cbe a0ef 31be e832 f1bd
00000240: bcd5 5f3d 09ef cdbd 7890 6cbe b2ef 993e
00000250: cc95 c83d 315b b5bd f68b 5a3e 956f 363e
00000260: 8ed3 803d 0650 b63d ff4d 233e b2b6 a0bc
00000270: ae20 0c3e 94ba cf3d a064 5ebe 6616 b13e
00000280: efee 58bd 1a36 cbbd e7fb 873e dc79 e53c
00000290: cd75 13bd d989 b03d 5ade 543d 7899 bd3e
000002a0: cd11 043c 1ec3 9e3e 42e7 4c3d 1051 7a3e
000002b0: 2deb c33d 5ac4 fa3d 68f6 adbe e601 abbe
000002c0: f54b 853d 745e e9bd 3e5a 9f3d 5803 443e
000002d0: b27a 8dbe a201 13be 8538 513e 5153 e13d
000002e0: 900f b93d a4f3 c8be 15d3 ae3d 3a96 7b3e
000002f0: fc40 5e3d 4a10 8abe 8353 65be b12b 003e
00000300: 349d 583e 121c e0be e3d0 0bbf 6800 9ebe
00000310: e505 6e3e 26dd c4bd 8bfe bfbd beba 603e
00000320: a3a7 88bd 936e d63d f10f 033d 7919 2b3e
00000330: 28ad 593d aee9 1ebe d35a 4bbd da17 30be
00000340: 6fdc 223e 80ab 043e b146 90be 97fa 153d
00000350: 7503 63bc aad4 45be a30c a6bd 4451 023d
00000360: 9b92 903d 4774 5abe 8b1f 643e 415f 7ebe
00000370: 7085 06be d76a abbd f88d 11bd db02 513e
00000380: 5920 883e 01ce c7be 5605 92bc d3e9 aabd
00000390: c006 c0bd 958f 473e dde3 c4bc 082a c53e
000003a0: 142d 863e d4df dfbc a3a3 4b3e 7fac 8ebd
000003b0: 88aa 46bd eb9c ca3d d63d 063e 67ff 31bc
000003c0: f8fd 22be 70b3 74be 49fc 74bd f78f 7b3e
000003d0: 8955 2ebe 1c3f e9bc 449e 463e 71f5 443e
000003e0: bdb7 34bc 7367 953e 541d 15be 54ad 5abe
000003f0: c64a b4be 5bdf 883e 766d 5cbe 25fa b33d

critic_net.2.bias f4 [64]
-0.104659505 -0.16526002 0.09498868 0.09644628 0.09211667 0.07207754 0.089140944 -0.049839176
-0.11102595 0.1226691 -0.07873768 -0.04433482 -0.06474198 -0.12278565 -0.047920372 0.12815084
0.08535747 0.079379536 0.07636079 0.070883885 -0.108994424 -0.09264348 0.08766326 0.0961151
-0.16191119 0.10226597 0.12339427 0.090882935 -0.08955659 -0.101988435 -0.12044262 0.06173912
-0.11068917 -0.1027473 -0.10870034 0.09474029 -0.07928658 -0.08135325 -0.09695267 0.041215736
0.085537866 0.115466036 -0.11689279 -0.11420141 -0.060507584 -0.08622266 -0.099951215 0.21515688
-0.09219803 -0.08397282 -0.16893211 0.044615287 -0.084509015 0.07876605 0.17509213 0.08873801
-0.09104698 0.14555083 -0.09913739 -0.0881683 0.08968061 0.07880862 -0.09174228 0.08021452
00000000: b957 d6bd ec39 29be 6d89 c23d a185 c53d
00000010: aaa7 bc3d 649d 933d 878f b63d 2a24 4cbd
00000020: 9361 e3bd f039 fb3d 3941 a1bd 6e98 35bd
00000030: 7197 84bd 0b77 fbbd 2748 44bd f939 033e
00000040: e6cf ae3d bd91 a23d 0c63 9c3d 922b 913d
00000050: 7838 dfbd ddbb bdbd cc88 b33d fed7 c43d
00000060: 0ccc 25be d270 d13d 23b6 fc3d d520 ba3d
00000070: 7269 b7bd 50df d0bd 9faa f6bd 29e2 7c3d
00000080: 01b1 e2bd 2d6d d2bd 499e debd 3207 c23d
00000090: 0161 a2bd 889c a6bd 1f8f c6bd d5d1 283d
000000a0: 7a2e af3d 7579 ec3d 7d65 efbd 6ee2 e9bd
000000b0: cdd6 77bd 8295 b0bd 39b3 ccbd 1652 5c3e
000000c0: 52d2 bcbd f1f9 abbd 8afc 2cbe 85be 363d
000000d0: 1013 adbd 1850 a13d 5a4b 333e 46bc b53d
000000e0: d776 babd 470b 153e 8b08 cbbd 9591 b4bd
000000f0: 78aa b73d 6a66 a13d 60e3 bbbd 8347 a43d

critic_head.weight f4 [1, 64]
0.39701262 0.15437943 -0.33907306 -0.28237444 -0.36480013 -0.34922743 -0.4587639 0.32841492
0.5543153 -0.4797142 0.3932886 0.26948184 0.37605327 0.53959996 0.28018445 -0.2846913
-0.51965064 -0.24781798 -0.34920663 -0.5700765 0.50052726 0.35425568 -0.28837457 -0.34134668
0.23674531 -0.3681713 -0.45637062 -0.5961463 0.32579836 0.4018759 0.3928451 -0.38421017
0.35487783 0.4049276 0.246983 -0.2782026 0.43635696 0.44880763 0.31836888 -0.38959095
-0.32624274 -0.49905577 0.43459097 0.47395208 0.600907 0.57066816 0.31530342 -0.28818718
0.37108922 0.39470536 0.22382836 -0.4100924 0.35973364 -0.3874527 -0.29912677 -0.42553255
0.6702784 -0.28436315 0.28471935 0.39892572 -0.63323325 -0.52227217 0.54270595 -0.41119385
00000000: 3d45 cb3e a415 1e3e fc9a adbe 6293 90be
00000010: 15c7 babe f0cd b2be 1ae3 eabe 0026 a83e
00000020: 9ce7 0d3f 1a9d f5be 205d c93e 86f9 893e
00000030: 0e8a c03e 3923 0a3f 5674 8f3e 0fc3 91be
00000040: d307 05bf ffc3 7dbe 36cb b2be 89f0 11bf
00000050: 8e22 003f 0061 b53e d5a5 93be fec4 aebe
00000060: 5d6d 723e f380 bcbe 69a9 e9be 0b9d 18bf
00000070: 0bcf a63e aec2 cd3e fe22 c93e 32b7 c4be
00000080: 8cb2 b53e ac52 cf3e 1de9 7c3e 9270 8ebe
00000090: 2e6a df3e 1dca e53e 3f01 a33e 7778 c7be
000000a0: 4a09 a7be 3d84 ffbe b582 de3e d9a9 f23e
000000b0: 0bd5 193f 4f17 123f 736f a13e 458d 93be
000000c0: 68ff bd3e d216 ca3e 4333 653e a2f7 d1be
000000d0: 022f b83e 3360 c6be 2527 99be 67df d9be
000000e0: 5d97 2b3f 0c98 91be bcc6 913e fe3f cc3e
000000f0: 931b 22bf a1b3 05bf c7ee 0a3f 0088 d2be

exp_avg f4 [64, 8]
-0.000102261845 -9.278387e-05 -7.028418e-05 7.188173e-06 2.0629825e-05 -1.0438112e-05 8.5723186e-05 5.4374246e-05
-8.1455786e-05 -8.4517385e-05 -8.338064e-05 -5.1468916e-05 3.639175e-06 -4.3333575e-06 3.588259e-05 1.1216266e-05
0.00020567102 0.00021237716 0.00020561164 0.000101655474 -1.5992635e-05 1.22903175e-05 -8.7721935e-05 -4.2298834e-05
0.00010185291 0.00010063776 8.989978e-05 2.6055437e-05 -1.5205246e-05 8.373944e-06 -0.00010958749 -5.5777306e-05
-0.00010247293 -0.00011466082 -0.00012275357 -8.260363e-05 4.693082e-06 -4.093823e-06 3.6977264e-05 1.47996125e-05
0.00011873126 0.0001246094 0.00012426925 9.376104e-05 -2.485624e-06 6.3618018e-06 -4.474053e-05 -5.435674e-06
4.5704363e-07 6.339794e-06 6.465521e-06 -3.2718003e-06 -2.0353531e-05 3.2442372e-06 -9.7760196e-05 -7.8110716e-05
3.6143236e-05 3.8482467e-05 3.9250237e-05 3.841439e-05 7.0446646e-07 1.7923804e-06 -1.1049453e-05 2.2616457e-06
-6.523914e-05 -6.0670187e-05 -4.876835e-05 1.9833975e-05 1.5338781e-05 -5.9625186e-06 7.982016e-05 4.6932742e-05
0.00012116805 0.00013068631 0.00013383495 8.9236935e-05 -8.113849e-06 6.5406675e-06 -0.000104305065 -3.7204212e-05
8.163525e-05 8.1375096e-05 7.5373e-05 5.53082e-05 -3.5935475e-06 5.9075737e-06 -8.409692e-05 -2.148557e-05
0.00014856263 0.00015129728 0.00014447712 9.3365175e-05 -7.194578e-06 9.203833e-06 -6.406997e-05 -1.875041e-05
1.4581754e-05 8.987604e-06 -1.4018507e-06 -4.9161954e-05 -1.2848039e-05 3.1955474e-06 -3.7628593e-05 -3.7989917e-05
4.214114e-05 4.4430275e-05 4.4340333e-05 3.7299287e-05 -2.0523496e-06 2.3504326e-06 -1.6648819e-05 -4.283994e-06
4.760261e-05 4.111386e-05 4.4163276e-05 6.3107145e-05 4.1407755e-05 -4.2691763e-06 0.0002041497 0.00016358664
0.000107734595 0.00011209929 0.00012529764 0.00018668082 4.6152945e-05 -1.5210784e-06 9.266488e-05 0.00014086203
8.851701e-05 9.199282e-05 8.869988e-05 3.352323e-05 -1.2814238e-05 5.9389045e-06 -8.1352424e-05 -4.6016055e-05
-0.00016639716 -0.00017088672 -0.00016436559 -9.2161776e-05 1.1908434e-05 -1.0533361e-05 0.00010948235 4.4731365e-05
3.960708e-05 4.4906385e-05 5.0943316e-05 6.8336805e-05 8.234281e-06 4.808078e-07 3.991954e-06 2.4430397e-05
2.6532725e-05 3.7016765e-05 5.9011847e-05 9.973566e-05 3.3107186e-05 -6.8529744e-06 0.00013902366 0.000119063014
-2.778253e-05 -2.3945347e-05 -1.5544736e-05 1.1677347e-05 8.191325e-06 -3.405002e-06 2.7325532e-05 2.1906113e-05
0.00012907811 0.00012885887 0.000118011485 4.4950237e-05 -1.4359853e-05 9.209154e-06 -6.521358e-05 -3.9322436e-05
3.1062325e-05 2.1023643e-05 -8.8460934e-07 -3.457409e-05 -2.3778932e-05 8.522683e-06 -0.00010500088 -7.638564e-05
0.00020598424 0.00021407727 0.0002077008 9.809241e-05 -2.0578831e-05 1.2609957e-05 -0.00010741923 -5.753305e-05
2.341796e-05 3.1117626e-05 5.756851e-05 0.000116120806 5.5231783e-05 -1.0668782e-05 0.00018848227 0.00018376812
0.000102573016 0.00010540766 0.00011721704 0.00017675803 4.6000525e-05 -1.7572108e-06 9.799722e-05 0.00014243402
-0.00020470844 -0.00021393242 -0.00021103001 -0.00012250608 1.2064834e-05 -1.1658532e-05 0.0001072176 4.1793013e-05
0.00021398834 0.00020722653 0.00017760566 -2.1069636e-05 -4.3348144e-05 1.7922115e-05 -0.00014617816 -0.00011699638
-0.00019369982 -0.00020531773 -0.00020805029 -0.00014562425 5.118105e-06 -9.533866e-06 9.009975e-05 1.8228884e-05
5.14422e-05 4.84028e-05 4.043867e-05 1.3388467e-05 -6.2538847e-06 4.59671e-06 -7.0767324e-05 -2.7880604e-05
-0.00029036903 -0.00029862346 -0.00032933702 -0.0004891766 -0.00012240483 3.6598703e-06 -0.0002797713 -0.0003975099
3.1936605e-05 3.431175e-05 3.4421737e-05 1.5177425e-05 -3.6654592e-06 1.8011243e-06 -1.0988732e-05 -8.099332e-06
00000000: 6975 d6b8 f694 c2b8 8865 93b8 f031 f136
00000010: 360e ad37 5a1f 2fb7 49c6 b338 e70f 6438
00000020: 3ed3 aab8 ed3e b1b8 a4dc aeb8 54e0 57b8
00000030: 8d38 7436 4267 91b6 a380 1638 7f2d 3c37
00000040: 65a9 5739 8fb1 5e39 7499 5739 de2f d538
00000050: ec27 86b7 8332 4e37 5bf7 b7b8 076a 31b8
00000060: dd99 d538 7c0d d338 9488 bc38 a091 da37
00000070: 091a 7fb7 d17d 0c37 56d2 e5b8 6df2 69b8
00000080: bce6 d6b8 0f76 f0b8 69b7 00b9 7c3b adb8
00000090: 4479 9d36 ac5d 89b6 0918 1b38 da4b 7837
000000a0: 5cff f838 95a9 0239 464e 0239 93a1 c438
000000b0: b2ce 26b6 7677 d536 c7a7 3bb8 1664 b6b6
000000c0: 995f f534 6aba d436 67f2 d836 1a91 5bb6
000000d0: e0bc aab7 92b7 5936 9b04 cdb8 5fcf a3b8
000000e0: 8198 1738 3c68 2138 9fa0 2438 231f 2138
000000f0: 911a 3d35 b991 f035 0a61 39b7 c7c6 1736
00000100: ffd0 88b8 1e78 7eb8 9e8c 4cb8 2361 a637
00000110: c8ab 8037 a511 c8b6 1f65 a738 a6d9 4438
00000120: 9a1b fe38 d708 0939 0c56 0c39 b724 bb38
00000130: b720 08b7 e877 db36 5bbe dab8 b80b 1cb8
00000140: 9733 ab38 eca7 aa38 9211 9e38 bafa 6738
00000150: ad28 71b6 ac39 c636 315d b0b8 e93b b4b7
00000160: 7ac7 1b39 8ea5 1e39 c87e 1739 0ccd c338
00000170: f468 f1b6 296a 1a37 4e5d 86b8 334a 9db7
00000180: 28a4 7437 77c9 1637 3927 bcb5 3f33 4eb8
00000190: e88d 57b7 1673 5636 65d3 1db8 5d57 1fb8
000001a0: b4c0 3038 a55a 3a38 12fa 3938 ce71 1c38
000001b0: 19bb 09b6 20bc 1d36 11a9 8bb7 3abf 8fb6
000001c0: eaa8 4738 ac71 2c38 f53b 3938 6458 8438
000001d0: 3dad 2d38 f23f 8fb6 0511 5639 7488 2b39
000001e0: 92ef e138 d916 eb38 5462 0339 c0bf 4339
000001f0: 5994 4138 db27 ccb5 1455 c238 5db4 1339
00000200: 35a2 b938 45ec c038 6304 ba38 4b9b 0c38
00000210: bcfc 56b7 cd46 c736 c09b aab8 5d01 41b8
00000220: e67a 2eb9 0e30 33b9 8d59 2cb9 fa46 c1b8
00000230: 56ca 4737 71b8 30b7 e499 e538 f09d 3b38
00000240: c71f 2638 dd59 3c38 f8ab 5538 0b50 8f38
00000250: f825 0a37 dc10 0135 a0f2 8536 e1ef cc37
00000260: 9892 de37 7342 1b38 7d83 7738 2d29 d138
00000270: 92dc 0a38 9af2 e5b6 e1c6 1139 78b1 f938
00000280: 870e e9b7 3ede c8b7 1166 82b7 d3e9 4337
00000290: 796d 0937 7d81 64b6 2239 e537 05c3 b737
000002a0: 2459 0739 4a1e 0739 ef7c f738 f388 3c38
000002b0: 19eb 70b7 0481 1a37 46c3 88b8 25ee 24b8
000002c0: eb48 0238 ee5b b037 e475 6db5 a503 11b8
000002d0: de78 c7b7 a5fc 0e37 eb33 dcb8 3a31 a0b8
000002e0: 79fd 5739 ee79 6039 42ca 5939 f6b6 cd38
000002f0: b4a0 acb7 5a8f 5337 4346 e1b8 a44f 71b8
00000300: b071 c437 4c84 0238 b875 7138 e285 f338
00000310: ada8 6738 12fe 32b7 53a3 4539 e1b1 4039
00000320: 781c d738 4e0e dd38 6bd2 f538 1f58 3939
00000330: b0f0 4038 4ed9 ebb5 db83 cd38 575a 1539
00000340: 01a7 56b9 0c53 60b9 f047 5db9 fa74 00b9
00000350: 116a 4a37 0399 43b7 03da e038 e84a 2f38
00000360: 0f62 6039 f34a 5939 a83b 3a39 b3be b0b7
00000370: b7d0 35b8 7357 9637 6747 19b9 f45b f5b8
00000380: e61b 4bb9 8f4a 57b9 1328 5ab9 b6b2 18b9
00000390: 30bc ab36 a5f3 1fb7 eff3 bc38 3bea 9837
000003a0: a4c3 5738 1c04 4b38 b19c 2938 079f 6037
000003b0: 76d8 d1b6 703d 9a36 eb68 94b8 24e1 e9b7
000003c0: ac3c 98b9 9090 9cb9 deaa acb9 163c 00ba
000003d0: cc59 00b9 189c 7536 45ae 92b9 e068 d0b9
000003e0: abf3 0538 f6e9 0f38 0f60 1038 8ba2 7e37
000003f0: 1cfc 75b6 29be f135 3f5c 38b7 5ee2 07b7

exp_avg_sq f4 [64, 8]
3.1569052e-06 3.4008858e-06 3.7211296e-06 1.8294126e-06 1.9290785e-07 7.171129e-09 1.308679e-05 6.4445067e-06
2.6206936e-07 2.9920335e-07 3.4534628e-07 1.3777597e-07 1.0808137e-08 3.0593335e-09 8.666282e-07 3.617861e-07
1.1302841e-05 1.2777846e-05 1.4572491e-05 6.5379018e-06 5.122683e-07 1.7441717e-08 3.6117344e-05 1.8266916e-05
2.2372049e-06 2.485281e-06 2.7955798e-06 1.3804234e-06 1.226565e-07 7.051455e-09 7.810874e-06 3.9830948e-06
3.4870611e-06 3.9936454e-06 4.600417e-06 2.0362586e-06 1.4773202e-07 4.4128834e-09 1.1290753e-05 5.511643e-06
2.4306023e-06 2.7376989e-06 3.1201723e-06 1.4949611e-06 1.1870945e-07 4.6293382e-09 7.630411e-06 3.9790607e-06
1.9588283e-06 2.0296998e-06 2.1238723e-06 2.2513468e-06 2.121291e-07 2.7183444e-09 1.4398799e-05 7.0024107e-06
6.583778e-08 7.518749e-08 8.687696e-08 4.739303e-08 3.473198e-09 2.8359248e-10 2.3845507e-07 1.0668128e-07
2.4243013e-06 2.7630017e-06 3.1772397e-06 1.1375113e-06 1.1233906e-07 5.447722e-09 5.9526583e-06 3.4964319e-06
2.469144e-06 2.821038e-06 3.2487899e-06 1.5880106e-06 1.2464744e-07 7.3564754e-09 7.337233e-06 3.951182e-06
8.283783e-07 9.198735e-07 1.0382543e-06 5.321717e-07 4.8982052e-08 5.1929585e-09 2.1448675e-06 1.4017361e-06
2.952004e-06 3.3052509e-06 3.7491488e-06 1.7740971e-06 1.4345692e-07 6.9503217e-09 9.784329e-06 4.7891313e-06
9.283589e-08 9.9162826e-08 1.0631644e-07 5.7373967e-08 5.95067e-09 1.1674047e-09 6.9111144e-07 2.288491e-07
1.4244324e-07 1.6135117e-07 1.8476969e-07 1.0182967e-07 8.001059e-09 8.1002555e-10 5.984906e-07 2.5676383e-07
5.3506396e-06 5.5189357e-06 5.7483276e-06 6.1814108e-06 6.0332894e-07 1.0997973e-08 3.9446386e-05 1.9680876e-05
2.9824662e-06 3.0336566e-06 3.0925494e-06 2.8575737e-06 3.1348296e-07 3.81629e-09 2.6363194e-05 1.1391428e-05
1.8987661e-06 2.1521932e-06 2.4604522e-06 1.1527569e-06 9.46089e-08 7.73936e-09 6.354827e-06 3.2077992e-06
3.723775e-06 4.1891167e-06 4.7663516e-06 2.189079e-06 1.7906981e-07 1.4171854e-08 1.1848814e-05 5.968268e-06
1.5278806e-07 1.6591329e-07 1.8172659e-07 1.02412024e-07 6.572851e-09 3.770938e-10 5.641445e-07 2.981053e-07
2.0099194e-06 2.0047248e-06 2.0252583e-06 1.920885e-06 2.0310159e-07 8.986675e-09 1.4972961e-05 6.995214e-06
6.165182e-07 6.7171044e-07 7.4336185e-07 3.0466748e-07 3.2642195e-08 2.1838333e-09 2.19969e-06 1.146247e-06
3.3805125e-06 3.744408e-06 4.19796e-06 2.0417417e-06 1.748682e-07 5.281317e-09 1.2892934e-05 6.1331734e-06
2.5845914e-06 2.585726e-06 2.6312969e-06 2.586712e-06 2.5845065e-07 1.0778034e-08 1.7233346e-05 8.63546e-06
1.0679355e-05 1.2113373e-05 1.38519845e-05 5.667326e-06 4.850293e-07 2.185659e-08 3.4394143e-05 1.7003433e-05
8.477611e-06 8.566225e-06 8.744663e-06 8.691555e-06 8.5051715e-07 2.239996e-08 6.680655e-05 3.0035631e-05
3.1724273e-06 3.23005e-06 3.2962528e-06 3.042054e-06 3.29889e-07 5.6839533e-09 2.7831973e-05 1.200573e-05
6.460493e-06 7.3252227e-06 8.379644e-06 3.5942612e-06 2.8697707e-07 1.8595772e-08 1.9783829e-05 9.911628e-06
1.7088667e-05 1.9150648e-05 2.1669324e-05 8.6721675e-06 8.012288e-07 3.3054548e-08 6.0115457e-05 2.8483546e-05
5.310485e-06 6.1189185e-06 7.1062727e-06 2.8780873e-06 2.1544164e-07 1.0622025e-08 1.309768e-05 6.929211e-06
5.6707e-07 6.2335124e-07 6.9695733e-07 3.6492875e-07 3.2847897e-08 3.295062e-09 1.4921665e-06 9.760871e-07
2.0577952e-05 2.0945023e-05 2.1360891e-05 1.9947478e-05 2.0965354e-06 4.1659355e-08 0.00018060564 7.798197e-05
3.06121e-07 3.481791e-07 3.9951775e-07 1.7213875e-07 1.4048279e-08 2.6436768e-09 1.1097154e-06 5.09744e-07
00000000: 38db 5336 c63a 6436 85b8 7936 238a f535
00000010: 1b22 4f34 eb65 f631 568f 5b37 e43d d836
00000020: 8ab2 8c34 32a2 a034 0868 b934 92ef 1334
00000030: b0ae 3932 5d3c 5231 3da2 6835 813b c234
00000040: 55a1 3d37 6e60 5637 5f7c 7437 2660 db36
00000050: cf82 0935 bed2 9532 b47c 1738 e73b 9937
00000060: e322 1636 cdc8 2636 b29b 3b36 fd46 b935
00000070: 90b3 0334 4149 f231 730b 0337 86a6 8536
00000080: 4103 6a36 2701 8636 485d 9a36 a8a6 0836
00000090: 45a0 1e34 22a0 9731 6a6d 3d37 a7f0 b836
000000a0: 6e1d 2336 4fb9 3736 2764 5136 79a6 c835
000000b0: 36ed fe33 1710 9f31 5e04 0037 df83 8536
000000c0: 6a74 0336 fa35 0836 d987 0e36 d815 1736
000000d0: 9ac5 6334 9fcd 3a31 5f92 7137 40f6 ea36
000000e0: b462 8d33 c276 a133 1d91 ba33 308d 4b33
000000f0: 25ad 6e31 18e8 9b2f 0405 8034 a718 e533
00000100: 2eb1 2236 026c 3936 9038 5536 97ac 9835
00000110: 0d3f f133 ab2e bb31 f2bc c736 3ea4 6a36
00000120: 92b3 2536 1051 3d36 c905 5a36 a123 d535
00000130: d4d6 0534 3ec4 fc31 5a32 f636 6594 8436
00000140: b95d 5e35 3aed 7635 255a 8b35 90da 0e35
00000150: 5660 5233 bf6d b231 8bf0 0f36 4923 bc35
00000160: 0b1b 4636 c7cf 5d36 e399 7b36 831d ee35
00000170: 2309 1a34 adcf ee31 6027 2437 53b2 a036
00000180: 125d c733 57f3 d433 1550 e433 586b 7633
00000190: a676 cc31 6772 a030 d184 3935 90b9 7534
000001a0: 80f2 1834 df3f 2d34 1b65 4634 74ad da33
000001b0: 0875 0932 7ba8 5e30 f6a7 2035 5ad9 8934
000001c0: a589 b336 4c2f b936 c2e1 c036 ea69 cf36
000001d0: 73f4 2135 99f1 3c32 3c73 2538 5c18 a537
000001e0: 6126 4836 d395 4b36 9889 4f36 bec4 3f36
000001f0: c54c a834 7120 8331 8726 dd37 d01d 3f37
00000200: 1bd9 fe35 666e 1036 3f1e 2536 6db8 9a35
00000210: cb2b cb33 11f6 0432 8c3b d536 9245 5736
00000220: f8e5 7936 3d90 8c36 a6ee 9f36 17e8 1236
00000230: 5646 4034 7978 7332 45ca 4637 0843 c836
00000240: 100e 2434 e625 3234 a020 4334 9bed db33
00000250: 69d7 e131 3c4f cf2f b76f 1735 480b a034
00000260: 27e2 0636 e988 0636 ace9 0736 8ee8 0036
00000270: 2414 5a34 d163 1a32 6134 7b37 6eb8 ea36
00000280: cf7e 2535 974f 3435 708b 4735 2e91 a334
00000290: 7932 0c33 6712 1631 639e 1336 bfd8 9935
000002a0: c3dc 6236 7148 7b36 34dc 8c36 db04 0936
000002b0: 68c3 3b34 f576 b531 bb4e 5837 8fcb cd36
000002c0: f172 2d36 6f86 2d36 5695 3036 6097 2d36
000002d0: 30c1 8a34 4b2a 3932 5490 9037 05e1 1037
000002e0: 7b2b 3337 8a3a 4b37 d265 6837 f629 be36
000002f0: f632 0235 26bf bb32 6e42 1038 98a2 8e37
00000300: 103b 0e37 a8b7 0f37 0bb6 1237 f2d1 1137
00000310: 184f 6435 086a c032 7e1a 8c38 07f5 fb37
00000320: e3e5 5436 d6c3 5836 3135 5d36 1726 4c36
00000330: 991b b134 954c c331 b578 e937 386c 4937
00000340: 36c7 d836 2fcb f536 4c96 0c37 f034 7136
00000350: d411 9a34 89bc 9f32 73f5 a537 1e4a 2637
00000360: a259 8f37 b4a5 a037 85c6 b537 ad7e 1137
00000370: 0614 5735 dcf7 0d33 7b24 7c38 f3ef ee37
00000380: b830 b236 1c51 cd36 6b72 ee36 2a25 4136
00000390: 2654 6734 297c 3632 1bbe 5b37 7881 e836
000003a0: c138 1835 5f54 2735 8b16 3b35 6deb c334
000003b0: a514 0d33 586f 6231 7346 c835 1902 8335
000003c0: d19e ac37 18b3 af37 2a30 b337 e254 a737
000003d0: 34b2 0c36 f2ec 3233 f560 3d39 408a a338
000003e0: f358 a434 5fed ba34 4d7d d634 24d5 3834
000003f0: fc58 7132 0eac 3531 88f1 9435 57d5 0835

exp_avg f4 [64]
7.652201e-05 1.4548821e-05 -6.2416715e-05 -7.204742e-05 2.6231135e-05 -1.2258162e-05 -0.00011029813 9.865266e-07
5.875947e-05 -4.845216e-05 -2.4832138e-05 -2.9628107e-05 -4.926934e-05 -8.3138875e-06 0.00022046396 0.00019414573
-5.9474925e-05 5.8437232e-05 3.1683427e-05 0.00016662254 3.124307e-05 -5.478928e-05 -0.00010868506 -8.276581e-05
0.0002674723 0.0001997866 5.6818706e-05 -0.00016211637 2.6475995e-05 -3.196159e-05 -0.00055102876 -1.2815012e-05
6.6109846e-05 5.213882e-06 2.0163292e-05 4.9431725e-05 -5.4582786e-05 6.074917e-05 -3.1860567e-05 -1.8003833e-05
1.227115e-05 7.757943e-05 -4.128933e-05 8.248589e-05 1.2879724e-05 7.918894e-05 5.822258e-05 -4.6951965e-05
3.5248006e-05 -6.0718965e-05 -3.800958e-05 9.261633e-05 1.6116805e-06 -4.8819013e-05 -3.761235e-05 4.42063e-05
-1.090276e-05 -3.0387531e-05 2.8491726e-05 -0.0005307753 -7.615628e-05 4.061524e-05 2.2734039e-06 0.00020148062
00000000: 717a a038 b616 7437 b8e5 82b8 2a18 97b8
00000010: ef0a dc37 68a8 4db7 dc4f e7b8 cc68 8435
00000020: 8074 7638 1c39 4bb8 9c4e d0b7 e089 f8b7
00000030: 8da6 4eb8 e07b 0bb7 582c 6739 9993 4b39
00000040: b774 79b8 801a 7538 d2e3 0438 66b7 2e39
00000050: fe0a 0338 8bcd 65b8 d9ed e3b8 8e92 adb8
00000060: 863b 8c39 cf7d 5139 9f50 6e38 c8fd 29b9
00000070: c418 de37 7f0e 06b8 ea72 10ba 0f00 57b7
00000080: 74a4 8a38 e8f2 ae36 5724 a937 e954 4f38
00000090: d2ef 64b8 edcc 7e38 06a2 05b8 f006 97b7
000000a0: 30e0 4d37 24b2 a238 152e 2db8 46fc ac38
000000b0: fe15 5837 3d12 a638 0534 7438 4aee 44b8
000000c0: 42d7 1338 7eac 7eb8 7a6c 1fb8 033b c238
000000d0: ec50 d835 04c3 4cb8 f4c1 1db8 276a 3938
000000e0: ffea 36b7 bae8 feb7 8401 ef37 ba23 0bba
000000f0: 17b6 9fb8 485a 2a38 c890 1836 8b44 5339
