results/longer_training/models/checkpoint_40.pt (torch, 160291 bytes, 30 tensors)

actor_net.0.weight f4 [64, 8]
0	0xbd19b1be	-0.037523024
1	0xbe02a173	-0.127569
2	0x3e873e0b	0.26414523
3	0x3ebea154	0.3723246
4	0xbe52e000	-0.20593262
5	0x3f4acd3c	0.7921941
6	0x3dfa2f71	0.1221608
7	0xbcc069e5	-0.023487994
8	0x3d8562fd	0.06513021
9	0x3e14d678	0.14534938
10	0xbdd7b5d6	-0.10532729
11	0x3d2c00ae	0.041992836
12	0xbe33b5b9	-0.1754979
13	0x3e4abc8d	0.19798489
14	0x3e111c1b	0.14170878
15	0xbde48cf8	-0.111597
16	0x3d3da8a5	0.04630341
17	0xbe75da4f	-0.2400906
18	0x3dadcb24	0.084860116
19	0x3e168205	0.14698036
20	0xbe56d9ac	-0.20981473
21	0xbeff6d59	-0.49888113
22	0x3dfd888c	0.1237956
23	0xbde8ac6c	-0.11361012
24	0x3c895f8f	0.016769199
25	0xbdd4d9e1	-0.103931196
26	0x3b8f273c	0.004368691
27	0x3e36a3d0	0.17835927
28	0x3e3b6ca4	0.18303162
29	0xbefb54fc	-0.49088275
30	0xbe197664	-0.14986569
31	0xbdfc446f	-0.1231774
32	0x3e71ff61	0.23632576
33	0x3dc78bd7	0.09743469
34	0xbe76cd63	-0.24101786
35	0x3da01658	0.07816762
36	0x3e117903	0.14206319
37	0x3ecd1488	0.40054727
38	0xbea32570	-0.318645
39	0x3ef8478a	0.4849208
40	0xbcbca7a3	-0.023029154
41	0xbe082759	-0.1329626
42	0x3c30b914	0.010786314
43	0xbe16db97	-0.14732204
44	0xbdba3aac	-0.09093222
45	0xbeb5c32a	-0.3550046
46	0x3e2bbd4c	0.1677143
47	0x3da37062	0.0798042
48	0x3ef28baa	0.4737218
49	0xbd373949	-0.044732366
50	0x3ef7d893	0.4840742
51	0xbe4e16a7	-0.20125829
52	0xbe5270d9	-0.2055086
53	0xbe408808	-0.18801892
54	0x3d2d2b84	0.042277828
55	0x3c5615c7	0.013066716
56	0xbe6e81a2	-0.23291638
57	0x3e50fdc8	0.2040931
58	0xbe2e6ce5	-0.17033727
59	0xbe54e0d3	-0.20788889
60	0x3eb793b4	0.35854876
61	0xbe296a42	-0.1654444
62	0x3c1fdb9e	0.009756951
63	0xbe1525ec	-0.14565247
64	0x3e80b9ba	0.25141698
65	0xbdd3fe0d	-0.10351191
66	0x3c304b55	0.010760148
67	0xbeb60b00	-0.35555267
68	0x3e499845	0.19686992
69	0x3ec0c2c0	0.37648582
70	0xbebe51b6	-0.37171715
71	0x3c60572d	0.013692659
72	0xbe60184e	-0.21884272
73	0xbcf4a7d6	-0.029865187
74	0x3df36e70	0.11886299
75	0x3e2af0cb	0.16693418
76	0x3d4137ac	0.047172233
77	0xbed2975e	-0.4113111
78	0xbe246f92	-0.16058186
79	0xbe516533	-0.2044876
80	0xbda537b5	-0.08067266
81	0xbd7a3aa7	-0.06109109
82	0xbd4d66ef	-0.050146993
83	0xbdc8d14a	-0.09805544
84	0xbd27ab4e	-0.040934853
85	0xbe92a55f	-0.28641793
86	0xbec3333e	-0.38125032
87	0xbd588f62	-0.052871116
88	0x3d25ef8c	0.040511653
89	0xbde3ecca	-0.11129148
90	0xbdb4824b	-0.08813914
91	0xbe166c35	-0.14689715
92	0xbc1189c6	-0.008882945
93	0xbed1d808	-0.4098513
94	0x3da72a7a	0.08162399
95	0x3e4b959a	0.19881287
96	0xbd85e133	-0.06537094
97	0xbcb67c36	-0.022276025
98	0x3b2ba762	0.0026192297
99	0x3ed9c617	0.42533943
100	0x3e8b3e06	0.27195758
101	0xbe251de1	-0.16124679
102	0xbe153190	-0.14569688
103	0x3c30aaf3	0.010782945
104	0xbe796671	-0.24355485
105	0x3d0d1668	0.034445196
106	0xbc95f137	-0.018303497
107	0xbe65d01d	-0.2244267
108	0x3e74b338	0.23896492
109	0xbeaacb12	-0.33358055
110	0x3d657ab0	0.056025207
111	0x3e67f2a5	0.22651155
112	0xbe009ad2	-0.1255906
113	0xbf288db7	-0.6584124
114	0xbed4f061	-0.41589645
115	0x3e9a320e	0.30116314
116	0x3d8dc635	0.069225706
117	0x3e78137c	0.24226183
118	0xbd92df5a	-0.07171507
119	0x3c9b6aae	0.018971767
120	0xbe9902a7	-0.29884836
121	0xbeec53dc	-0.4615773
122	0xbf24bf87	-0.6435475
123	0xbd72ef9a	-0.059310533
124	0x3d74f515	0.05980404
125	0x3d994f93	0.07485881
126	0x3dff0d36	0.12453692
127	0xbd7a087a	-0.06104324
128	0xbe7ca075	-0.24670584
129	0x3c92d075	0.017921666
130	0x3ddc1cd0	0.10747683
131	0x3e699a3c	0.22812742
132	0xbd6a82db	-0.0572537
133	0xbe80abab	-0.25130972
134	0xbe0fbf2c	-0.1403777
135	0xbcec2e16	-0.02883057
136	0x3d7ce1d6	0.06173881
137	0x3dfb1c15	0.122612156
138	0xbd70b398	-0.058765024
139	0xbdc91bce	-0.098197564
140	0x3d378e7f	0.04481363
141	0x3eb26e5a	0.34849817
142	0x3e3c9308	0.18415463
143	0xbe2122d9	-0.1573595
144	0x3de02774	0.10945025
145	0xbdc0f75a	-0.094221786
146	0x3d5e6bb1	0.05430192
147	0xbea5e773	-0.32403144
148	0x3e966407	0.2937319
149	0xbdee4e89	-0.11636073
150	0x3d35610a	0.044281997
151	0xbdc04786	-0.09388642
152	0x3dd77804	0.10520938
153	0xbec28d84	-0.37998593
154	0xbf0a1566	-0.539389
155	0x3c57e26d	0.013176543
156	0x3c1cc42e	0.009568257
157	0x3ec90100	0.39258575
158	0x3e9b71b9	0.303602
159	0xbd049fab	-0.032378834
160	0x3d5ac568	0.053410918
161	0x3ceffa61	0.029294195
162	0x3c827a6c	0.015927516
163	0x3f0f1da0	0.5590458
164	0x3e2a2617	0.16616093
165	0x3d8fbaee	0.07018076
166	0x3da3f680	0.080060005
167	0xbe06d255	-0.13166173
168	0x3df31080	0.118683815
169	0xbe5a0eff	-0.21294783
170	0xbba9610d	-0.00516904
171	0x3c318380	0.010834575
172	0xbd1615ef	-0.03664201
173	0xbf0c758e	-0.54866874
174	0x3c014683	0.007890346
175	0xbccbaf1c	-0.024863772
176	0xbd0e0850	-0.034675896
177	0x3dae6614	0.085155636
178	0x3f0ba642	0.54550564
179	0x3c078cca	0.008273313
180	0xbe8648f8	-0.26227546
181	0xbee21ddc	-0.44163406
182	0x3da0c252	0.07849564
183	0x3dd5aaa5	0.104329385
184	0xbe8b2774	-0.27178538
185	0x3e00e804	0.12588507
186	0x3cab33b2	0.020898674
187	0xbe5a02c5	-0.21290119
188	0xbe68ee5e	-0.2274718
189	0xbf0ef692	-0.55844986
190	0xbd3ca93d	-0.046059836
191	0x3d699f7d	0.057036866
192	0xbdb8c43b	-0.09021803
193	0xbdf73723	-0.12071063
194	0xbf35af68	-0.70970774
195	0x3e0ffc1a	0.14061013
196	0x3e2bc6cb	0.16775052
197	0x3e9695b1	0.2941108
198	0x3e4da9c0	0.20084286
199	0xbe5c274d	-0.21499367
200	0xbeb4e975	-0.35334364
201	0xbecc8b6e	-0.39950126
202	0xbeed032f	-0.4629149
203	0xbdd4236d	-0.103583194
204	0x3c36f11a	0.0111658815
205	0x3e09741b	0.13423197
206	0x3e210e65	0.15728147
207	0xbd819ce1	-0.063287504
208	0x3e618102	0.22021869
209	0x3c4cdaf1	0.012503372
210	0xbdb9c938	-0.090715826
211	0xbdd7b3b4	-0.105323225
212	0x3e73c825	0.23806818
213	0x3e87c531	0.26517633
214	0x3e179884	0.14804274
215	0xbe1bac1d	-0.15202375
216	0xbdc50f3a	-0.09622045
217	0xbd80a6fe	-0.06281851
218	0x3ceaede5	0.02867789
219	0x3ed5d454	0.41763556
220	0xbeb783e2	-0.35842806
221	0xbf48fe02	-0.78512585
222	0xbd683ad2	-0.05669672
223	0x3e108406	0.14112863
224	0x3d619f5b	0.055083614
225	0x3e87596f	0.2643542
226	0xbe1eb87e	-0.15500066
227	0xbd0f9724	-0.03505625
228	0x3dcb9aa4	0.09941605
229	0x3f00d788	0.50328875
230	0xbe4ddb55	-0.201032
231	0xbe541fcb	-0.20715253
232	0x3cb23aa7	0.021756483
233	0xbe2158b3	-0.15756492
234	0xbcf50aed	-0.029912436
235	0xbcd14086	-0.025543462
236	0xbec4a63e	-0.38408083
237	0xbeb0853c	-0.3447665
238	0xbec1a14d	-0.37818375
239	0xbe039a9e	-0.1285195
240	0x3edf990c	0.43671453
241	0x3ec08e3a	0.3760851
242	0x3f3f37dc	0.7469461
243	0xbd713a32	-0.05889339
244	0x3cadb350	0.021203667
245	0xbf04f208	-0.5193181
246	0xbe7a54a5	-0.24446352
247	0xbcc43aab	-0.023953756
248	0xbe993ebc	-0.29930675
249	0xbdade472	-0.08490838
250	0x3e4bc883	0.19900708
251	0x3d1ba569	0.037999544
252	0x3dadc457	0.084847145
253	0xbda1c4c7	-0.078988604
254	0x3d733e8f	0.059385832
255	0x3df885eb	0.12134918

actor_net.0.bias f4 [64]
0	0x3d71f8ad	0.059075046
1	0x3c6a0f77	0.014285914
2	0xbd5e77eb	-0.05431358
3	0xbd4704fc	-0.048588738
4	0x3ce1fdb5	0.027586797
5	0xbd3cca61	-0.04609144
6	0xbd8ab114	-0.06772056
7	0xbd667d7e	-0.056272022
8	0x3d2e36c4	0.042532697
9	0xbd28fe5e	-0.04125821
10	0xbd7d5d04	-0.061856285
11	0xbd4115a6	-0.047139786
12	0xbba48d2c	-0.005021712
13	0xbce02ea6	-0.027365994
14	0x3db3e2f3	0.087835215
15	0x3dfce285	0.12347893
16	0xbd1deead	-0.038557697
17	0x3d348f97	0.04408225
18	0x3bbb49a6	0.0057155667
19	0x3b5484e5	0.0032427844
20	0x3d9fc520	0.078012705
21	0xbd674597	-0.05646285
22	0xbd813839	-0.06309552
23	0xbd7a12af	-0.061052974
24	0x3d4ec304	0.05047895
25	0x3da18055	0.078858055
26	0x3d5944ca	0.053044118
27	0xbd6fe0cb	-0.05856399
28	0x3d6988ca	0.057015218
29	0xbdba1e07	-0.090877585
30	0xbd828439	-0.06372876
31	0xbd1a65f1	-0.037694875
32	0x3d8b22f6	0.06793778
33	0x3d8c378a	0.06846531
34	0x3d380d62	0.044934638
35	0x3d9708b8	0.0737471
36	0xbd065236	-0.032793246
37	0x3d066734	0.032813266
38	0xbd8dc7a2	-0.069228426
39	0xbd9f96ef	-0.0779246
40	0x3de830fb	0.11337467
41	0x3d2e556e	0.04256194
42	0xbd767403	-0.06016923
43	0x3d5ce5a0	0.053929925
44	0x3d887634	0.066631705
45	0x3d4af214	0.04954727
46	0x3d3a8b61	0.04554308
47	0xbd845e16	-0.06463258
48	0x3db9b5bf	0.090678684
49	0x3bdbc570	0.006706886
50	0xbd49c49f	-0.049259778
51	0x3d3e215f	0.046418544
52	0xbd9126c8	-0.07087475
53	0xbd646bf3	-0.05576701
54	0xbd32bed7	-0.04363903
55	0x3d5dd45e	0.054157607
56	0xbdaea47c	-0.08527467
57	0xbdc25bea	-0.094901875
58	0x3d89672d	0.06709132
59	0xbdcbfce3	-0.09960344
60	0xbd6e632b	-0.058200043
61	0x3d6733c2	0.056445844
62	0xbd83c24b	-0.06433543
63	0x3e32c7ad	0.17458983

actor_net.2.weight f4 [64, 64]
0	0x3e43da90	0.19126344
1	0x3c8e2470	0.01735136
2	0xbebc8601	-0.36820987
3	0xbc788ff4	-0.01517104
4	0x3e9f7976	0.31147355
5	0xbed0c1a7	-0.40772745
6	0xbe472465	-0.19447477
7	0x3dd4525d	0.10367272
8	0x3e7d6ff2	0.24749735
9	0xbd354ffb	-0.04426573
10	0xbdad0ba6	-0.084494874
11	0xbe36dc63	-0.17857508
12	0xbe352464	-0.17689663
13	0xbd0e4596	-0.03473433
14	0xbe1d867d	-0.15383334
15	0x3e79b2cb	0.2438461
16	0x3e51d75f	0.20492314
17	0xbda7a8a3	-0.08186462
18	0xbdc0f52b	-0.09421762
19	0xbd7b16dd	-0.0613011
20	0x3e0fee97	0.14055859
21	0x3e39cbac	0.18144101
22	0x3d50675b	0.050879817
23	0x3d1d808f	0.03845268
24	0x3e97390f	0.2953572
25	0xbe35bac0	-0.1774702
26	0xbcfee3b5	-0.031114439
27	0xbeb9b175	-0.362682
28	0xbdbacecf	-0.09121477
29	0x3e45fb6b	0.1933419
30	0xbddfa3e2	-0.1091993
31	0x3e9a03ab	0.30080923
32	0x3dae55b8	0.08512443
33	0x3c8d4fe0	0.017250001
34	0x3dbe7bc2	0.09300949
35	0x3c8a6ff8	0.016899094
36	0x3e542e52	0.20720795
37	0xbe8af41f	-0.27139375
38	0xbdc0304d	-0.09384213
39	0xbe6d99bd	-0.23203178
40	0xbea713e9	-0.32632378
41	0x3e15b5a5	0.14620073
42	0xbe90fa2c	-0.28315866
43	0xbe2890aa	-0.16461435
44	0xbda65a32	-0.08122672
45	0x3e82aa64	0.25520623
46	0x3d9003d3	0.070319794
47	0xbe3322e2	-0.17493775
48	0x3e805d8a	0.25071365
49	0x3e3b1a03	0.18271641
50	0xbc6b948b	-0.014378677
51	0x3db3d877	0.08781522
52	0x3e229b32	0.15879515
53	0x3e919a0b	0.28437838
54	0xbdc07c5a	-0.09398718
55	0x3d88340a	0.06650551
56	0x3dbc72f0	0.0920161
57	0x3db59ebe	0.08868168
58	0x3cea0a1c	0.028569274
59	0xbea5de1c	-0.32396019
60	0xbe358ed7	-0.1773027
61	0x3ddf6274	0.1090745
62	0x3e0a5036	0.1350716
63	0x3e2f8ffc	0.1714477
64	0x3b9f877d	0.0048684464
65	0x3ea4efb8	0.3221414
66	0xbd51ee30	-0.051252544
67	0x3ec170ed	0.37781468
68	0x3dbb905b	0.09158393
69	0xbdba1c27	-0.09087401
70	0x3e7e99e8	0.24863398
71	0xbdad95b2	-0.08475818
72	0x3d7d6b30	0.0618698
73	0x3e4e7395	0.20161279
74	0x3d206724	0.039160863
75	0x3f0bd42b	0.5462062
76	0xbd84ea4e	-0.064900026
77	0xbd625f75	-0.055266816
78	0xbd29bfd1	-0.041442696
79	0xbe9b2f09	-0.30309322
80	0x3e8b4764	0.27202904
81	0xbdf06f03	-0.11739924
82	0x3e7bce7d	0.24590488
83	0xbe761c01	-0.2403412
84	0x3decfb05	0.11571316
85	0x3daf474a	0.08558519
86	0x3e0e52a0	0.13898706
87	0x3ea73e3e	0.32664675
88	0xbe4cb336	-0.19990239
89	0xbe6e403d	-0.23266692
90	0x3e033f4c	0.12817115
91	0x3e49adfe	0.19695279
92	0xbde88dd9	-0.1135518
93	0xbebfa866	-0.37433165
94	0x3ca77e51	0.020445975
95	0x3e02c433	0.12770157
96	0xbd9fdcea	-0.07805808
97	0xbd927623	-0.07151439
98	0xbe97bf9c	-0.29638374
99	0xbe58e11e	-0.21179625
100	0x3e2520ec	0.1612584
101	0xbc4db486	-0.012555247
102	0x3e0cbecc	0.13744658
103	0x3e441775	0.19149573
104	0x3c051295	0.008122106
105	0x3cebb3be	0.028772231
106	0x3e8ec42a	0.27884036
107	0xbd9b2f47	-0.07577377
108	0xbcb68e0d	-0.022284532
109	0x3e1a18af	0.15048479
110	0xbea47d8b	-0.32127032
111	0xbd9ece86	-0.07754235
112	0x3e570e9e	0.2100167
113	0xbddcf89b	-0.10789605
114	0x3e285edc	0.16442436
115	0x3dcefa32	0.10106315
116	0x3d41f712	0.047354765
117	0x3d7191c3	0.0589769
118	0xbda9133a	-0.0825562
119	0xbe50d2e2	-0.20392945
120	0x3cd26b2d	0.025685871
121	0xbda42f79	-0.08016867
122	0xbe079a18	-0.13242376
123	0x3efb2c21	0.49057105
124	0x3df59988	0.119921744
125	0x3e05f3f7	0.13081346
126	0xbdea5509	-0.114420004
127	0xbd66ef88	-0.05638078
128	0x3daaba79	0.08336348
129	0x3e27093a	0.16312113
130	0x3d5cccad	0.05390613
131	0xbd866aea	-0.06563361
132	0x3e2cf517	0.1689037
133	0xbdb46fb4	-0.08810368
134	0x3e24d254	0.16095859
135	0xbdeb3404	-0.114845306
136	0x3eaf1dd5	0.34202448
137	0x3dccac02	0.099937454
138	0xbe2395a2	-0.15975049
139	0xbd40fdce	-0.047117047
140	0xbdda58aa	-0.106614426
141	0x3d69dda8	0.057096153
142	0x3dbf76d6	0.09348838
143	0x3c278f3d	0.010227022
144	0x3dcf5db3	0.101252936
145	0x3d6843a7	0.056705143
146	0xbdc86db1	-0.09786547
147	0x3d801684	0.062542945
148	0xbe652358	-0.22376764
149	0xbb7a7a74	-0.003821996
150	0xbe6f953e	-0.23396775
151	0x3e96b0f1	0.2943187
152	0x3edd9abf	0.43282124
153	0x3eada341	0.33913615
154	0xbdf4337d	-0.11923883
155	0xbd451f40	-0.048125505
156	0x3e1fbf5b	0.1560034
157	0x3dc7e473	0.0976037
158	0xbe9207b4	-0.28521502
159	0xbe77e164	-0.24207073
160	0x3dcf078c	0.10108861
161	0x3e574cb8	0.2102536
162	0x3dc6bcd5	0.097039856
163	0x3ecf350a	0.40470153
164	0x3e4fa853	0.20279054
165	0x3d3b8783	0.04578353
166	0x3e4dc9ce	0.20096514
167	0x3dcbdf58	0.09954709
168	0x3e811375	0.25210157
169	0x3e35a6a8	0.17739356
170	0xbecaa8a5	-0.3958179
171	0x3eb300fa	0.34961683
172	0x3eb7f6e1	0.3593054
173	0x3e2fa621	0.17153217
174	0x3eb3b56f	0.3509936
175	0xbdca7fab	-0.09887632
176	0xbe0a05c4	-0.13478762
177	0x3d3458c6	0.044029973
178	0xbd130c33	-0.035900306
179	0x3d6b7573	0.057485055
180	0x3d2cc1f7	0.042177167
181	0x3e2e0572	0.16994265
182	0x3c2552f7	0.010090581
183	0x3dbae92b	0.091265045
184	0xbd0f1b01	-0.034937862
185	0xbdfebe5f	-0.12438654
186	0x3e2e37ff	0.17013548
187	0xbd7f8565	-0.062383074
188	0x3e856872	0.26056248
189	0x3e2bcae3	0.16776614
190	0xbe339378	-0.17536724
191	0x3ed7195c	0.42011535
192	0xbe6ba91a	-0.23013726
193	0xbd642058	-0.055694908
194	0x3b6ebef5	0.0036429737
195	0xbe094b0d	-0.13407536
196	0x3cfe19c6	0.03101815
197	0x3e0030c9	0.1251861
198	0x3dff746f	0.1247338
199	0xbd6e857b	-0.058232766
200	0xbeb23c76	-0.34811753
201	0x3dcdf6ff	0.100568764
202	0x3d00b054	0.03141816
203	0x3e37b883	0.1794148
204	0x3dbc5f22	0.09197833
205	0x3e0c52dd	0.13703485
206	0xbe4d1b59	-0.20029964
207	0xbed7508f	-0.4205365
208	0x3e2f5976	0.1712397
209	0x3e792a15	0.2433246
210	0xbe420295	-0.18946297
211	0xbe823887	-0.25433752
212	0xbea3f770	-0.32024717
213	0x3c6347fa	0.013872141
214	0x3ece7a3a	0.40327626
215	0x3d2a3413	0.041553568
216	0x3b83636f	0.004009656
217	0xbeb60126	-0.3554775
218	0xbe9ec725	-0.3101131
219	0x3d04d148	0.03242615
220	0x3cda74cf	0.026667027
221	0xbe83d1c8	-0.25745988
222	0x3ed5478e	0.41656154
223	0x3d21aa71	0.039469186
224	0x3e8ca331	0.27468255
225	0xbe7f3060	-0.24920797
226	0x3cf7137a	0.030160654
227	0xbd2ba10d	-0.041901637
228	0x3ebf9fcd	0.37426606
229	0xbe00eb6e	-0.1258981
230	0xbe8307b6	-0.2559182
231	0x3df7b0bb	0.120942555
232	0xbebfd9d5	-0.3747088
233	0xbdf5d56e	-0.12003599
234	0x3e250ce8	0.16118205
235	0x3c9f0a91	0.019414218
236	0x3e927f5c	0.28612792
237	0xbdfab756	-0.12242
238	0xbe0abb9b	-0.13548128
239	0x3e62f76a	0.22164693
240	0xbe93b732	-0.28850704
241	0xbde6c18c	-0.11267385
242	0x3e52eac4	0.20597368
243	0xbe48e120	-0.19617128
244	0xbd96e3e7	-0.07367688
245	0x3d8db53e	0.06919335
246	0x3df9b28f	0.121922605
247	0x3da92b4b	0.082602106
248	0x3e76d0a9	0.24103035
249	0x3e1f8ae6	0.1558033
250	0xbb489c07	-0.0030610578
251	0x3ea78cda	0.3272465
252	0x3c10469c	0.008805897
253	0xbe13451e	-0.14381835
254	0xbd016193	-0.031587195
255	0x3e2286c3	0.1587172

actor_net.2.bias f4 [64]
0	0x3dbba791	0.0916282
1	0xbd886adc	-0.06661007
2	0x3dad0615	0.08448426
3	0xbd874167	-0.066042714
4	0xbdae3448	-0.085060656
5	0x3d98e21d	0.07465003
6	0x3e20fb88	0.15720952
7	0xbdb82200	-0.0899086
8	0xbd4339e2	-0.047662623
9	0x3d95dada	0.07317133
10	0x3d95ea93	0.07320132
11	0xbe720656	-0.2363523
12	0x3d7a3b17	0.06109151
13	0x3db091c6	0.08621554
14	0xbd6dda84	-0.05806972
15	0xbd807f1a	-0.06274243
16	0x3c92a8b6	0.017902713
17	0xbd766405	-0.06015398
18	0xbd96a5b9	-0.07355828
19	0x3e16c03f	0.14721774
20	0xbe1335c3	-0.14375977
21	0x3d83fa53	0.0644423
22	0xbde1c07e	-0.11023043
23	0x3d9a1d7c	0.07525155
24	0x3d476b80	0.048686504
25	0xbd96c6d3	-0.073621415
26	0x3d4f0db7	0.05055019
27	0xbda0cbdb	-0.07851382
28	0xbdb9eb2a	-0.09078057
29	0x3dbf67e6	0.09345989
30	0xbe706e49	-0.2347957
31	0x3d924b7e	0.07143305
32	0x3d524431	0.051334564
33	0x3d96cb79	0.07363028
34	0x3d9aaf43	0.0755296
35	0x3da10a12	0.07863249
36	0xbd55ff35	-0.052245338
37	0xbdaeaa28	-0.085285485
38	0x3dcee996	0.10103147
39	0x3da8937f	0.08231258
40	0x3d841fc0	0.06451368
41	0x3d911418	0.07083911
42	0x3d8e8bd3	0.06960263
43	0xbd937ffd	-0.07202146
44	0xbdb30218	-0.08740634
45	0x3e0df51c	0.13863033
46	0xbd8ea22a	-0.06964524
47	0x3dc05165	0.09390525
48	0xbe43df8e	-0.19128248
49	0x3d95c123	0.073122285
50	0x3da4e813	0.08052077
51	0x3dbd0eb7	0.09231322
52	0x3d8aa950	0.06770575
53	0xbdaf8241	-0.08569766
54	0x3df395be	0.118937954
55	0xbdb50355	-0.08838526
56	0xbd956930	-0.072954535
57	0xbda9418f	-0.082644574
58	0x3d6cf1af	0.057847675
59	0x3d8d8b97	0.0691139
60	0xbda4fc5f	-0.080559485
61	0x3db83f78	0.08996481
62	0x3d92e90d	0.07173357
63	0x3d8546b4	0.06507626

actor_mean.weight f4 [1, 64]
0	0xbdd95ea3	-0.10613754
1	0x3e059a19	0.13047065
2	0xbe3e929b	-0.18610613
3	0x3e4e7a8d	0.20163937
4	0x3e1e61fe	0.15467069
5	0xbe76f72b	-0.24117725
6	0xbdb176e4	-0.08665255
7	0x3ea27c3b	0.31735405
8	0x3e1cab76	0.15299782
9	0xbdecf0c2	-0.115693584
10	0xbe04cbba	-0.1296834
11	0x3db8982d	0.090134
12	0xbe86691a	-0.2625206
13	0xbe785173	-0.2424982
14	0x3e564923	0.20926337
15	0x3de52b4b	0.11189898
16	0xbe0a0dcd	-0.13481827
17	0x3e6f1419	0.2334751
18	0x3ea08679	0.31352594
19	0xbdbb90b2	-0.09158458
20	0x3d7e6815	0.06211098
21	0xbdd30841	-0.10304309
22	0x3de85546	0.113443896
23	0xbe428ea2	-0.18999723
24	0xbe85bc8c	-0.26120412
25	0x3e1b15aa	0.15144983
26	0xbe55686c	-0.20840615
27	0x3e91c929	0.28473786
28	0x3dda9b67	0.10674172
29	0xbdc6b880	-0.09703159
30	0x3d6bba67	0.057550814
31	0xbe50e2c2	-0.20399001
32	0xbe336d11	-0.17522074
33	0xbe6c00a5	-0.23047121
34	0xbe75e74f	-0.24014018
35	0xbe0cec50	-0.13762021
36	0x3e151eb4	0.14562494
37	0x3d587996	0.05285033
38	0xbdf47d14	-0.11937919
39	0xbe29e117	-0.16589771
40	0xbe90c462	-0.28274828
41	0xbe80f9c1	-0.25190547
42	0xbe9d2824	-0.30694687
43	0x3e7497b9	0.23886003
44	0x3de029e8	0.10945493
45	0xbdaeb976	-0.085314676
46	0x3e88d006	0.2672121
47	0xbd93fbac	-0.07225737
48	0x3da6598b	0.08122548
49	0xbeb217b1	-0.347837
50	0xbec7b63d	-0.39006224
51	0xbdf239c0	-0.11827421
52	0xbe2c92cc	-0.16852874
53	0x3dcb0dd5	0.099147476
54	0xbdb752e5	-0.08951358
55	0x3e789a26	0.24277553
56	0x3e24e540	0.16103077
57	0x3ded883b	0.115982495
58	0xbe912f0e	-0.28356212
59	0xbe61b89f	-0.22043084
60	0x3e86e152	0.2634378
61	0xbeb8cc71	-0.36093476
62	0xbe30ea7d	-0.1727695
63	0xbd92fa01	-0.07176591

critic_net.0.weight f4 [64, 8]
0	0x3df354be	0.11881398
1	0x3d455f61	0.048186664
2	0x3d5386cd	0.051642228
3	0xbc12b857	-0.008955083
4	0x3e563fab	0.20922725
5	0x3f49e99f	0.788721
6	0x3e045609	0.12923445
7	0xbe093e8d	-0.13402767
8	0xbd443af2	-0.047907777
9	0xbede8c00	-0.43466187
10	0xbca39575	-0.019968728
11	0x3d1a873d	0.03772663
12	0xbf2aff9d	-0.66796285
13	0xbf28c492	-0.6592494
14	0xbbe9bbd0	-0.0071329847
15	0xbf17b341	-0.59257895
16	0x3e84539c	0.2584504
17	0x3d193075	0.037399728
18	0x3ed139c1	0.40864375
19	0x3cce0c37	0.025152309
20	0xbe9d9bec	-0.3078302
21	0xbe0d1c9d	-0.13780446
22	0xbe7d79bf	-0.24753474
23	0x3e121fdd	0.14269967
24	0x3ec7ff69	0.3906205
25	0x3ebaa4fb	0.36453995
26	0x3ef948f9	0.48688486
27	0xbe0e57b8	-0.1390065
28	0xbed4782c	-0.41497934
29	0xbe2377af	-0.15963624
30	0x3e590c29	0.21196045
31	0xbea33b00	-0.3188095
32	0x3df3c174	0.11902133
33	0x3e106048	0.14099228
34	0x3d66da60	0.056360602
35	0x3d34b8e6	0.044121645
36	0x3e6a8b39	0.22904672
37	0x3effb548	0.49942994
38	0x3e35f687	0.17769824
39	0x3eae2489	0.3401225
40	0x3ec0529f	0.37563035
41	0x3df5d8fc	0.12004277
42	0x3d34072d	0.043952156
43	0xbdc28059	-0.094971366
44	0xbf392901	-0.7232819
45	0xbe1c48b7	-0.15262114
46	0xbe52279c	-0.20522922
47	0xbe283f4e	-0.16430399
48	0x3dd73eb4	0.105100065
49	0x3e25e2ed	0.16199847
50	0x3e3eab67	0.18620072
51	0x3d8bf4db	0.06833812
52	0xbf3ae67b	-0.73007935
53	0xbe40b281	-0.18818094
54	0xbdffe555	-0.124949135
55	0xbe44e9fc	-0.19229883
56	0x3d030c2a	0.031994022
57	0xbe403cfe	-0.18773267
58	0xbd8fe81b	-0.070266925
59	0xbe98bc01	-0.29830936
60	0xbe8c47e5	-0.273986
61	0xbf300c61	-0.6876889
62	0xbd53a126	-0.051667355
63	0xbdb8e651	-0.09028304
64	0x3eef03a3	0.46682462
65	0x3e50fbfa	0.20408621
66	0x3dcc49cc	0.09975013
67	0xbd928336	-0.07153933
68	0xbe9e08a6	-0.30865973
69	0xbec673e7	-0.387603
70	0x3ec5aa03	0.3860627
71	0x3e6a9565	0.22908552
72	0xbdc58f0f	-0.09646427
73	0x3e9cf692	0.30656868
74	0xbd30d7f7	-0.04317471
75	0x3d3e26f1	0.046423856
76	0xbe29f3b6	-0.16596875
77	0x3f7efbd5	0.99603015
78	0xbf360966	-0.7110809
79	0xbdbeb563	-0.093119405
80	0x3d787f69	0.060668383
81	0xbe8097e2	-0.25115877
82	0xbe09e6ab	-0.13466899
83	0xbe85d96c	-0.26142442
84	0xbf212758	-0.6295066
85	0xbf38226a	-0.7192751
86	0xbe31bdaa	-0.17357507
87	0xbda676f4	-0.08128157
88	0xbedd7411	-0.43252614
89	0xbeaa673b	-0.33281884
90	0xbf1aa46a	-0.60407126
91	0xbe886261	-0.26637557
92	0x3ed49385	0.41518798
93	0x3f1bd678	0.6087413
94	0x3e8fbf75	0.28075758
95	0x3d7ab90d	0.061211634
96	0x3ead6f5f	0.33874032
97	0x3eeddb89	0.46456555
98	0x3dd56eb4	0.104215056
99	0x3ca8c415	0.020601312
100	0xbede1d66	-0.43381804
101	0xbee274af	-0.44229648
102	0xbdd0b700	-0.101911545
103	0x3deb3f5a	0.11486693
104	0x3e44934c	0.19196814
105	0x3ec4f3be	0.3846721
106	0x3ec92721	0.39287665
107	0xbe0d386a	-0.13791052
108	0xbe4ca4e5	-0.19984777
109	0xbf10e4bf	-0.5659904
110	0x3e80d4bb	0.251623
111	0x3d084d72	0.033276983
112	0x3cff7f6b	0.031188687
113	0x3d3af12a	0.04564015
114	0xbc0173df	-0.007901161
115	0x3e83be22	0.25730997
116	0xbee7a031	-0.45239404
117	0x3f3a4351	0.72758967
118	0xbe997065	-0.29968563
119	0xbe1dfd00	-0.15428543
120	0x3e18c9d3	0.1492074
121	0x3e320b9b	0.1738724
122	0xbd80b6c3	-0.06284859
123	0xbebdfa7d	-0.3710517
124	0xbeaca823	-0.33722028
125	0xbe8642d6	-0.26222867
126	0xbe084f00	-0.13311386
127	0xbe20e519	-0.15712394
128	0xbc9f9e16	-0.019484561
129	0xbf26ae83	-0.65110034
130	0xbea7552a	-0.32682163
131	0xbbc0095f	-0.005860492
132	0x3f07fde7	0.531218
133	0x3f0a8a44	0.54117227
134	0x3e499ec6	0.19689474
135	0xbdaeb628	-0.08530837
136	0xbe93afb4	-0.28844988
137	0xbf2d4d21	-0.67695814
138	0xbefbce2d	-0.49180737
139	0x3e0f6620	0.14003801
140	0x3f08f4ff	0.53498834
141	0x3ede4a3e	0.43416017
142	0x3dff518d	0.124667265
143	0xbd21336a	-0.039355673
144	0xbd91bc9c	-0.071160525
145	0xbdf7b858	-0.12095708
146	0xbdd910d2	-0.10598911
147	0xbc30c8a2	-0.010790022
148	0xbf192751	-0.5982562
149	0xbf69cfa8	-0.91332483
150	0x3d8ba667	0.06818848
151	0x3cf0ac12	0.029378925
152	0xbd4421d8	-0.04788384
153	0xbebebd73	-0.37253913
154	0xbeee78d4	-0.4657656
155	0x3e0a813e	0.13525864
156	0x3d16cfd9	0.036819313
157	0x3f01a40d	0.50640947
158	0xbdfc4bb6	-0.12319128
159	0xbd5740ef	-0.05255216
160	0xbee93dbd	-0.45554915
161	0xbea501df	-0.3222799
162	0xbe0de763	-0.13857798
163	0xbee314b0	-0.4435172
164	0x3e3bb48b	0.1833059
165	0x3e901487	0.2814066
166	0x3e85b164	0.261119
167	0x3d70c96f	0.058785852
168	0xbe98e15e	-0.29859442
169	0x3e7ca706	0.2467309
170	0xbe082d23	-0.13298468
171	0x3cc66346	0.02421726
172	0x3d2d7c48	0.042354852
173	0xbf81e6b8	-1.0148535
174	0xbda351b0	-0.07974565
175	0x3e54315a	0.20721951
176	0xbf0588b6	-0.5216173
177	0xbe926540	-0.28592873
178	0xbf0ff066	-0.56226194
179	0xbda6a5bf	-0.08137082
180	0x3e922ae6	0.28548354
181	0x3ecf6b15	0.40511385
182	0x3db488e2	0.08815171
183	0x3e82c0fd	0.25537863
184	0x3e720c91	0.23637606
185	0xbe5ce8e1	-0.21573211
186	0x3eb57d6b	0.3544725
187	0xbe6ec589	-0.23317541
188	0xbd8b8727	-0.06812888
189	0x3eb4f41e	0.35342497
190	0xbee526b9	-0.44756106
191	0xbe547aaa	-0.20749918
192	0xbe8c4e74	-0.27403605
193	0xbdb856e8	-0.09000951
194	0xbea1c0a5	-0.3159229
195	0x3e05b772	0.1305826
196	0x3ea138ce	0.3148865
197	0x3f2c0d4d	0.67207795
198	0x3e0a56d1	0.1350968
199	0xbe7df873	-0.24801807
200	0x3b812ae8	0.0039418824
201	0x3d894f22	0.067045465
202	0x3ded3be1	0.115836866
203	0x3e04394b	0.1291248
204	0x3e2b61f3	0.16736583
205	0x3f1b55a0	0.6067753
206	0xbf6ce63d	-0.92538816
207	0xbe3a943f	-0.18220614
208	0x3e556529	0.20839371
209	0xbe100099	-0.14062728
210	0x3e08ad4e	0.1334736
211	0x3e419303	0.18903737
212	0x3e8bd5e9	0.27311638
213	0x3f4c3f88	0.7978444
214	0x3ce4a4c4	0.027910598
215	0xbe4a8fcb	-0.19781415
216	0x3ee798d6	0.45233792
217	0x3f133a59	0.57510906
218	0x3eeb9df8	0.46018958
219	0xbcde2160	-0.027115524
220	0xbee83711	-0.45354512
221	0xbed9a3e8	-0.42507863
222	0xbec1d2f7	-0.37856266
223	0x3e2dd6f6	0.16976532
224	0xbead0961	-0.33796218
225	0x3d3c45ea	0.045965113
226	0x3d386281	0.045015816
227	0x3d97ecfd	0.07418249
228	0xbd616776	-0.05503031
229	0xbec5b3cc	-0.38613737
230	0x3f33ed83	0.7028429
231	0xbe7947db	-0.24343817
232	0x3eb471a8	0.35242963
233	0x3bb139d3	0.0054085045
234	0x3e430a45	0.19046886
235	0x3e3b1acc	0.18271941
236	0xbe2a6306	-0.16639337
237	0xbe658b59	-0.22416438
238	0xbe45ef34	-0.1932953
239	0x3e208b6c	0.15678185
240	0x3d3ce8db	0.046120506
241	0x3e664fcc	0.22491378
242	0xbb4d7345	-0.0031349224
243	0xbdb64a9a	-0.08900948
244	0x3f515a0b	0.8177802
245	0x3f2c608d	0.67334825
246	0xbe9a7297	-0.3016555
247	0xbe38cb59	-0.18046321
248	0xbd8a9dc7	-0.06768375
249	0x3e80e7bc	0.251768
250	0x3e1735fb	0.14766686
251	0xbe28b762	-0.16476205
252	0x3f187bbb	0.595638
253	0x3f32919a	0.6975342
254	0x3e058390	0.13038468
255	0xbe434fb8	-0.19073379

critic_net.0.bias f4 [64]
0	0x3e0e92c6	0.13923177
1	0xbe786af3	-0.24259548
2	0xbe021f57	-0.12707268
3	0xbe4e3731	-0.20138241
4	0x3e4e9c94	0.20176917
5	0xbdd5e767	-0.10444527
6	0xbe2240bd	-0.15845008
7	0xbe57c1c6	-0.21070012
8	0xbeba91b7	-0.36439297
9	0x3e509689	0.20369925
10	0xbe3c0b4f	-0.18363689
11	0x3de2d36e	0.11075483
12	0xbe2d1694	-0.16903144
13	0xbe4be119	-0.19910087
14	0x3e1f04ec	0.15529221
15	0xbde74b6d	-0.11293683
16	0x3e0260c0	0.1273222
17	0x3e3ae8df	0.18252896
18	0xbe24d746	-0.16097745
19	0x3e3b1f00	0.18273544
20	0x3e03bbea	0.12864652
21	0xbe2a5422	-0.16633657
22	0x3e0abe08	0.13549054
23	0x3e517258	0.20453775
24	0x3e042645	0.12905224
25	0x3e8601aa	0.26173145
26	0x3e0ed453	0.13948183
27	0xbdba0430	-0.0908283
28	0xbe0918f6	-0.13388428
29	0xbded6f24	-0.11593464
30	0x3e474a80	0.19462013
31	0x3e206929	0.15665115
32	0xbe14dc38	-0.14537132
33	0xbe33b4dc	-0.17549461
34	0xbb2540d0	-0.0025215633
35	0xbe6b6fca	-0.22991863
36	0x3e05ad2c	0.13054341
37	0xbccc1c81	-0.024915935
38	0xbe3faf71	-0.1871927
39	0x3e5f2182	0.21790126
40	0xbe11ae4f	-0.1422665
41	0x3e003d92	0.12523487
42	0xbe11203c	-0.14172453
43	0x3e39f8e0	0.18161345
44	0x3e6caa47	0.2311183
45	0xbe06bfc5	-0.13159092
46	0x3e046bb8	0.12931716
47	0xbe3faad5	-0.18717511
48	0x3d9a2ca1	0.075280435
49	0x3b03d4e1	0.00201159
50	0x3e22dda0	0.15904856
51	0x3d71380d	0.058891345
52	0xbe4c1645	-0.1993037
53	0xbe05cea7	-0.13067113
54	0x3e2fce61	0.17168571
55	0x3e343629	0.17598785
56	0x3e3e5fad	0.18591185
57	0x3e599535	0.21248324
58	0xbc1968d4	-0.009363372
59	0xbd7e569f	-0.062094327
60	0xbe4235bb	-0.18965809
61	0x3de078d3	0.109605454
62	0xbe1daa56	-0.15397009
63	0x3d217f2a	0.039427914

critic_net.2.weight f4 [64, 64]
0	0xbcdc95d4	-0.026926912
1	0x3caf2948	0.02138199
2	0x3e9359b1	0.28779367
3	0x3e8ab464	0.27090752
4	0x3e64898b	0.22318093
5	0x3e9159df	0.2838888
6	0x3edef1c2	0.43543822
7	0x3d9fa361	0.07794834
8	0x3e9e390e	0.30902904
9	0xbe677a6a	-0.22605291
10	0x3d3ffab5	0.046869952
11	0xbe9f50e9	-0.31116417
12	0x3ea825e9	0.32841423
13	0x3da02273	0.07819071
14	0xbe28c5e7	-0.16481744
15	0x3edf4231	0.43605188
16	0xbf614547	-0.87996334
17	0xbe8b4ea8	-0.27208447
18	0xbd5480d0	-0.051880658
19	0xbe1829dc	-0.14859718
20	0xbef42cc2	-0.47690398
21	0x3e0a56f3	0.13509731
22	0xbe8ea4e3	-0.27860174
23	0x3e956145	0.29175773
24	0xbe91f95d	-0.28510562
25	0x3ce6dfc9	0.028182881
26	0xbdb8d2f9	-0.09024615
27	0x3ee55ab0	0.44795752
28	0xbda073de	-0.078346
29	0x3ea8e8c5	0.3299009
30	0xbd66ffd9	-0.05639634
31	0x3e976d08	0.29575372
32	0x3f57fb68	0.8436799
33	0x3f0e66e2	0.55625737
34	0xbcc556bb	-0.024089208
35	0x3ed86ad5	0.42269006
36	0xbf0c2da6	-0.54757154
37	0x3ef41bb0	0.47677374
38	0x3f61a1a2	0.8813726
39	0xbe2febbc	-0.1717977
40	0x3f1a9db8	0.6039691
41	0x3df34afc	0.118795365
42	0x3ef3bb5f	0.4760389
43	0xbf018353	-0.5059101
44	0xbdfefa66	-0.124501035
45	0x3e1fdd4c	0.15611762
46	0x3d2de3d9	0.04245362
47	0x3e8bb105	0.27283493
48	0xbe26ef8b	-0.16302316
49	0x3b95233b	0.004551319
50	0xbc955009	-0.01822664
51	0xbcfd9b8d	-0.030957961
52	0x3e911655	0.2833735
53	0xbe479dcf	-0.19493793
54	0xbee60a75	-0.44929853
55	0xbbef8dcf	-0.007310606
56	0xbf21de9c	-0.632303
57	0xbe96a7e9	-0.2942498
58	0x3d8a5dc0	0.06756163
59	0xbefd2618	-0.49443126
60	0x3e8d377f	0.27581403
61	0x3e0967b3	0.13418464
62	0x3e205275	0.15656455
63	0xbda76fd6	-0.08175628
64	0xbecb7110	-0.39734697
65	0x3f32c653	0.6983387
66	0x3c429e74	0.0118785985
67	0xbde016dd	-0.10941861
68	0xbe9a5c02	-0.3014832
69	0x3e757a2f	0.2397239
70	0xbe0b56ba	-0.13607302
71	0x3e646209	0.22303022
72	0xbe3b8d96	-0.1831573
73	0xbc6b5958	-0.014364563
74	0x3f160d23	0.58613795
75	0x3e9a8b5e	0.30184454
76	0xbe6a5e1a	-0.2288746
77	0xbe3926c6	-0.18081197
78	0xbe5dc2d2	-0.2165635
79	0x3e9ed36d	0.3102068
80	0xbd032a4f	-0.03202277
81	0xbd84147d	-0.0644922
82	0x3df004b0	0.11719644
83	0x3ee89423	0.4542552
84	0x3be811c4	0.007082196
85	0x3e4d1457	0.2002729
86	0xbe8578df	-0.2606878
87	0x3ddb6998	0.107135
88	0x3ec2e46c	0.38064897
89	0x3e8db753	0.27678928
90	0xbf110d0d	-0.5666054
91	0x3da96b45	0.08272413
92	0xbe262d0d	-0.16228123
93	0xbc11cf6f	-0.008899554
94	0xbe3e08c3	-0.1855803
95	0xbe6864d5	-0.22694714
96	0xbdae6b49	-0.08516557
97	0xbd452277	-0.04812857
98	0xbeaf498f	-0.34235808
99	0x3cf9b11b	0.030479958
100	0xbe701fa1	-0.23449565
101	0x3d81b807	0.063339286
102	0xbd8d731b	-0.0690672
103	0xbe50d53e	-0.20393845
104	0xbd14e1b0	-0.036348045
105	0xbeb02b2a	-0.34407932
106	0xbcbeed3f	-0.023306487
107	0xbf09d4bd	-0.5384024
108	0x3e52ae82	0.20574382
109	0x3dd97dda	0.106197074
110	0xbd599a7b	-0.05312584
111	0x3ea0fcc8	0.31442857
112	0xbe6bd071	-0.23028733
113	0xbe639673	-0.2222536
114	0x3e723c0e	0.23655722
115	0x3dfafe4b	0.12255534
116	0x3bc528fc	0.0060168486
117	0xbe44f21f	-0.19232987
118	0xbef4b11d	-0.47791377
119	0xbeb2f283	-0.34950647
120	0xbc8058fc	-0.015667431
121	0xbe2ad63d	-0.16683288
122	0xbe6e3f76	-0.23266396
123	0x3d54a750	0.051917374
124	0x3ed5e4ce	0.41776127
125	0xbef6f193	-0.48231182
126	0x3de595da	0.112102225
127	0x3e978241	0.29591563
128	0x3ee1ce62	0.4410277
129	0xbee83950	-0.45356226
130	0x3e382be1	0.17985488
131	0x3b51a4ec	0.003198917
132	0x3d2c1986	0.04201653
133	0xbd223ef7	-0.03961083
134	0xbe6917cc	-0.22762984
135	0xbe3b4cb6	-0.18290982
136	0x3cf54dd2	0.029944334
137	0x3ecd9060	0.40149212
138	0xbe9b730c	-0.3036121
139	0x3e518177	0.20459543
140	0x3e9565bf	0.2917919
141	0xbe65e294	-0.22449714
142	0xbe2efae4	-0.17087895
143	0xbe29f1c8	-0.16596138
144	0x3d946add	0.07246945
145	0xbdbabc47	-0.09117942
146	0xbeae103b	-0.33996758
147	0x3e7fc20a	0.24976364
148	0x3e2835a5	0.16426714
149	0xbe45d562	-0.1931968
150	0x3e651d41	0.2237444
151	0x3e4cca47	0.19999038
152	0x3d89d8f8	0.06730837
153	0x3e4c0127	0.19922315
154	0x3e6f8921	0.23392154
155	0xbd730276	-0.05932852
156	0x3ddc81be	0.10766934
157	0x3d9041db	0.07043811
158	0xbdee6d5f	-0.11641955
159	0x3eefb726	0.4681942
160	0xbdbccfbd	-0.092193104
161	0xbdf77a40	-0.12083864
162	0x3e9826c8	0.29717088
163	0xbcbd8243	-0.023133403
164	0xbd2e808c	-0.04260306
165	0x3d8a69a4	0.067584306
166	0xbc267eea	-0.010162095
167	0x3ee4d5d8	0.446944
168	0xbd071679	-0.032980416
169	0x3ecdb09a	0.401738
170	0x3ccd1277	0.025033219
171	0x3e8bd730	0.27312613
172	0x3e03443a	0.12818995
173	0x3e48f125	0.1962324
174	0xbe90b132	-0.2826019
175	0xbeea0bcb	-0.45712122
176	0x3ded8632	0.11597861
177	0xbe236f47	-0.15960418
178	0x3e05d3f3	0.13069133
179	0x3e921c92	0.28537422
180	0xbe9ba0ab	-0.30396017
181	0xbdf89f7a	-0.12139793
182	0x3ea3fbb3	0.3202797
183	0x3e41512c	0.18878621
184	0x3e053780	0.13009453
185	0xbea64fdc	-0.32482803
186	0x3d56f6a6	0.052481316
187	0x3e55fb8b	0.20896737
188	0xbb891fb7	-0.004184689
189	0xbe9377f3	-0.28802451
190	0xbe9885ff	-0.2978973
191	0x3dea5663	0.11442258
192	0x3ea16664	0.3152343
193	0xbf070bce	-0.5275239
194	0xbf13bd8e	-0.5771111
195	0xbe8db6dd	-0.27678576
196	0x3e9e2be6	0.30892867
197	0xbe38f975	-0.1806391
198	0xbe2a6ae0	-0.16642332
199	0x3e0cab95	0.13737328
200	0xbd652c0b	-0.055950206
201	0x3dfcc971	0.123431094
202	0xbd6a471e	-0.05719673
203	0x3e4c5633	0.19954757
204	0x3d10bdde	0.03533732
205	0xbddc7335	-0.107641615
206	0xbd9e8b55	-0.07741419
207	0xbe79cac9	-0.24393763
208	0x3e33a637	0.17543875
209	0x3dfa00c9	0.12207181
210	0xbed41e43	-0.41429338
211	0xbd0c2b00	-0.034220695
212	0x3d1ed50a	0.03877739
213	0xbe9d007d	-0.30664435
214	0xbdacb705	-0.08433346
215	0x3c93702b	0.017997822
216	0x3d7cf3c0	0.061755896
217	0xbe1b9e8c	-0.151972
218	0x3ea037ba	0.31292516
219	0xbe8cb6d7	-0.27483246
220	0xbe05a3de	-0.13050792
221	0xbdd29691	-0.102826245
222	0x3d0d6d8f	0.03452831
223	0x3eaff264	0.34364617
224	0x3e6edf6d	0.23327418
225	0xbecace08	-0.39610314
226	0x3d1f28b9	0.038857196
227	0xbdd8215a	-0.10553236
228	0xbdd529fd	-0.10408399
229	0x3e1bdf68	0.15221941
230	0xbd9bf760	-0.076155424
231	0x3ef7cd0a	0.4839862
232	0x3e4ceb0f	0.20011543
233	0x3db537bd	0.08848522
234	0x3e4c2596	0.19936213
235	0xbd4c7655	-0.049917538
236	0xbd16e192	-0.036836214
237	0x3e2bb684	0.16768843
238	0x3e1db62f	0.15401529
239	0xbe1b6d94	-0.1517852
240	0xbda01138	-0.07815784
241	0xbe8ec3fe	-0.27883905
242	0xbcf6b9be	-0.030117866
243	0x3eba42e1	0.3637915
244	0xbe40af53	-0.18816881
245	0x3c729644	0.014806334
246	0x3eabd3d2	0.33560044
247	0x3e979c28	0.29611325
248	0xbc20571f	-0.009786396
249	0x3ec2b032	0.3802505
250	0xbe0daf1c	-0.1383633
251	0xbe82fff6	-0.25585908
252	0xbedcaf5f	-0.43102548
253	0x3e8633e8	0.26211476
254	0xbe9f0dc6	-0.31065196
255	0x3d696ef9	0.056990597

critic_net.2.bias f4 [64]
0	0xbe33f6e8	-0.17574656
1	0xbea03aff	-0.3129501
2	0x3e3593be	0.1773214
3	0x3e41ea6b	0.1893708
4	0x3e233856	0.15939459
5	0x3e140151	0.14453627
6	0x3e243761	0.1603675
7	0xbdb8147b	-0.08988281
8	0xbe2ac145	-0.16675289
9	0x3e3998ff	0.1812477
10	0xbdba8f24	-0.09109333
11	0xbd9c1d78	-0.07622808
12	0xbdefd591	-0.117106564
13	0xbe2f1dd4	-0.17101222
14	0xbdcf5c0a	-0.10124977
15	0x3e3930a7	0.18084966
16	0x3dcec4fa	0.10096164
17	0x3e0e58e0	0.1390109
18	0x3e6757b6	0.22592053
19	0x3e01ee5a	0.1268858
20	0xbe314a01	-0.17313386
21	0xbe569381	-0.20954706
22	0x3e732e8a	0.23748222
23	0x3e2c0d00	0.16801834
24	0xbe8b767e	-0.2723884
25	0x3e403879	0.18771543
26	0x3e49a5f4	0.19692212
27	0x3e27bb99	0.16380157
28	0xbde0b302	-0.10971643
29	0xbdd1db11	-0.10246862
30	0xbe45bd6f	-0.19310544
31	0x3d965aa1	0.07341505
32	0xbe61a905	-0.22037132
33	0xbe2e6ec5	-0.17034443
34	0xbe62f029	-0.22161926
35	0x3dc2f20e	0.095188245
36	0xbe48da4f	-0.19614528
37	0xbe0bfd82	-0.13670924
38	0xbe4fce6d	-0.20293589
39	0x3da2d7f3	0.07951345
40	0x3db3be66	0.0877655
41	0x3e2b9083	0.16754346
42	0xbe429a52	-0.19004181
43	0xbe1c3064	-0.15252835
44	0xbda4ff7e	-0.08056544
45	0xbe204afa	-0.15653601
46	0xbe502bbd	-0.20329185
47	0x3eab5943	0.3346654
48	0xbddb5844	-0.10710195
49	0xbdfb8051	-0.12280334
50	0xbe6c8761	-0.23098518
51	0x3de09a20	0.10966897
52	0xbe2422d4	-0.16028911
53	0x3e070b82	0.13187984
54	0x3e92dd68	0.28684545
55	0x3e22d19d	0.15900274
56	0xbe46c286	-0.19410142
57	0x3e856a8f	0.2605786
58	0xbe26591e	-0.16244933
59	0xbe44b48a	-0.19209495
60	0x3e0553be	0.13020226
61	0x3e372d99	0.17888488
62	0xbe190b54	-0.14945728
63	0x3e0fa6fd	0.14028545

critic_head.weight f4 [1, 64]
0	0x3f16d176	0.5891336
1	0x3ea5f887	0.32416174
2	0xbf086662	-0.53281224
3	0xbeed3ead	-0.4633688
4	0xbf1420ee	-0.57862747
5	0xbf29a5c9	-0.66268593
6	0xbf336913	-0.70082206
7	0x3f1ce0b5	0.61280376
8	0x3f53d278	0.82743025
9	0xbf2da061	-0.67822844
10	0x3f114dde	0.5675944
11	0x3ed711a3	0.42005643
12	0x3f0bd5b5	0.54622966
13	0x3f4aa235	0.7915376
14	0x3ed32512	0.4123922
15	0xbeefb0ec	-0.46814668
16	0xbf362b71	-0.71160036
17	0xbee62366	-0.44948882
18	0xbf1a9c83	-0.6039507
19	0xbf587067	-0.8454651
20	0x3f56e43d	0.83942014
21	0x3f250e6c	0.6447513
22	0xbf108bb3	-0.56463164
23	0xbf0b7e15	-0.5448926
24	0x3ed00637	0.40629742
25	0xbf2e5d6f	-0.6811132
26	0xbf77dec2	-0.96824276
27	0xbf599182	-0.8498765
28	0x3ef7fced	0.48435155
29	0x3f256a01	0.64614874
30	0x3f25dc29	0.6478906
31	0xbf11131a	-0.5666977
32	0x3f0fd02c	0.5617702
33	0x3f4c573c	0.7982061
34	0x3edc69e2	0.43049532
35	0xbeeb9c59	-0.4601772
36	0x3f4023c5	0.7505458
37	0x3f33ddce	0.7026032
38	0x3f1cbd17	0.6122603
39	0xbf12ac0b	-0.57293767
40	0xbf08be83	-0.534157
41	0xbf569cdf	-0.83833116
42	0x3f29109b	0.6604096
43	0x3f4b51f9	0.79421955
44	0x3f48ddf9	0.78463703
45	0x3f841e79	1.03218
46	0x3f0127be	0.50451267
47	0xbf3f72de	-0.7478465
48	0x3f0d36ff	0.5516204
49	0x3f2c1ea5	0.6723426
50	0x3ee2aed8	0.4427402
51	0xbf2a24e9	-0.6646257
52	0x3f121356	0.57060754
53	0xbf0830d4	-0.53199506
54	0xbeefa04e	-0.4680199
55	0xbf1f3380	-0.6218796
56	0x3f7bf9b9	0.9842792
57	0xbee829b0	-0.45344305
58	0x3f04de06	0.5190128
59	0x3f2ec181	0.68264014
60	0xbf79a99f	-0.97524446
61	0xbf4d6070	-0.80225277
62	0x3f3dc3b3	0.7412674
63	0xbf28a8d3	-0.65882605

exp_avg f4 [64, 8]
0	0x3a22512c	0.0006191905
1	0x3a2c59a7	0.00065746385
2	0x3a381085	0.00070215046
3	0x3a13b495	0.0005634514
4	0x3993a9ea	0.0002816462
5	0x36df78b3	6.659969e-06
6	0x3a322f75	0.0006797233
7	0x3a420097	0.00074006006
8	0x3913c5de	0.00014092724
9	0x391e1b4e	0.00015078226
10	0x3929ed8d	0.0001620559
11	0x38fe6be2	0.000121317586
12	0x38706e54	5.732321e-05
13	0x35d59d14	1.5915452e-06
14	0x3913186f	0.00014028115
15	0x39221f81	0.0001546126
16	0xba43ff57	-0.0007476708
17	0xba537c28	-0.0008067512
18	0xba64e1b1	-0.00087311404
19	0xba1f63e1	-0.0006080252
20	0xb98b5fb2	-0.00026583445
21	0xb717399b	-9.013714e-06
22	0xba2a7884	-0.00065029436
23	0xba3f88e9	-0.0007306473
24	0xb9df89c3	-0.00042636515
25	0xb9eef00a	-0.0004557374
26	0xba004cd8	-0.0004894263
27	0xb9c549a2	-0.0003762963
28	0xb9386104	-0.00017583749
29	0xb6a1a18d	-4.816981e-06
30	0xb9e27232	-0.0004319116
31	0xb9f6f8a1	-0.0004710602
32	0x39ea1e59	0.0004465457
33	0x39ff8ef1	0.0004874389
34	0x3a0ba660	0.0005327221
35	0x39a91921	0.00032252914
36	0x39056c88	0.000127243
37	0x36c30c71	5.8129012e-06
38	0x39a3ce2f	0.00031243401
39	0x39bf5b90	0.00036498578
40	0xba1ee156	-0.00060607994
41	0xba2b972b	-0.0006545658
42	0xba39d5c2	-0.00070890423
43	0xb9ff77cb	-0.00048726643
44	0xb95fd6ed	-0.00021347003
45	0xb6f6ef84	-7.3592546e-06
46	0xba08ae13	-0.00052139274
47	0xba1a7e75	-0.00058934774
48	0xb9b64fa0	-0.0003477307
49	0xb9b61949	-0.00034732584
50	0xb9b6b537	-0.0003484876
51	0xb9fe083e	-0.00048452796
52	0xb98fce59	-0.00027428826
53	0xb62263f4	-2.4198062e-06
54	0xba30aa3b	-0.00067392335
55	0xba342da2	-0.0006873255
56	0xb960f35b	-0.00021452962
57	0xb96f1b49	-0.0002280298
58	0xb97f57f1	-0.00024351456
59	0xb94e5005	-0.000196755
60	0xb8c9e2cf	-9.626673e-05
61	0xb61e1bb6	-2.3559965e-06
62	0xb9752769	-0.00023379702
63	0xb9857318	-0.00025453488
64	0x3a12b3dc	0.0005596259
65	0x3a1f0197	0.00060656056
66	0x3a2cea83	0.0006596224
67	0x39dffbc9	0.0004272147
68	0x3942cec6	0.00018578311
69	0x36e96e12	6.956755e-06
70	0x39eb2d1d	0.00044856305
71	0x3a07489f	0.00051606627
72	0xb9dac52e	-0.0004172711
73	0xb9ebe9d5	-0.0004499691
74	0xb9ff3b1b	-0.00048681427
75	0xb9b496db	-0.00034444671
76	0xb91ee3d1	-0.00015152922
77	0xb6a9ec7b	-5.0641224e-06
78	0xb9c22399	-0.00037029086
79	0xb9d8f224	-0.0004137914
80	0xb9398469	-0.00017692301
81	0xb944a5f5	-0.0001875384
82	0xb951ba0f	-0.00020001105
83	0xb92e0b16	-0.00016598063
84	0xb8b0e5ab	-8.435113e-05
85	0xb6029c1e	-1.9462382e-06
86	0xb951df20	-0.00020014914
87	0xb964715c	-0.00021786004
88	0xba5436c5	-0.00080953195
89	0xba648409	-0.00087171845
90	0xba76d8d8	-0.00094164675
91	0xba2fd9e4	-0.00067081884
92	0xb99ca0c3	-0.00029874415
93	0xb720b77f	-9.579467e-06
94	0xba3f8be2	-0.0007306916
95	0xba569621	-0.0008185823
96	0xb8cd2244	-9.781544e-05
97	0xb8cfb373	-9.903954e-05
98	0xb8d43a65	-0.000101198246
99	0xb905dcc0	-0.00012766104
100	0xb8918694	-6.939206e-05
101	0xb5371145	-6.8197943e-07
102	0xb9356ee4	-0.00017302815
103	0xb9364547	-0.0001738268
104	0xb9e4c84f	-0.0004363679
105	0xb9f5edc9	-0.00046907205
106	0xba049247	-0.00050571974
107	0xb9bfaefb	-0.0003656073
108	0xb92c8941	-0.0001645433
109	0xb6ad543c	-5.165608e-06
110	0xb9d26653	-0.0004013056
111	0xb9ebc662	-0.000449705
112	0x3a1c2f93	0.0005958017
113	0x3a1bd79b	0.00059449085
114	0x3a1c3f6f	0.000596038
115	0x3a5e12fe	0.0008471458
116	0x39fadd9f	0.00047848836
117	0x368bb385	4.1634216e-06
118	0x3a981885	0.0011603987
119	0x3a9c3a8a	0.0011919301
120	0x39f62f95	0.00046956228
121	0x39f42ca2	0.0004657256
122	0x39f3a91d	0.0004647457
123	0x3a2754d4	0.0006383185
124	0x39c9a1cc	0.00038458256
125	0x36435b82	2.911053e-06
126	0x3a7831e4	0.00094678835
127	0x3a787002	0.00094771397
128	0xb92b40aa	-0.0001633192
129	0xb934bb4e	-0.00017235914
130	0xb93fc3a9	-0.00018288069
131	0xb9236051	-0.00015580772
132	0xb8a190f4	-7.704078e-05
133	0xb5deb9ea	-1.6594397e-06
134	0xb947820f	-0.0001902657
135	0xb955ae54	-0.00020378205
136	0x39e04860	0.00042778533
137	0x39f025e7	0.00045804607
138	0x3a011f29	0.00049256027
139	0x39c1258a	0.00036839797
140	0x3933d822	0.00017151286
141	0x36a33539	4.8639745e-06
142	0x39dbb68f	0.00041906952
143	0x39f24af6	0.00046213687
144	0xb99626ad	-0.00028639045
145	0xb9a610de	-0.00031674554
146	0xb9b7bfbb	-0.0003504733
147	0xb932e068	-0.00017059
148	0xb881d254	-6.190376e-05
149	0xb684eeaa	-3.9616907e-06
150	0xb917bcf0	-0.00014470867
151	0xb9434965	-0.00018623991
152	0x3962f0b3	0.00021642707
153	0x396141e7	0.00021482223
154	0x3961712f	0.00021499836
155	0x3998c425	0.00029137838
156	0x39383626	0.0001756778
157	0x35a8ade2	1.2567582e-06
158	0x39e87674	0.00044338743
159	0x39e328ed	0.00043327306
160	0x393171ad	0.00016922383
161	0x393d066d	0.00018026838
162	0x394aa1a4	0.00019324437
163	0x391b94e4	0.00014837418
164	0x389c6b89	7.45869e-05
165	0x35f706c3	1.8404902e-06
166	0x3939c0b7	0.00017714767
167	0x394c7086	0.00019496874
168	0xba32cb6e	-0.00068204745
169	0xba40329c	-0.000733176
170	0xba4f5913	-0.00079096964
171	0xba1551d0	-0.000569609
172	0xb98796ce	-0.00025861565
173	0xb7063574	-7.999468e-06
174	0xba24957c	-0.00062783784
175	0xba38496c	-0.00070299837
176	0xb99e6bc7	-0.0003021641
177	0xb99f2142	-0.00030351622
178	0xb9a0c6e9	-0.00030665778
179	0xb9d1ca2b	-0.00040014213
180	0xb9703853	-0.00022909166
181	0xb60f9189	-2.1393373e-06
182	0xba148fed	-0.00056671986
183	0xba169367	-0.00057440106
184	0xba6b598c	-0.0008977882
185	0xba7d9f1f	-0.0009674895
186	0xba8920e2	-0.001046207
187	0xba3ef3d3	-0.00072842574
188	0xb9abb430	-0.00032749912
189	0xb733be32	-1.0713515e-05
190	0xba4f9318	-0.0007918342
191	0xba69cda1	-0.0008918886
192	0x3a1c0b85	0.0005952644
193	0x3a1b7393	0.00059300027
194	0x3a1ba9c4	0.0005938078
195	0x3a582c2c	0.0008246328
196	0x39f8ed39	0.0004747899
197	0x36813f89	3.851896e-06
198	0x3a9af387	0.0011821844
199	0x3a9b72a4	0.0011859727
200	0x39f315c8	0.000463648
201	0x39f1352f	0.00046006727
202	0x39f0d1e5	0.0004593275
203	0x3a258c7e	0.00063151855
204	0x39c6bffd	0.00037908545
205	0x3641e3a7	2.8891752e-06
206	0x3a750d57	0.0009347996
207	0x3a752359	0.00093512755
208	0x39e2c37b	0.00043251723
209	0x39f3af6a	0.00046479265
210	0x3a03726b	0.0005014303
211	0x39be9394	0.00036349578
212	0x392d7479	0.00016541955
213	0x36a95280	5.0461967e-06
214	0x39d1ef2d	0.00040041786
215	0x39ea0a65	0.00044639703
216	0xba840b63	-0.0010074194
217	0xba8de14e	-0.0010824592
218	0xba9921b9	-0.0011683024
219	0xba5a093b	-0.00083174155
220	0xb9ca0668	-0.00038533215
221	0xb742eddc	-1.1618682e-05
222	0xba74bfed	-0.00093364605
223	0xba881b9f	-0.0010384208
224	0x3a8b79b7	0.0010641132
225	0x3a97fca5	0.001159568
226	0x3aa5e51a	0.0012656779
227	0x3a4ed683	0.0007890241
228	0x39a67ad0	0.0003175349
229	0x3765ca19	1.3696518e-05
230	0x3a4b49b7	0.000775482
231	0x3a6d1cc7	0.00090451207
232	0xb8a3d96d	-7.8129444e-05
233	0xb8aca769	-8.232782e-05
234	0xb8b70333	-8.726716e-05
235	0xb89c557d	-7.454583e-05
236	0xb81f7c54	-3.8024344e-05
237	0xb5608a50	-8.3647774e-07
238	0xb8beedaa	-9.1041744e-05
239	0xb8ccb55e	-9.76126e-05
240	0xba894e24	-0.0010475558
241	0xba884a5c	-0.0010398137
242	0xba881543	-0.0010382313
243	0xbabbc2fc	-0.0014325078
244	0xba5e787a	-0.00084865803
245	0xb6d7019f	-6.407688e-06
246	0xbb0acb7c	-0.0021178415
247	0xbb0a106e	-0.0021066922
248	0xb96d57aa	-0.00022634739
249	0xb9808a99	-0.00024517326
250	0xb98ba969	-0.00026638366
251	0xb9389bd0	-0.00017605652
252	0xb89fb77b	-7.615887e-05
253	0xb63b0f09	-2.7873923e-06
254	0xb940ff48	-0.00018405647
255	0xb95bda0b	-0.00020966695
