results/longer_training/models/checkpoint_60.pt (torch, 174691 bytes, 30 tensors)

actor_net.0.weight f4 [64, 8]
0	0xbd3620d9	-0.04446492
1	0xbe04364a	-0.12911335
2	0x3e89568a	0.26823837
3	0x3ec25505	0.3795549
4	0xbe8c8b5f	-0.27450082
5	0x3f75210d	0.95753556
6	0x3dd7bdf6	0.10534279
7	0xbcbf8cbe	-0.02338254
8	0x3d56d26b	0.052446764
9	0x3e11e7d7	0.14248596
10	0xbdc7df43	-0.09759381
11	0x3d8b825a	0.06811972
12	0xbe801739	-0.25017717
13	0x3eb3d98a	0.35126907
14	0x3e058538	0.130391
15	0xbdf70adc	-0.12062618
16	0x3d70c080	0.058777332
17	0xbe701295	-0.23444588
18	0x3daa0f40	0.0830369
19	0x3e1bdae6	0.15220222
20	0xbe0e4cc4	-0.13896471
21	0xbf25de9b	-0.64792794
22	0x3e12ab9b	0.14323275
23	0xbde25b43	-0.11052563
24	0x3d182352	0.03714306
25	0xbdb78735	-0.089613356
26	0x3c3fc188	0.011703856
27	0x3e409b24	0.18809181
28	0x3e837b21	0.25679877
29	0xbf272972	-0.65297616
30	0xbe059c2b	-0.13047855
31	0xbdf20418	-0.11817187
32	0x3e602860	0.21890402
33	0x3db5b500	0.08872414
34	0xbe767aec	-0.24070328
35	0x3d8b0bca	0.06789358
36	0x3d85c332	0.06531371
37	0x3f014061	0.5048886
38	0xbeb6709c	-0.3563279
39	0x3ef221d2	0.47291428
40	0xbc8d2b31	-0.01723251
41	0xbe0aa88a	-0.13540855
42	0xb9960da7	-0.000286204
43	0xbe1f2414	-0.15541106
44	0xbcd5545b	-0.0260412
45	0xbf015da5	-0.50533515
46	0x3e4a8a58	0.19779336
47	0x3dab7d6c	0.08373532
48	0x3efcd0dc	0.49378097
49	0xbd08d4b3	-0.03340597
50	0x3ef80411	0.48440602
51	0xbe4081e3	-0.18799548
52	0xbe106a54	-0.14103061
53	0xbee6ee2e	-0.45103592
54	0x3d6755cd	0.05647831
55	0x3c765f0d	0.01503731
56	0xbe67ddc3	-0.22643189
57	0x3e4e91f4	0.20172864
58	0xbe3a88b7	-0.18216215
59	0xbe5fa06e	-0.21838543
60	0x3edd4a28	0.4322064
61	0xbeb5bb3e	-0.35494417
62	0x3d145285	0.03621151
63	0xbe12faab	-0.14353435
64	0x3e714d25	0.23564585
65	0xbdeb576d	-0.114912845
66	0x3b8e39de	0.0043403944
67	0xbeb3f7ea	-0.3515008
68	0x3e091594	0.13387138
69	0x3f03d269	0.51492935
70	0xbec7f539	-0.39054278
71	0x3c98ba86	0.018643629
72	0xbe5253fc	-0.2053985
73	0xbcc9f7b1	-0.024654241
74	0x3deb6025	0.114929475
75	0x3e282073	0.16418628
76	0x3de4015d	0.111330725
77	0xbf0dd4a3	-0.5540258
78	0xbe0f24b7	-0.1397885
79	0xbe504da6	-0.2034212
80	0xbdcb0b63	-0.09914281
81	0xbdb3f753	-0.08787408
82	0xbdafd1d6	-0.08584945
83	0xbe0ac7a3	-0.13552718
84	0xb93d89ba	-0.00018075752
85	0xbef21c46	-0.47287196
86	0xbebc95f2	-0.3683315
87	0xbd901aaf	-0.070363395
88	0x3d3bddfd	0.045866
89	0xbde5d926	-0.112230584
90	0xbdc3a09f	-0.095521204
91	0xbe1a5352	-0.15070847
92	0x3d64b91a	0.05584059
93	0xbf109251	-0.5647326
94	0x3dd6ad68	0.10482293
95	0x3e4d3b41	0.20042135
96	0xbcfb2672	-0.03065798
97	0x3c4d1cab	0.012519042
98	0x3d1704d8	0.036869854
99	0x3eed3371	0.4632831
100	0x3eb70380	0.35744858
101	0xbe95e906	-0.29279345
102	0xbe1b1b6f	-0.15147184
103	0x3c48226e	0.01221524
104	0xbe6ba4be	-0.23012063
105	0x3d226469	0.03964654
106	0xbcb3c96e	-0.021946635
107	0xbe6b7c04	-0.22996527
108	0x3e9d66ba	0.30742437
109	0xbef98d08	-0.4874041
110	0x3d9cf803	0.07664492
111	0x3e6a3adb	0.22874014
112	0xbe147029	-0.1449591
113	0xbf2b5262	-0.6692258
114	0xbed4d12e	-0.4156584
115	0x3e936b66	0.28792876
116	0x3bd1049a	0.0063787224
117	0x3efcb6e3	0.49358281
118	0xbdaef94b	-0.085436426
119	0x3c977bf3	0.01849172
120	0xbea4ca0f	-0.32185408
121	0xbef43aee	-0.4770121
122	0xbf2623be	-0.6489829
123	0xbd9612ba	-0.073277906
124	0xbc28283e	-0.010263501
125	0x3eba3b50	0.36373377
126	0x3e0070ae	0.12542984
127	0xbd71b8ed	-0.05901425
128	0xbe577727	-0.21041547
129	0x3d5bc89e	0.05365812
130	0x3e114bac	0.14189023
131	0x3e87b73e	0.2650699
132	0x3c7244c7	0.014786906
133	0xbeabc9ad	-0.33552304
134	0xbe1a2934	-0.1505478
135	0xbcbc7e5e	-0.023009475
136	0x3d2945bf	0.04132628
137	0x3ddd9894	0.108201176
138	0xbd878e0d	-0.06618891
139	0xbdda35ae	-0.1065477
140	0xbca0eeec	-0.019645177
141	0x3effc1e5	0.49952617
142	0x3e2fe2df	0.17176388
143	0xbe280e10	-0.16411614
144	0x3dd2bcc1	0.10289908
145	0xbddb904b	-0.10720881
146	0x3d108389	0.03528169
147	0xbeb920b0	-0.3615775
148	0x3ebae199	0.36500242
149	0xbe72aedc	-0.23699516
150	0x3db64300	0.08899498
151	0xbdc6c7e4	-0.09706095
152	0x3d9faf60	0.07797122
153	0xbece9d12	-0.4035421
154	0xbf0ed384	-0.557915
155	0xbbd72304	-0.0065654535
156	0xbd7ddb9d	-0.061977018
157	0x3f192e6f	0.5983648
158	0x3e9b4a1d	0.3032998
159	0xbd0e0d9d	-0.03468095
160	0x3d52fdf2	0.051511712
161	0x3d0bdbf6	0.034145318
162	0x3ce5a247	0.028031481
163	0x3f12a32d	0.57280236
164	0x3dd83b53	0.1055819
165	0x3e6939b2	0.22775915
166	0x3d821303	0.063512824
167	0xbe06ba02	-0.13156894
168	0x3e06a4ca	0.131488
169	0xbe537cf2	-0.20653132
170	0xbbb96491	-0.0056577404
171	0x3c69ae08	0.014262684
172	0x3d1a97f2	0.037742563
173	0xbf3483c3	-0.7051355
174	0x3cc43677	0.023951752
175	0xbcaf2afd	-0.021382803
176	0xbcbacb78	-0.0228021
177	0x3dbbe883	0.091752075
178	0x3f0bb07c	0.5456617
179	0x3c9530ab	0.018211683
180	0xbe4c369d	-0.19942708
181	0xbf2b2504	-0.66853356
182	0x3db9f305	0.090795554
183	0x3dd5c1c1	0.10437346
184	0xbe873a20	-0.26411533
185	0x3e016506	0.12636194
186	0x3c5f20a5	0.013618623
187	0xbe5ee22d	-0.21765967
188	0xbe287f29	-0.16454758
189	0xbf32d28b	-0.69852513
190	0xbd066902	-0.032814987
191	0x3d635b9d	0.05550729
192	0xbdea9c73	-0.114556216
193	0xbe0dba1d	-0.13840528
194	0xbf380b68	-0.71892405
195	0x3df618f6	0.1201648
196	0x3dc6c325	0.097051896
197	0x3f0a4f97	0.54027694
198	0x3e411360	0.18855047
199	0xbe631dc2	-0.2217932
200	0xbec0f630	-0.37687826
201	0xbed49751	-0.41521695
202	0xbeefcf97	-0.46838066
203	0xbdf192a1	-0.11795545
204	0xbd6fa1cc	-0.05850391
205	0x3eda590e	0.42646068
206	0x3e1e3732	0.15450743
207	0xbd806f19	-0.0627119
208	0x3e4b3c48	0.19847214
209	0xbb9c36eb	-0.004767289
210	0xbdd2cd78	-0.10293096
211	0xbdf90e65	-0.12160949
212	0x3e35c910	0.1775248
213	0x3ebb049b	0.3652695
214	0x3e105c41	0.14097692
215	0xbe23f0e1	-0.16009857
216	0xbda14610	-0.078746915
217	0xbd4c0322	-0.049807675
218	0x3d162921	0.036660317
219	0x3ed9f0d1	0.4256654
220	0xbe93a025	-0.28833118
221	0xbf6da503	-0.9282991
222	0xbd4698cc	-0.048485562
223	0x3e140e9d	0.144587
224	0x3d2cb92c	0.04216878
225	0x3e8416f3	0.2579876
226	0xbe1e2ee3	-0.15447573
227	0xbd09a35e	-0.033603065
228	0x3d1d0faa	0.038345017
229	0x3f1ff9cc	0.62490535
230	0xbe696fa1	-0.2279649
231	0xbe54eec3	-0.20794205
232	0x3d0619b6	0.032739364
233	0xbe119963	-0.14218669
234	0xbc25ce2e	-0.010119958
235	0xbc4b1990	-0.012396231
236	0xbeb43ce7	-0.35202715
237	0xbeecede6	-0.46275252
238	0xbeca5030	-0.39514303
239	0xbe1cdad4	-0.15317851
240	0x3eef12bb	0.46693978
241	0x3ecc4214	0.39894164
242	0x3f429177	0.7600321
243	0xbd110d72	-0.035413213
244	0x3dc2fcd2	0.09520878
245	0xbf4d0d45	-0.8009837
246	0xbe735d19	-0.23765983
247	0xbc9c591b	-0.019085458
248	0xbe8d2dbe	-0.2757396
249	0xbd8c8eec	-0.06863198
250	0x3e5442e7	0.20728646
251	0x3d229104	0.03968908
252	0x3e247a3b	0.16062252
253	0xbe4888c9	-0.1958343
254	0x3d9023c3	0.07038071
255	0x3e02a423	0.12757926

actor_net.0.bias f4 [64]
0	0x3dc75488	0.0973292
1	0x3d3ab1f2	0.045579858
2	0xbdb3c708	-0.087781966
3	0xbdac87f8	-0.084243715
4	0x3d4654fc	0.04842089
5	0xbd9d58a2	-0.07682921
6	0xbdd6b0b1	-0.1048292
7	0xbdbc3f0f	-0.09191715
8	0x3db4be2c	0.08825335
9	0xbd9c191c	-0.07621977
10	0xbde7c2ed	-0.11316476
11	0xbda800c1	-0.08203269
12	0xbd62d33e	-0.055377237
13	0xbd836a0e	-0.06416713
14	0x3e01b1d3	0.12665491
15	0x3e2a35ec	0.16622132
16	0xbd97d08e	-0.074128255
17	0x3d99d89c	0.07512018
18	0xbcdac150	-0.026703507
19	0x3d233ebc	0.03985475
20	0x3de60c84	0.11232856
21	0xbdbba468	-0.091622174
22	0xbdd06e18	-0.10177249
23	0xbdc8f384	-0.09812072
24	0x3da849f1	0.08217228
25	0x3df5c197	0.11999815
26	0x3d9ae4c9	0.075631686
27	0xbdbea999	-0.09309692
28	0x3dbcb0f0	0.09213436
29	0xbe1f3c53	-0.15550356
30	0xbdcaa81e	-0.09895347
31	0xbd95d8dd	-0.07316754
32	0x3dcfcf85	0.10147003
33	0x3dcb525f	0.099278204
34	0x3cd2333f	0.025659202
35	0x3de00835	0.10939065
36	0xbd9fc3fa	-0.078010514
37	0x3d71a3e9	0.058994208
38	0xbddcb2f1	-0.10776318
39	0xbdf9e5c0	-0.122020245
40	0x3e421a54	0.18955356
41	0x3d985936	0.07438891
42	0xbdc1e555	-0.0946757
43	0x3daba62f	0.083813064
44	0x3de391ca	0.111117914
45	0x3daebfa4	0.08532646
46	0x3d9fea42	0.07808353
47	0xbdd7d131	-0.10537947
48	0x3e1548b8	0.14578521
49	0x3ba6b2a8	0.0050872155
50	0xbd81fb7f	-0.06346797
51	0x3dafe7be	0.08589123
52	0xbded732f	-0.11594235
53	0xbdc213d5	-0.09476439
54	0xbda92807	-0.08259588
55	0x3dba2cb2	0.09090556
56	0xbe1f9a3b	-0.15586178
57	0xbe20073e	-0.15627763
58	0x3dce97bc	0.10087535
59	0xbe10d02f	-0.14141916
60	0xbdc1a350	-0.094549775
61	0x3dafc3fc	0.08582303
62	0xbdbf947e	-0.093544945
63	0x3e64702b	0.22308414

actor_net.2.weight f4 [64, 64]
0	0x3e523fef	0.20532201
1	0x3c418c7d	0.01181328
2	0xbecd4a1c	-0.40095603
3	0xbc6c038a	-0.014405141
4	0x3eab0db3	0.3340889
5	0xbee89607	-0.45426962
6	0xbe3aa193	-0.18225698
7	0x3d9f85bb	0.07789179
8	0x3e8986e0	0.26860714
9	0xbd035ef5	-0.03207298
10	0xbda0281e	-0.07820152
11	0xbe66451a	-0.22487298
12	0xbe32fe59	-0.17479838
13	0xbda60a70	-0.081074595
14	0xbe2387f4	-0.15969831
15	0x3e7bfdc4	0.24608523
16	0x3e733135	0.2374924
17	0xbdef6596	-0.11689298
18	0xbe02f487	-0.12788592
19	0xbddcbd07	-0.107782416
20	0x3e125b06	0.14292535
21	0x3e2123ea	0.15736356
22	0x3d77bc9e	0.060482614
23	0x3d2d5005	0.04231264
24	0x3e870401	0.26370242
25	0xbe3614d0	-0.17781377
26	0xbd9e5453	-0.07730927
27	0xbeab5df9	-0.33470133
28	0xbd64ae40	-0.05583024
29	0x3e4e5040	0.201478
30	0xbdd619c1	-0.10454131
31	0x3e87c087	0.26514074
32	0x3d9730e1	0.0738237
33	0x3d669a32	0.056299396
34	0x3d984ff6	0.07437126
35	0x3c104e9c	0.008807804
36	0x3e42b03b	0.19012539
37	0xbe897424	-0.2684642
38	0xbdbd444b	-0.092415415
39	0xbe68a9b7	-0.22720991
40	0xbea4c0b3	-0.32178268
41	0x3e177f16	0.14794573
42	0xbe8c6384	-0.27419674
43	0xbe2a9669	-0.1665894
44	0xbdb09e8b	-0.0862399
45	0x3e859fb4	0.26098406
46	0x3d9f4b57	0.07778042
47	0xbe378eaf	-0.17925523
48	0x3e819656	0.2531001
49	0x3e62ceeb	0.22149245
50	0x3ca5e34d	0.020249987
51	0x3dceb3fe	0.100929245
52	0x3e0834e6	0.13301429
53	0x3e79bc53	0.24388246
54	0xbe1f4447	-0.1555339
55	0x3d562577	0.052281823
56	0x3db9b4cb	0.09067687
57	0x3d9fd6aa	0.07804616
58	0x3d6901c1	0.05688644
59	0xbeaa69ed	-0.3328394
60	0xbe29a934	-0.16568452
61	0x3e134ca0	0.14384699
62	0x3d9f1fe6	0.07769756
63	0x3e3aea41	0.18253423
64	0xba4a7ea7	-0.0007724561
65	0x3ea28d3d	0.3174838
66	0xbd2fe51b	-0.0429431
67	0x3ecb4f82	0.39709097
68	0x3dd3fb65	0.10350684
69	0xbdb05559	-0.08610029
70	0x3e8af25d	0.27138034
71	0xbd8fc3e9	-0.07019789
72	0x3d3ad342	0.045611627
73	0x3e4e030c	0.2011835
74	0x3d0decc1	0.034649614
75	0x3f103b81	0.56340796
76	0xbc445db1	-0.011985228
77	0xbced8c50	-0.02899757
78	0xbd8dfa4e	-0.069325075
79	0xbead3d29	-0.33835724
80	0x3e8c1d7f	0.27366254
81	0xbdeb2e68	-0.11483461
82	0x3e85e001	0.26147464
83	0xbe81016b	-0.25196394
84	0x3e01ae62	0.12664178
85	0x3dcc72c5	0.09982828
86	0x3e1a02bb	0.15040104
87	0x3e9ed23f	0.3101978
88	0xbe5908fe	-0.21194836
89	0xbe888a9d	-0.26668254
90	0x3e188a8a	0.14896598
91	0x3e47c7ab	0.19509761
92	0xbe03ad62	-0.12859109
93	0xbec1da53	-0.3786188
94	0x3d7d5e49	0.061857495
95	0x3e2014e1	0.15632965
96	0xbd5829e6	-0.052774332
97	0xbdaa21eb	-0.083072506
98	0xbe785f59	-0.24255122
99	0xbe501da8	-0.20323813
100	0x3e412792	0.18862751
101	0x3d25df3c	0.040496096
102	0x3e09a77e	0.134428
103	0x3e3f2cfe	0.18669507
104	0x3b8edf74	0.004360134
105	0x3d6001d6	0.05468925
106	0x3e884501	0.26615146
107	0xbd4b620e	-0.04965406
108	0xbc9c5f2a	-0.019088347
109	0x3e22f5fe	0.15914151
110	0xbe9b786e	-0.30365318
111	0xbdaf4967	-0.08558922
112	0x3e594392	0.21217182
113	0xbdd67f52	-0.10473503
114	0x3e1f6668	0.15566409
115	0x3d82a7d2	0.063796654
116	0x3df465d5	0.119334854
117	0x3df8e84a	0.121536806
118	0xbd4d302f	-0.05009478
119	0xbe44e0be	-0.19226357
120	0x3ce16d52	0.027517948
121	0xbd93a19b	-0.07208558
122	0xbe10a127	-0.14123975
123	0x3f0ac3b6	0.5420488
124	0x3dd2daea	0.10295661
125	0x3e1649ec	0.14676636
126	0xbdd1246a	-0.102120236
127	0xbdcd6fb4	-0.10031071
128	0x3dc5bdf5	0.09655372
129	0x3e23d040	0.1599741
130	0x3d0e0e65	0.034681696
131	0xbd86b01d	-0.0657656
132	0x3e39ee68	0.18157351
133	0xbdffb6d9	-0.12486047
134	0x3e2fa741	0.17153646
135	0xbe0cca56	-0.1374906
136	0x3eb7885e	0.35846227
137	0x3de5e7c5	0.11225847
138	0xbe1d38e9	-0.15353741
139	0xbdb16927	-0.08662634
140	0xbddc8236	-0.10767023
141	0x3c8313f5	0.016000727
142	0x3db4fcc3	0.08837273
143	0x3c7ca658	0.015420519
144	0x3e06343d	0.13105865
145	0x3cd7ab39	0.026326763
146	0xbe03b634	-0.12862474
147	0x3cc960ca	0.024582285
148	0xbe63d32d	-0.22248526
149	0xbcbd3e09	-0.02310087
150	0xbe66f761	-0.22555305
151	0x3e999b2b	0.30001196
152	0x3ed05f76	0.4069783
153	0x3eaf3fc2	0.3422833
154	0xbe26f750	-0.1630528
155	0xbca5f104	-0.020256527
156	0x3e3cfe62	0.18456414
157	0x3dd85056	0.10562198
158	0xbe91e1f2	-0.28492695
159	0xbe8a102c	-0.26965463
160	0x3db02083	0.08599951
161	0x3e7a7908	0.24460232
162	0x3d977b77	0.07396596
163	0x3ecb80f1	0.39746812
164	0x3e3f9bbe	0.18711755
165	0x3d2f23e8	0.042758852
166	0x3e4ef83d	0.20211883
167	0x3dd7934c	0.105261415
168	0x3e82d1b0	0.25550604
169	0x3e3144ba	0.17311373
170	0xbec5f080	-0.3866005
171	0x3eb05a02	0.3444367
172	0x3eb4cdb5	0.35313192
173	0x3e33c6a1	0.1755624
174	0x3eb52037	0.3537614
175	0xbdc9bc0d	-0.09850321
176	0xbe096b82	-0.13419917
177	0x3d99c760	0.07508731
178	0xbbb755d7	-0.0055949497
179	0x3d8b0008	0.06787115
180	0x3c71ba63	0.014753911
181	0x3e077a1a	0.13230172
182	0xbd25d518	-0.040486425
183	0x3d9b0056	0.075684234
184	0xbd120330	-0.03564757
185	0xbe08b84b	-0.13351552
186	0x3e46b728	0.19405806
187	0xbd94c7b6	-0.07264654
188	0x3e8b5c85	0.27219024
189	0x3e41c9b8	0.18924606
190	0xbe623eb7	-0.22094236
191	0x3eddb6a0	0.43303394
192	0xbe6e54f8	-0.232746
193	0xbd59f7ce	-0.05321484
194	0x3cceef1d	0.025260502
195	0xbdefdf8c	-0.1171256
196	0x3d0e0ee3	0.034682166
197	0x3e0fdfa1	0.14050151
198	0x3e147a2f	0.14499734
199	0xbd391ec4	-0.045195356
200	0xbebf31f7	-0.37342808
201	0x3dc69228	0.09695846
202	0x3cb6b560	0.022303283
203	0x3e4ab02e	0.1979377
204	0x3e0823eb	0.13294952
205	0x3e2422db	0.16028921
206	0xbe67c1aa	-0.2263247
207	0xbee780a4	-0.45215333
208	0x3e2d8a72	0.16947344
209	0x3e819397	0.25307915
210	0xbe337003	-0.17523198
211	0xbe7f799d	-0.24948736
212	0xbe9da04f	-0.30786368
213	0x3ce7289b	0.028217604
214	0x3ed518b5	0.41620412
215	0x3cbfde28	0.023421362
216	0x3a4bd03b	0.0007774864
217	0xbec51914	-0.38495696
218	0xbe911eb9	-0.28343752
219	0x3d0519c1	0.032495264
220	0x3ac24f3e	0.0014824641
221	0xbe884592	-0.26615578
222	0x3ee62e7b	0.44957337
223	0x3d9cc3f6	0.07654564
224	0x3e996c2a	0.29965335
225	0xbe847ad4	-0.2587496
226	0x3da034bb	0.078225575
227	0xbce1c8f9	-0.027561652
228	0x3ed0362f	0.4066634
229	0xbdb38bc0	-0.087668896
230	0xbe8740fe	-0.26416773
231	0x3de71773	0.112837695
232	0xbec04e74	-0.37559855
233	0xbdcb537f	-0.09928035
234	0x3e137710	0.14400887
235	0x3d324be7	0.043529417
236	0x3e95b4ef	0.29239604
237	0xbde6b33d	-0.11264656
238	0xbdf7a121	-0.1209128
239	0x3e5bdada	0.21470204
240	0xbe9173fd	-0.28408805
241	0xbdf4260d	-0.1192132
242	0x3e423306	0.18964776
243	0xbe7361c9	-0.23767771
244	0xbbee9c3d	-0.0072818086
245	0x3e0a6c64	0.1351791
246	0x3e2d7ac9	0.1694137
247	0x3dc6ec53	0.09713044
248	0x3e75245b	0.2393965
249	0x3e256b64	0.16154248
250	0xbc3ae214	-0.01140644
251	0x3ebfb8ab	0.37445578
252	0xbc5229dc	-0.012827363
253	0xbe10ff0c	-0.14159793
254	0xbbf7eb44	-0.0075658876
255	0x3def7c7e	0.11693667

actor_net.2.bias f4 [64]
0	0x3df71974	0.12065402
1	0xbdc822f5	-0.097722925
2	0x3de4dec4	0.11175302
3	0xbdc4bb1f	-0.09606003
4	0xbde6dec1	-0.11272956
5	0x3dd06dba	0.10177179
6	0x3e7d1ce7	0.24718057
7	0xbdf1a273	-0.11798563
8	0xbdac6542	-0.08417751
9	0x3de70c64	0.1128166
10	0x3de4faa3	0.11180618
11	0xbea71cf8	-0.3263929
12	0x3dc8879d	0.09791491
13	0x3e06509a	0.13116685
14	0xbdafd6d0	-0.08585894
15	0xbdce18bb	-0.10063311
16	0x3d3795ee	0.04482072
17	0xbdbbc8cb	-0.091691576
18	0xbdd67ed5	-0.1047341
19	0x3e697d58	0.22801721
20	0xbe6f6d96	-0.23381647
21	0x3dbff96c	0.09373745
22	0xbe20adf6	-0.15691361
23	0x3dda3780	0.10655117
24	0x3da88e07	0.082302146
25	0xbde937df	-0.1138761
26	0x3dabf3fa	0.08396144
27	0xbde28627	-0.11060744
28	0xbe15cba4	-0.14628464
29	0x3e1188c8	0.14212334
30	0xbeaad489	-0.33365276
31	0x3dc678dc	0.09691021
32	0x3dac2769	0.084059544
33	0x3dcde8d9	0.10054178
34	0x3dd157a5	0.10221795
35	0x3de57571	0.11204041
36	0xbdaca6b4	-0.084302336
37	0xbdfd6bc9	-0.12374074
38	0x3e0e49ae	0.13895294
39	0x3ded9f7e	0.11602686
40	0x3dd40175	0.103518404
41	0x3dcce9f2	0.10005559
42	0x3dd3f03b	0.10348555
43	0xbdc2d2de	-0.09512876
44	0xbe045d13	-0.1292613
45	0x3e6a1835	0.22860797
46	0xbdd1e9be	-0.10249661
47	0x3e09adcf	0.13445209
48	0xbe8df8c0	-0.27728844
49	0x3de1cbba	0.11025186
50	0x3dde8d40	0.10866785
51	0x3e0f9849	0.14022936
52	0x3dd44954	0.10365549
53	0xbe0dfd36	-0.13866124
54	0x3e3deb42	0.18546775
55	0xbe045acf	-0.12925266
56	0xbdd594ca	-0.1042877
57	0xbe05a4d7	-0.13051163
58	0x3db660f5	0.08905212
59	0x3ddda698	0.10822791
60	0xbdee816f	-0.11645781
61	0x3df8ccb4	0.12148419
62	0x3ddb0f62	0.106962934
63	0x3dbf31c6	0.093356654

actor_mean.weight f4 [1, 64]
0	0xbe0564ac	-0.13026685
1	0x3e110a46	0.14164075
2	0xbe5f339e	-0.21797034
3	0x3e82fd16	0.25583714
4	0x3e5c8acd	0.21537323
5	0xbe907a5a	-0.28218347
6	0xbde9e72f	-0.11421048
7	0x3ebc54e5	0.3678352
8	0x3e3f787d	0.18698306
9	0xbe122fb6	-0.14276013
10	0xbe1f06cf	-0.15529941
11	0x3df861d5	0.12128035
12	0xbe9afffc	-0.30273426
13	0xbe92c35a	-0.28664666
14	0x3e88fa54	0.26753485
15	0x3de4a25c	0.1116378
16	0xbe334d72	-0.17510012
17	0x3e8c4fee	0.27404732
18	0x3eb369a2	0.3504153
19	0xbdf55360	-0.11978793
20	0x3db3dabc	0.08781955
21	0xbdfc0b05	-0.12306789
22	0x3e115e4b	0.14196126
23	0xbe7769c6	-0.24161443
24	0xbea5e707	-0.32402822
25	0x3e65330e	0.22382757
26	0xbe6a7ee1	-0.22899963
27	0x3ea32121	0.31861213
28	0x3e049c48	0.12950242
29	0xbddf00ed	-0.108888485
30	0x3db53f1f	0.0884993
31	0xbe52af94	-0.2057479
32	0xbe540bac	-0.20707577
33	0xbe8e1601	-0.27751163
34	0xbe9d52dc	-0.3072728
35	0xbe2188dc	-0.15774864
36	0x3e293689	0.1652471
37	0x3d89dbc6	0.067313716
38	0xbe0547e5	-0.13015707
39	0xbe8c8e79	-0.27452448
40	0xbea5236e	-0.32253593
41	0xbe95c958	-0.29255176
42	0xbea984f9	-0.33109263
43	0x3e760c93	0.24028234
44	0x3e0923ea	0.13392606
45	0xbde6082b	-0.11232027
46	0x3ea309b4	0.3184334
47	0xbdd3b06e	-0.10336386
48	0x3de3b0c3	0.11117699
49	0xbecc9055	-0.39953867
50	0xbee57ad7	-0.44820282
51	0xbe0f45fc	-0.1399154
52	0xbe4748b0	-0.19461322
53	0x3dfe5eef	0.12420451
54	0xbdead250	-0.11465895
55	0x3e94058c	0.28910482
56	0x3e3c1a27	0.18369351
57	0x3e068746	0.1313754
58	0xbea7552e	-0.32682174
59	0xbe837004	-0.256714
60	0x3e8ee0e1	0.27905944
61	0xbed514e6	-0.41617507
62	0xbe4c2b64	-0.19938427
63	0xbdd0bfc6	-0.10192828

critic_net.0.weight f4 [64, 8]
0	0x3da71cc2	0.08159782
1	0x3d3f1d60	0.046658874
2	0x3db21496	0.08695333
3	0xb9dd3358	-0.0004219066
4	0x3e0613b8	0.1309346
5	0x3f8bd936	1.0925663
6	0x3e09e871	0.13467576
7	0xbe02592e	-0.12729332
8	0xbd2136dd	-0.039358962
9	0xbeed18f3	-0.46308097
10	0xbdb8b2ea	-0.090185
11	0x3d4f0bf0	0.050548494
12	0xbf4d7277	-0.80252784
13	0xbf86b79e	-1.0524786
14	0xbcca731d	-0.024713093
15	0xbf21d3e1	-0.63213927
16	0x3e9fe330	0.31228018
17	0x3dad499d	0.08461306
18	0x3ee81af8	0.45333076
19	0xba5158b0	-0.0007985933
20	0xbe6f5571	-0.23372437
21	0xbe2f49af	-0.17117952
22	0xbe84c7c8	-0.2593367
23	0x3e1ef064	0.15521389
24	0x3ee54a15	0.44783083
25	0x3ece10c8	0.40247178
26	0x3f01cb83	0.5070116
27	0xbde4b0c3	-0.11166527
28	0xbecfd042	-0.40588576
29	0xbe88562c	-0.26628244
30	0x3e7f03d2	0.24903801
31	0xbea71015	-0.32629457
32	0x3de2c6e0	0.11073089
33	0x3e2cbb6b	0.1686837
34	0x3dfe4a74	0.124165446
35	0x3dae800a	0.08520515
36	0x3e6f390c	0.23361605
37	0x3f5b06dd	0.8555735
38	0x3e3c7655	0.18404515
39	0x3ebf53d5	0.37368646
40	0x3eab2587	0.3342707
41	0x3dcceb5a	0.10005827
42	0x3d53ca16	0.051706396
43	0xbd9e0517	-0.077158146
44	0xbf77e42b	-0.9683253
45	0xbd3046ea	-0.04303638
46	0xbe327d3c	-0.17430586
47	0xbe0103c0	-0.12599087
48	0x3dafa2ca	0.085759714
49	0x3e0ad927	0.135594
50	0x3e2de318	0.1698116
51	0x3d8948f1	0.067033656
52	0xbf7fcd93	-0.99923056
53	0x3d3c18b9	0.045922015
54	0xbd9f2754	-0.07771173
55	0xbe10c588	-0.14137852
56	0x3d06ef89	0.032943282
57	0xbe540ddb	-0.2070841
58	0xbdf04eb6	-0.11733763
59	0xbe90e27b	-0.2829779
60	0xbe86a4b0	-0.26297522
61	0xbf810fe6	-1.0082977
62	0xbdabc3a4	-0.08386925
63	0xbdf90fbb	-0.121612035
64	0x3f032bdc	0.512388
65	0x3e52e8fe	0.20596692
66	0x3d61baa2	0.055109628
67	0xbdb79fdd	-0.089660384
68	0xbe82e701	-0.25566867
69	0xbf2c26ab	-0.672465
70	0x3ed7a604	0.42118847
71	0x3e4da7c1	0.20083524
72	0xbe11c480	-0.14235115
73	0x3e9271c6	0.28602427
74	0xbcf46a21	-0.029835762
75	0x3d6ec54c	0.058293626
76	0xbe94d45e	-0.29068273
77	0x3fa26df1	1.2689801
78	0xbf4de42b	-0.8042628
79	0xbd9fc22e	-0.07800709
80	0x3d459c7f	0.04824495
81	0xbe92cc53	-0.28671512
82	0xbe4e4ef2	-0.20147303
83	0xbe80d24f	-0.25160453
84	0xbf2c4497	-0.6729216
85	0xbf884a53	-1.0647682
86	0xbe494e75	-0.19658835
87	0xbe023620	-0.1271596
88	0xbf01ecbf	-0.5075187
89	0xbec6f1f0	-0.3885646
90	0xbf241feb	-0.641112
91	0xbe9ce7e6	-0.30645674
92	0x3eb48dfb	0.35264573
93	0x3f408091	0.75196177
94	0x3e9e676f	0.3093829
95	0x3d4c5eb8	0.04989502
96	0x3ecdcd32	0.40195614
97	0x3f00350b	0.5008094
98	0x3de49a06	0.1116219
99	0x3cb7c814	0.022434272
100	0xbeb9ff3d	-0.36327544
101	0xbf1c60c3	-0.61085147
102	0xbdfa01a7	-0.122073464
103	0x3de6cee9	0.11269934
104	0x3e667f86	0.22509584
105	0x3ecaf4e1	0.39639953
106	0x3ebf2da5	0.37339512
107	0xbe2853cf	-0.1643822
108	0xbdf72be8	-0.12068921
109	0xbf58fda9	-0.84762055
110	0x3e86aa0c	0.2630161
111	0x3bbf5a29	0.0058396054
112	0xbaa316ad	-0.0012442671
113	0x3cd3b011	0.025840791
114	0xbc2e33e2	-0.010632487
115	0x3e6470af	0.2230861
116	0xbf25bba8	-0.64739466
117	0x3f817c5f	1.011608
118	0xbea920e1	-0.33032897
119	0xbe1798ed	-0.1480443
120	0x3e4e6016	0.20153841
121	0x3e3e877f	0.18606375
122	0xbdaba81a	-0.08381672
123	0xbec88956	-0.3916728
124	0xbe98f76e	-0.29876274
125	0xbe10ea92	-0.14151981
126	0xbe26a83a	-0.16275111
127	0xbe25580c	-0.16146868
128	0xbda95b25	-0.082693376
129	0xbf321564	-0.6956389
130	0xbeb29b9c	-0.34884346
131	0xbc7ffe07	-0.01562453
132	0x3eee5c82	0.46554953
133	0x3f3a03a4	0.72661805
134	0x3e5a3722	0.21310094
135	0xbdbc16ac	-0.09184012
136	0xbeb7d074	-0.35901225
137	0xbf37db55	-0.7181905
138	0xbf0001e3	-0.5000288
139	0x3e02c73c	0.12771314
140	0x3eee78ab	0.46576437
141	0x3f29c634	0.6631806
142	0x3e16a010	0.14709496
143	0xbd1c3bda	-0.038143016
144	0xbd4004be	-0.046879523
145	0xbe0c94ec	-0.13728684
146	0xbe28da05	-0.16489418
147	0xbba2b2b5	-0.004965151
148	0xbf1f18c4	-0.62147164
149	0xbfa1b0b1	-1.2632047
150	0x3d697b23	0.057002198
151	0x3cbdb638	0.023158178
152	0xbd9fa718	-0.077955425
153	0xbec68412	-0.38772637
154	0xbeea2907	-0.45734426
155	0x3e08b6ef	0.13351034
156	0xbd396ebe	-0.045271628
157	0x3f45c607	0.7725529
158	0xbe033597	-0.12813412
159	0xbcf9c2af	-0.03048834
160	0xbf078a0e	-0.5294503
161	0xbec1d690	-0.3785901
162	0xbe372b59	-0.1788763
163	0xbef2611c	-0.47339714
164	0x3df50053	0.119629525
165	0x3ecd0605	0.40043655
166	0x3e92e4e9	0.2869027
167	0x3d2f0cfd	0.042736996
168	0xbe77cd87	-0.24199496
169	0x3e889269	0.26674202
170	0xbe165b71	-0.1468332
171	0x3c951a79	0.0182011
172	0x3e375b3b	0.17905895
173	0xbfa32b4c	-1.2747588
174	0xbdc158d8	-0.09440774
175	0x3e52b5f1	0.20577218
176	0xbf173602	-0.59066784
177	0xbea84136	-0.32862252
178	0xbf140226	-0.5781578
179	0xbdbb0892	-0.09132494
180	0x3e5b6552	0.2142537
181	0x3f141837	0.5784945
182	0x3de12b05	0.109945334
183	0x3e820aba	0.2539881
184	0x3e508333	0.20362549
185	0xbe60dc1a	-0.21958962
186	0x3ec186b6	0.3779809
187	0xbe695117	-0.2278484
188	0xbe399e6a	-0.18126836
189	0x3f1e0ae0	0.61735344
190	0xbef966b2	-0.48711163
191	0xbe3a16ee	-0.1817281
192	0xbeaa83be	-0.33303636
193	0xbdfb7514	-0.1227819
194	0xbea41302	-0.32045752
195	0x3e0d81f2	0.13819101
196	0x3e6040b8	0.21899688
197	0x3f5dd93d	0.86659604
198	0x3e1fa9ed	0.15592165
199	0xbe7af5d2	-0.24507836
200	0xbcc0b158	-0.023522064
201	0x3d8b792e	0.068102226
202	0x3e18e968	0.14932787
203	0x3e164b9b	0.14677279
204	0x3d878cf3	0.06618681
205	0x3f664080	0.8994217
206	0xbf838ad7	-1.0276746
207	0xbe2302e5	-0.15919073
208	0x3e3863e9	0.18006863
209	0xbe0a58fc	-0.13510507
210	0x3e2fb15e	0.17157504
211	0x3e3c0b11	0.18363596
212	0x3e56f563	0.20992045
213	0x3f8cb7ae	1.0993555
214	0x3d4ae486	0.049534343
215	0xbe3e4dcb	-0.18584363
216	0x3f095484	0.53644586
217	0x3f22f49a	0.6365448
218	0x3effb497	0.49942467
219	0x3bc18242	0.0059054205
220	0xbec0905e	-0.37610143
221	0xbf0f7a78	-0.5604625
222	0xbecc4938	-0.3989961
223	0x3e3bf7c0	0.18356228
224	0xbe8e60fd	-0.2780837
225	0x3d6d8f92	0.057998247
226	0x3c3415d2	0.0109915305
227	0x3daa9672	0.083294764
228	0xbbef87d9	-0.0073098955
229	0xbf194084	-0.5986407
230	0x3f4a4119	0.7900558
231	0xbe7f9ab8	-0.24961364
232	0x3ecfd290	0.40590334
233	0x3d3f93b0	0.046771705
234	0x3e64006a	0.22265783
235	0x3e2a15f6	0.1660994
236	0xbdcf1574	-0.10111514
237	0xbe94ced0	-0.29064035
238	0xbe575a9b	-0.21030657
239	0x3e237ea0	0.15966272
240	0x3cf262d1	0.029588135
241	0x3e783214	0.24237853
242	0x3d3a7241	0.045519117
243	0xbe146f7e	-0.14495656
244	0x3f93d003	1.1547855
245	0x3f5dbee2	0.8661939
246	0xbed459d2	-0.41474777
247	0xbe625fc7	-0.22106849
248	0xbdbbf0a2	-0.091767564
249	0x3e89061e	0.2676248
250	0x3e5383b0	0.20655704
251	0xbe213fa7	-0.15746938
252	0x3f1cd13c	0.61256766
253	0x3f85c184	1.0449681
254	0x3e024199	0.12720336
255	0xbe492dda	-0.19646397

critic_net.0.bias f4 [64]
0	0x3e392155	0.18079121
1	0xbea3f954	-0.3202616
2	0xbe133e56	-0.14379248
3	0xbe88d1fe	-0.2672271
4	0x3e8c187d	0.27362433
5	0xbd8e1430	-0.06937444
6	0xbdde0846	-0.10841422
7	0xbe915f8d	-0.28393212
8	0xbee47b28	-0.4462521
9	0x3e89a431	0.2688308
10	0xbe8b5453	-0.27212772
11	0x3e0ac9cc	0.13553542
12	0xbe563e1f	-0.20922135
13	0xbe8f69c3	-0.28010377
14	0x3e5ed6f8	0.21761692
15	0xbe02208f	-0.12707733
16	0x3e1f7c46	0.1557475
17	0x3e6409e5	0.222694
18	0xbe4f9f26	-0.20275554
19	0x3e849567	0.25895235
20	0x3e157fef	0.14599584
21	0xbe544700	-0.2073021
22	0x3e31be87	0.17357837
23	0x3e932b42	0.2874394
24	0x3e2af45b	0.16694777
25	0x3ea9a71d	0.3313531
26	0x3e41b0af	0.18915056
27	0xbdda3d09	-0.10656173
28	0xbe4cc2e0	-0.19996214
29	0xbe13b133	-0.14423065
30	0x3e47d305	0.19514091
31	0x3e2f39d3	0.17111902
32	0xbe376210	-0.17908502
33	0xbe578f89	-0.21050848
34	0x3cff94bf	0.031198857
35	0xbe8e0b9d	-0.27743235
36	0x3e2410b6	0.16022
37	0xbb601cb7	-0.0034196803
38	0xbe659e8a	-0.22423759
39	0x3e954f9f	0.2916231
40	0xbe36271a	-0.17788354
41	0x3e1134fb	0.14180367
42	0xbe42a759	-0.1900915
43	0x3e6064b4	0.21913415
44	0x3e89f377	0.2694356
45	0xbe355668	-0.17708743
46	0x3e38a26f	0.18030713
47	0xbe708bcc	-0.23490828
48	0xbd1365a5	-0.035985608
49	0x3d28c05f	0.041199084
50	0x3e45651b	0.1927685
51	0x3d16fddc	0.036863193
52	0xbe919804	-0.2843629
53	0xbe6bc8c9	-0.23025812
54	0x3e5ff6f1	0.21871544
55	0x3e56d308	0.2097894
56	0x3e83d10d	0.2574543
57	0x3e8d1df5	0.27561918
58	0xbda1be64	-0.07897642
59	0xbda16c9f	-0.07882046
60	0xbe81bcee	-0.25339454
61	0x3e379098	0.17926252
62	0xbe525564	-0.20540386
63	0x3d4d0414	0.050052717

critic_net.2.weight f4 [64, 64]
0	0xbd4d84f4	-0.050175622
1	0x3d6b92c9	0.057513032
2	0x3ec02720	0.3752985
3	0x3ed00312	0.40627342
4	0x3e485b6b	0.19566123
5	0x3ea66591	0.32499364
6	0x3ef2f798	0.47454524
7	0x3de3fa2d	0.111317016
8	0x3ecd0cd8	0.40048862
9	0xbe97944f	-0.29605338
10	0x3da31373	0.07962694
11	0xbeba06bb	-0.3633326
12	0x3ef92ada	0.48665506
13	0x3e0f2a47	0.13980971
14	0xbe5e15d4	-0.21688014
15	0x3ef083e3	0.46975622
16	0xbf80e96b	-1.0071234
17	0xbedad6cc	-0.42742002
18	0xbc8982a0	-0.01678592
19	0xbe55fcf5	-0.20897277
20	0xbf059bb8	-0.5219073
21	0x3e3395d7	0.17537628
22	0xbec2c181	-0.38038257
23	0x3e82d0eb	0.25550017
24	0xbed9a3f3	-0.42507896
25	0xbd74083f	-0.059578177
26	0xbdff6ff5	-0.12472526
27	0x3f03a260	0.5141964
28	0xbbe7f377	-0.007078584
29	0x3ec50de7	0.3848717
30	0xbe021119	-0.12701835
31	0x3e8a7d7f	0.2704887
32	0x3f897394	1.0738397
33	0x3f24fa61	0.6444455
34	0xbcfbac02	-0.030721668
35	0x3f1306bc	0.5743215
36	0xbf1542bc	-0.58304954
37	0x3f00499b	0.50112313
38	0x3f953212	1.1655905
39	0xbe527828	-0.20553648
40	0x3f39ed02	0.7262727
41	0x3dc12340	0.094305515
42	0x3f096c4b	0.53680867
43	0xbf431172	-0.76198494
44	0xbe8678c6	-0.26264018
45	0x3e908072	0.28222996
46	0xbd0fba86	-0.035089992
47	0x3ea3b3dd	0.31973162
48	0xbe4eac9e	-0.20183036
49	0xbd6aadfd	-0.057294834
50	0xbd8f1ea5	-0.06988267
51	0xbd0636c5	-0.032767076
52	0x3eb3be15	0.3510596
53	0xbe36461e	-0.17800185
54	0xbef8eb7e	-0.48617166
55	0xbd02c331	-0.03192443
56	0xbf37a6d6	-0.71738946
57	0xbea7c319	-0.32766035
58	0x3dc569a3	0.09639289
59	0xbf02e6b9	-0.51133305
60	0x3e9f8f97	0.31164238
61	0x3d6edece	0.05831795
62	0x3e3af87e	0.18258855
63	0xbdda0afb	-0.106466256
64	0xbef81941	-0.48456767
65	0x3f4a4c0a	0.79022276
66	0x3cb0dd93	0.02159003
67	0xbdf817b7	-0.12113898
68	0xbec92ecc	-0.39293516
69	0x3e9b83b2	0.30373913
70	0xbd8f2f71	-0.069914706
71	0x3ea6e76a	0.3259843
72	0xbe61aa07	-0.22037517
73	0x3d40a8ac	0.047035858
74	0x3f2eb502	0.68244946
75	0x3eb462b5	0.35231557
76	0xbe84a23a	-0.2590502
77	0xbe69b6d5	-0.22823651
78	0xbe3ae431	-0.1825111
79	0x3ec69e09	0.38792446
80	0xbc08f502	-0.008359196
81	0xbd27026a	-0.040773787
82	0x3e561f1f	0.2091031
83	0x3efba81d	0.49151698
84	0x3d4f149e	0.05055677
85	0x3e951423	0.29116926
86	0xbe77a98c	-0.24185771
87	0x3e1d0a2e	0.15335914
88	0x3ecc66d4	0.39922202
89	0x3eab812a	0.33496982
90	0xbf29c03b	-0.66308945
91	0x3ceee2fe	0.029160973
92	0xbe52ae5e	-0.20574328
93	0xbd481419	-0.04884729
94	0xbe2cc0fb	-0.16870491
95	0xbe99e5ae	-0.30058044
96	0xbd942eaf	-0.07235467
97	0xbdb09bf8	-0.08623499
98	0xbedcf579	-0.4315603
99	0x3c8dc6b8	0.01730667
100	0xbe59637c	-0.21229357
101	0x3dc7a4c8	0.097482264
102	0xbd8648fa	-0.06556888
103	0xbe9985f9	-0.29985026
104	0x3cff1970	0.03114006
105	0xbed9dab3	-0.42549667
106	0xbd83d2eb	-0.06436714
107	0xbf10c6d8	-0.5655341
108	0x3e69b0a0	0.22821283
109	0x3dbab4e2	0.09116532
110	0xbd18afa9	-0.037276898
111	0x3ed37645	0.4130117
112	0xbe8cab57	-0.27474472
113	0xbe80b6dc	-0.2513951
114	0x3e8ce6e6	0.27519912
115	0x3d7907df	0.060798522
116	0x3d8a511b	0.06753751
117	0xbe67e511	-0.22645976
118	0xbf12ae19	-0.572969
119	0xbedffc40	-0.4374714
120	0x3d3166fa	0.043311097
121	0xbe827a00	-0.25483704
122	0xbe9b2061	-0.3029814
123	0x3dad03f7	0.08448022
124	0x3f034ae6	0.5128616
125	0xbf157c19	-0.58392483
126	0x3e513812	0.20431545
127	0x3ebcc445	0.36868492
128	0x3efaab63	0.48958883
129	0xbeffdceb	-0.49973235
130	0x3e30f5cf	0.17281269
131	0x3cbf9a69	0.023389058
132	0x3da8ce5d	0.08242486
133	0xbd984c68	-0.07436448
134	0xbe843b0e	-0.25826305
135	0xbe5cfb57	-0.21580254
136	0x3cb51043	0.02210248
137	0x3ee3ae4f	0.44468924
138	0xbeaec5d5	-0.3413531
139	0x3e8a0f84	0.26964962
140	0x3e865bd6	0.2624194
141	0xbe439530	-0.1909988
142	0xbe4b6b47	-0.19865142
143	0xbe3e9d8b	-0.18614785
144	0x3da8f15c	0.08249161
145	0xbdb166ee	-0.086622104
146	0xbec914a4	-0.3927356
147	0x3e454877	0.19265924
148	0x3e7a7596	0.24458918
149	0xbe7c3b6d	-0.24632044
150	0x3e855734	0.26043093
151	0x3e67f8de	0.22653529
152	0x3d20485c	0.039131507
153	0x3e8a0e53	0.26964054
154	0x3e85f818	0.26165843
155	0xbdd60d87	-0.10451799
156	0x3d8a7061	0.06759716
157	0x3d07fbda	0.03319917
158	0xbd975149	-0.07388551
159	0x3f0d3855	0.5516408
160	0xbde6fe57	-0.1127898
161	0xbe0b19e7	-0.135841
162	0x3ea4ed0f	0.3221211
163	0xbdb8c66c	-0.09022221
164	0xbcaea0af	-0.021316854
165	0x3d3c62eb	0.045992773
166	0xbcab3d90	-0.020903379
167	0x3efbbbda	0.49166757
168	0xbd91dbe6	-0.071220204
169	0x3ee84a0e	0.45369
170	0xbcd4c028	-0.025970533
171	0x3e8af39f	0.27138993
172	0x3e10cec8	0.14141381
173	0x3e969990	0.29414034
174	0xbe65ba72	-0.22434404
175	0xbf04ba6d	-0.51846963
176	0x3e09ff9e	0.13476416
177	0xbe4ab13f	-0.19794177
178	0x3e542451	0.20716979
179	0x3eac3330	0.33632803
180	0xbea97c60	-0.33102703
181	0xbe01a0a5	-0.12658937
182	0x3ebd256d	0.36942616
183	0x3e772520	0.24135256
184	0x3e0c22f7	0.13685213
185	0xbe90f9bc	-0.28315532
186	0x3d1a3b3e	0.037654154
187	0x3dfbcc6b	0.12294849
188	0xbcf0c636	-0.02939139
189	0xbea74781	-0.3267174
190	0xbeac3076	-0.33630723
191	0x3dd5ee28	0.10445815
192	0x3ecb61f2	0.39723164
193	0xbf1c654f	-0.61092085
194	0xbf1611af	-0.58620733
195	0xbe7d0fed	-0.24713106
196	0x3ec6cc8e	0.38827938
197	0xbe7de2ec	-0.24793595
198	0xbe6d6855	-0.23184331
199	0x3d7a1313	0.061053347
200	0xbcc26a26	-0.023732256
201	0x3dd101ce	0.10205422
202	0xbe0b485b	-0.1360182
203	0x3e5d41fc	0.21607202
204	0x3d214b66	0.039378546
205	0xbd600f17	-0.05470189
206	0xbdffdcf6	-0.12493317
207	0xbe9cb620	-0.306077
208	0x3e2d7845	0.1694041
209	0x3dd63d16	0.1046087
210	0xbf014322	-0.5049306
211	0xbdc3dddf	-0.09563803
212	0x3d907856	0.07054202
213	0xbec6c8c9	-0.38825062
214	0xbd9b9c9a	-0.07598229
215	0xbbef7289	-0.007307355
216	0x3ce87440	0.028375745
217	0xbe208194	-0.1567443
218	0x3ec3edfc	0.38267505
219	0xbe8c80e7	-0.27442095
220	0xbdf036ac	-0.11729178
221	0xbdd92112	-0.10602011
222	0x3d0275b3	0.031850528
223	0x3ee26bef	0.44222972
224	0x3e6401c6	0.22266302
225	0xbec23f24	-0.37938797
226	0x3dd1acf6	0.10238068
227	0xbe024cc1	-0.12724592
228	0xbdcf738a	-0.10129459
229	0x3de8020f	0.11328518
230	0xbd9c94df	-0.076455824
231	0x3f11624b	0.5679061
232	0x3e0bd2d6	0.13654646
233	0x3e317479	0.17329587
234	0x3e480beb	0.19535796
235	0xbd352ea8	-0.044233948
236	0xbd51fb56	-0.051265083
237	0x3e6e7515	0.23286851
238	0x3e2482f2	0.16065577
239	0xbe7cf855	-0.24704106
240	0xbd0066c7	-0.031348016
241	0xbe92182d	-0.2853407
242	0xbbb9b651	-0.0056674858
243	0x3ee05c93	0.4382063
244	0xbe65126d	-0.2237031
245	0x3d2795a5	0.040914197
246	0x3ed9a57a	0.4250906
247	0x3ec41011	0.38293508
248	0xbd42a651	-0.047521893
249	0x3eeb247b	0.4592627
250	0xbdc3e152	-0.09564461
251	0xbea49fc2	-0.32153136
252	0xbf007cb1	-0.50190264
253	0x3e8cb5c7	0.27482435
254	0xbec6f243	-0.38856706
255	0x3c053d0f	0.008132233

critic_net.2.bias f4 [64]
0	0xbe687c1b	-0.22703592
1	0xbec8c706	-0.39214343
2	0x3e660d50	0.22466016
3	0x3e89d80b	0.2692264
4	0x3e494531	0.196553
5	0x3e4282f6	0.1899527
6	0x3e3882e8	0.18018687
7	0xbdee1582	-0.11625196
8	0xbe3f3be8	-0.18675196
9	0x3e6dd210	0.23224664
10	0xbdf7e872	-0.12104882
11	0xbde76c90	-0.113000035
12	0xbe0e19c8	-0.13877022
13	0xbe34585b	-0.1761183
14	0xbe074c40	-0.13212681
15	0x3e525dc9	0.20543589
16	0x3ddcfaa6	0.10789995
17	0x3e17f3e9	0.14839138
18	0x3ea16d12	0.31528527
19	0x3e1b4cf3	0.15166073
20	0xbe51b69a	-0.20479813
21	0xbe928ee8	-0.28624654
22	0x3ea71c33	0.32638702
23	0x3e56168a	0.20907035
24	0xbeb46c95	-0.35239092
25	0x3e78f2e6	0.24311408
26	0x3e81c6a6	0.2534687
27	0x3e6c5425	0.23078974
28	0xbe0a1c00	-0.13487244
29	0xbdc4cc9b	-0.09609338
30	0xbe5f0cb8	-0.21782196
31	0x3dbc1ace	0.091848
32	0xbe9d1479	-0.30679682
33	0xbe5bfde5	-0.21483572
34	0xbe98f1b0	-0.29871893
35	0x3dc2f8bb	0.09520098
36	0xbe8b6f9e	-0.27233595
37	0xbe208805	-0.15676887
38	0xbe8da88d	-0.27667657
39	0x3deaf834	0.11473122
40	0x3dc34107	0.09533887
41	0x3e50805e	0.20361468
42	0xbe5ad56d	-0.21370478
43	0xbe2ed0d6	-0.17071852
44	0xbde7c81a	-0.11317463
45	0xbe5af0ac	-0.21380872
46	0xbe934de6	-0.2877037
47	0x3ec6504c	0.38733137
48	0xbe0ae12b	-0.13562457
49	0xbe08d91d	-0.13364072
50	0xbe8fefbb	-0.28112587
51	0x3e12a5a0	0.14320993
52	0xbe3531c8	-0.17694771
53	0x3e247bd9	0.16062869
54	0x3eb5d3c3	0.35513124
55	0x3e5ab984	0.21359831
56	0xbe7c1a9d	-0.24619527
57	0x3eac34fa	0.33634168
58	0xbe3439d6	-0.17600188
59	0xbe8a49d9	-0.27009466
60	0x3e2026c0	0.15639782
61	0x3e81f0f8	0.25379157
62	0xbe3f2c5f	-0.1866927
63	0x3e1f64b4	0.15565759

critic_head.weight f4 [1, 64]
0	0x3f45dd2d	0.7729061
1	0x3f017fc2	0.5058557
2	0xbf384fac	-0.7199657
3	0xbf255849	-0.6458784
4	0xbf45a79b	-0.7720887
5	0xbf73ee16	-0.95285165
6	0xbf6b7a31	-0.91983324
7	0x3f6a9140	0.91627884
8	0x3f87b576	1.0602252
9	0xbf61c013	-0.88183707
10	0x3f42e86a	0.76135886
11	0x3f1932fd	0.59843427
12	0x3f4089b4	0.7521012
13	0x3f823f3d	1.0175549
14	0x3f145283	0.579384
15	0xbf2b0bcc	-0.66814876
16	0xbf683568	-0.9070649
17	0xbf267be6	-0.65032804
18	0xbf679998	-0.9046874
19	0xbf8de4f5	-1.1085497
20	0x3f965363	1.1744198
21	0x3f7b8e2e	0.98263824
22	0xbf5be8a5	-0.8590186
23	0xbf3d6fa5	-0.7399848
24	0x3f168619	0.58798367
25	0xbf7c768c	-0.9861839
26	0xbfbd46bb	-1.478721
27	0xbf8d83e1	-1.1055871
28	0x3f2ca3a7	0.67437214
29	0x3f6345ed	0.88778573
30	0x3f5d625d	0.86478215
31	0xbf44f691	-0.7693873
32	0x3f3f0848	0.7462201
33	0x3fa15740	1.2604752
34	0x3f1d5ef1	0.61472994
35	0xbf276c77	-0.6539988
36	0x3f8de21a	1.1084626
37	0x3f735147	0.95045894
38	0x3f71c175	0.94435817
39	0xbf4a6f95	-0.7907651
40	0xbf3cbc73	-0.7372505
41	0xbf9087f6	-1.1291492
42	0x3f5c1995	0.85976535
43	0x3f8be1ac	1.0928245
44	0x3f7c7fb4	0.9863236
45	0x3fc24cd3	1.5179695
46	0x3f300cee	0.6876973
47	0xbfa56531	-1.2921506
48	0x3f433b0b	0.7626197
49	0x3f6f94c8	0.935864
50	0x3f2b7bff	0.6698608
51	0xbf637386	-0.8884815
52	0x3f4d9a08	0.8031316
53	0xbf368813	-0.7130138
54	0xbf265248	-0.649693
55	0xbf5407ee	-0.828246
56	0x3fb89477	1.4420308
57	0xbf2296e5	-0.63511497
58	0x3f3c678b	0.73595494
59	0x3f7d31e5	0.9890426
60	0xbfa53ed2	-1.2909796
61	0xbf8f5495	-1.1197687
62	0x3f6eb9fa	0.9325253
63	0xbf657a4e	-0.8963975

exp_avg f4 [64, 8]
0	0xb9873d55	-0.00025794902
1	0xb99097e8	-0.00027579
2	0xb9998315	-0.00029280098
3	0xb9c59bea	-0.00037690933
4	0xb91164c0	-0.0001386581
5	0xb573d0cf	-9.082841e-07
6	0xb9b7c902	-0.00035054242
7	0xb9e0b360	-0.00042858254
8	0xb8681514	-5.533274e-05
9	0xb879a593	-5.952043e-05
10	0xb88512fa	-6.345469e-05
11	0xb8cf23b1	-9.877177e-05
12	0xb7ea1a3d	-2.7907192e-05
13	0xb4cfbc06	-3.869356e-07
14	0xb8bd737e	-9.0337344e-05
15	0xb8ca2677	-9.639275e-05
16	0x3990b572	0.00027601008
17	0x3999b3ed	0.0002931649
18	0x39a24e6c	0.00030957477
19	0x39ad114a	0.00033010013
20	0x390bb6be	0.0001332415
21	0x35345bc8	6.7188785e-07
22	0x39c4784a	0.00037473656
23	0x39d340d3	0.00040293354
24	0x3910b7a8	0.00013801327
25	0x3919b22f	0.00014657596
26	0x392193ac	0.00015409169
27	0x39674e67	0.00022059084
28	0x38a2c710	7.76184e-05
29	0xb35e1d16	-5.1714856e-08
30	0x3972f4b0	0.00023170072
31	0x39831b56	0.00025006634
32	0xb9379308	-0.00017507013
33	0xb943a15f	-0.00018656765
34	0xb9500d62	-0.00019841411
35	0xb922095a	-0.00015453008
36	0xb899826f	-7.319904e-05
37	0xb4c54a5d	-3.6748216e-07
38	0xb945b3d4	-0.00018854375
39	0xb9588ef9	-0.00020652627
40	0x399502ea	0.00028421666
41	0x399e3eed	0.00030182992
42	0x39a74908	0.00031907135
43	0x39b62746	0.00034743006
44	0x391322c5	0.00014031965
45	0x35cc70f3	1.5232057e-06
46	0x39c44d56	0.00037441653
47	0x39d97d93	0.00041483025
48	0x39244738	0.0001566679
49	0x392406af	0.00015642749
50	0x39210b51	0.00015358372
51	0x398ad8da	0.00026482978
52	0x3905ca1b	0.00012759159
53	0x34c370b4	3.6403583e-07
54	0x39c2bf7b	0.00037145228
55	0x39c367c0	0.00037270598
56	0x39245a1a	0.00015673824
57	0x392e3fa8	0.00016617647
58	0x3937a3b4	0.00017513224
59	0x39573060	0.00020522019
60	0x38aad1e2	8.1453254e-05
61	0x358429b0	9.846899e-07
62	0x395ed093	0.0002124927
63	0x397ec808	0.00024297845
64	0xb945a77a	-0.00018849774
65	0xb9554e58	-0.00020342448
66	0xb964d0d6	-0.00021821572
67	0xb985b173	-0.00025499947
68	0xb8c4c2f1	-9.382319e-05
69	0xb29232d8	-1.7019758e-08
70	0xb961cfd0	-0.00021535088
71	0xb997481a	-0.00028854684
72	0x3904a16f	0.0001264864
73	0x390d59be	0.0001348024
74	0x3915948a	0.00014265082
75	0x39268d34	0.00015883596
76	0x387a615f	5.969533e-05
77	0x35169acb	5.610461e-07
78	0x3931f319	0.00016970596
79	0x393f1c1f	0.00018225655
80	0x384ebc6f	4.928972e-05
81	0x385dd31f	5.2887128e-05
82	0x386b5902	5.611126e-05
83	0x38a831b8	8.020125e-05
84	0x37e9bd20	2.7863833e-05
85	0x34efecb5	4.4689446e-07
86	0x38741131	5.8190144e-05
87	0x38b68115	8.70248e-05
88	0x39bb0f3f	0.0003567878
89	0x39c5e992	0.00037748792
90	0x39d03578	0.0003971269
91	0x39f17a12	0.00046058052
92	0x3942bc23	0.00018571368
93	0x35a99213	1.2633994e-06
94	0x3a06706a	0.00051284453
95	0x3a1243a2	0.0005579536
96	0x376413d6	1.3594477e-05
97	0x37605fc3	1.3373737e-05
98	0x3744e5e3	1.1736035e-05
99	0x3907cede	0.00012951667
100	0x380d7b2c	3.3731732e-05
101	0xb5c8b22f	-1.495302e-06
102	0x39064c24	0.000128076
103	0x3907fca2	0.00012968716
104	0x3989203c	0.00026154693
105	0x39916e4c	0.00027738733
106	0x39996646	0.00029258634
107	0x39b4615f	0.00034404823
108	0x390af2c4	0.00013251143
109	0x358c00ff	1.0431103e-06
110	0x39c5bfd2	0.00037717685
111	0x39d3385d	0.0004028705
112	0xb98af466	-0.00026503502
113	0xb989e11f	-0.00026298405
114	0xb98677e8	-0.0002564781
115	0xb9e8a436	-0.00044372835
116	0xb96b29d3	-0.00022426927
117	0xb502ec7c	-4.8772904e-07
118	0xba28cb10	-0.000643895
119	0xba292b1a	-0.0006453261
120	0xb96925cf	-0.00022234696
121	0xb96e0d61	-0.00022702433
122	0xb96e8cba	-0.00022749873
123	0xb9fe45be	-0.00048498617
124	0xb93b61a3	-0.00017870082
125	0xb5825196	-9.709499e-07
126	0xba10766d	-0.0005510811
127	0xba1622a5	-0.00057272083
128	0xb88d1bc9	-6.728579e-05
129	0xb89b92ce	-7.4183205e-05
130	0xb8abfaed	-8.200654e-05
131	0xb67b2011	-3.742058e-06
132	0xb6f0daa5	-7.178011e-06
133	0xb5a67f62	-1.2405037e-06
134	0x36cc33b4	6.085693e-06
135	0xb70b0ebb	-8.288475e-06
136	0xb8304e31	-4.203449e-05
137	0xb8352654	-4.318946e-05
138	0xb835a356	-4.330588e-05
139	0xb8ef7320	-0.00011417852
140	0xb81df650	-3.7661113e-05
141	0x3425f663	1.5456457e-07
142	0xb8fce3ef	-0.00012058752
143	0xb9077f81	-0.00012922102
144	0x395995ab	0.00020750488
145	0x396b2e82	0.00022428672
146	0x397d5db6	0.0002416287
147	0x39767c21	0.0002350663
148	0x38af95c9	8.37255e-05
149	0x35a97039	1.2624142e-06
150	0x3960bfec	0.00021433801
151	0x3986049a	0.000255619
152	0xb7e944ce	-2.7807804e-05
153	0xb7f8f257	-2.9676752e-05
154	0xb7fa2a34	-2.9821975e-05
155	0xb8fae4e0	-0.0001196356
156	0xb7bde812	-2.2638622e-05
157	0xb3f8e5f5	-1.1590229e-07
158	0xb8df7ae9	-0.000106563624
159	0xb8e9e409	-0.00011152781
160	0xb841b8b6	-4.618681e-05
161	0xb84d88fc	-4.9003385e-05
162	0xb8580caf	-5.1510226e-05
163	0xb8a262bb	-7.743152e-05
164	0xb7edcc29	-2.8347671e-05
165	0xb49fa5c9	-2.9736682e-07
166	0xb88d0f2f	-6.726232e-05
167	0xb8b94b57	-8.8355206e-05
168	0x398fdfb7	0.00027441766
169	0x39989f66	0.0002911046
170	0x39a0dfb2	0.00030684244
171	0x39bf3047	0.00036466328
172	0x391449ee	0.00014141921
173	0x350b7680	5.1953975e-07
174	0x39d75943	0.000410745
175	0x39e46ede	0.0004357015
176	0x38fd748a	0.00012085687
177	0x390115e5	0.00012310555
178	0x390160e8	0.00012338499
179	0x39734a87	0.0002320205
180	0x38c7021f	9.4894545e-05
181	0x350bbed2	5.2059215e-07
182	0x398d5b2f	0.00026961553
183	0x3996da6f	0.00028772975
184	0x398a8b84	0.00026425358
185	0x39935f53	0.00028109047
186	0x399be19c	0.00029731996
187	0x39b1d3c1	0.0003391784
188	0x390bb1a4	0.0001332225
189	0x35484bf0	7.461631e-07
190	0x39bda668	0.00036172871
191	0x39d5097c	0.00040633592
192	0xb96bbf69	-0.00022482652
193	0xb96ea369	-0.00022758324
194	0xb96d2270	-0.0002261491
195	0xb9ed7650	-0.00045292312
196	0xb93ce875	-0.00018015674
197	0xb5516064	-7.7998834e-07
198	0xba117a6b	-0.0005549553
199	0xba127d08	-0.0005588089
200	0xb966b7f3	-0.00022003036
201	0xb96bb1bf	-0.00022477562
202	0xb96c62e3	-0.00022543552
203	0xb9f934ec	-0.0004753241
204	0xb938ca1b	-0.00017622898
205	0xb5823aad	-9.702832e-07
206	0xba0c92c9	-0.0005362449
207	0xba13845a	-0.0005627327
208	0x37a1854d	1.9254769e-05
209	0x37b9becf	2.214257e-05
210	0x37d95110	2.5906164e-05
211	0xb8121c7c	-3.483564e-05
212	0xb7091f09	-8.173062e-06
213	0x352b253d	6.3756653e-07
214	0xb82d32c4	-4.1293693e-05
215	0xb81fe397	-3.8120514e-05
216	0x39478380	0.00019027106
217	0x3954b91c	0.00020286854
218	0x3960378f	0.00021383002
219	0x39b3f270	0.0003432217
220	0x38ec805b	0.00011277265
221	0xb47e8a17	-2.370583e-07
222	0x39b28da9	0.0003405635
223	0x39c3dcf0	0.0003735791
224	0xb9c4ba99	-0.0003752306
225	0xb9d1f3c2	-0.000400452
226	0xb9df22b3	-0.00042559727
227	0xb9d29856	-0.0004016782
228	0xb931cb7b	-0.00016955838
229	0xb52d3b70	-6.4534015e-07
230	0xb9e8f1a4	-0.00044430525
231	0xba020196	-0.0004959343
232	0xb7833d16	-1.5644862e-05
233	0xb79215fe	-1.7414797e-05
234	0xb7a3e995	-1.9539884e-05
235	0x37201884	9.542451e-06
236	0x35f94694	1.8572487e-06
237	0xb504b357	-4.9434806e-07
238	0x36b8ff4f	5.513349e-06
239	0x372b19c8	1.0198397e-05
240	0x39edbff7	0.00045347188
241	0x39f1d690	0.00046126964
242	0x39f15692	0.00046031602
243	0x3a7e35f2	0.00096973695
244	0x39bde43d	0.0003621894
245	0x35eb914f	1.7551155e-06
246	0x3a97d8cf	0.0011585
247	0x3a98d8f7	0.001166134
248	0x391f9b06	0.00015221172
249	0x392b019e	0.00016308433
250	0x39362b7f	0.00017373076
251	0x393cfdc1	0.00018023608
252	0x388c139f	6.679375e-05
253	0x34aec56b	3.2553666e-07
254	0x39501042	0.00019842482
255	0x395ad524	0.00020869501
