results/longer_training/models/checkpoint_80.pt (torch, 189091 bytes, 30 tensors)

actor_net.0.weight f4 [64, 8]
000000 be e6 5e bd 4c bf 09 be 36 5d 88 3e 67 a4 bd 3e
       -0.05441927 -0.1345188 0.26633614 0.37039492
000010 75 84 95 be b7 3b 8f 3f de 5f c5 3d 1e b4 57 bc
       -0.2920262 1.1190099 0.09637426 -0.013165502
000020 36 cb 26 3d 3e 67 0d 3e 4d d4 c0 bd 31 35 86 3d
       0.04072114 0.13808915 -0.09415493 0.06553114
000030 24 8e 8a be 4f b7 e8 3e b1 bb 0e 3e d3 6b e0 bd
       -0.2706157 0.45452353 0.13938786 -0.10958066
000040 87 95 86 3d 40 1d 6f be 77 d6 a0 3d 7f f5 25 3e
       0.06571489 -0.23351002 0.07853406 0.1620693
000050 8d de f0 bd f1 c5 4a bf db cc 1b 3e 0b fc f3 bd
       -0.11761198 -0.79208285 0.15214865 -0.11913308
000060 e8 58 5f 3d cf 04 9e bd bb a2 a7 3c 99 73 50 3e
       0.054528147 -0.07715761 0.020463338 0.20356597
000070 ff b0 92 3e b7 93 4f bf ac 01 f8 bd 42 d7 fd bd
       0.28650662 -0.8108477 -0.12109694 -0.12394573
000080 f8 d5 4f 3e 0e 20 a0 3d 35 f1 7b be a2 f1 64 3d
       0.20296466 0.07818614 -0.24603732 0.0558945
000090 8b bf 2f 3d b5 67 14 3f fe 32 bf be cb 5f f3 3e
       0.04290728 0.57970744 -0.3734359 0.47534022
0000a0 2e 82 64 bc 14 c7 0d be 25 8d 1c bc b2 f1 17 be
       -0.013947053 -0.13845474 -0.009555136 -0.14838293
0000b0 57 9c 66 bc c6 09 29 bf cd 50 57 3e ce ed 9a 3d
       -0.01407536 -0.6603054 0.21026917 0.07564889
0000c0 a0 bc 01 3f 30 c9 d9 bc fd 4f f8 3e 5d ec 2f be
       0.50678444 -0.026585191 0.48498526 -0.17180009
0000d0 73 b0 f6 bd 54 0b 2b bf e1 a6 7a 3d 84 51 b3 3b
       -0.12045374 -0.6681416 0.061194304 0.005472364
0000e0 a4 12 64 be c6 51 4b 3e 7e c0 44 be 5c e5 59 be
       -0.22272736 0.19855413 -0.19214055 -0.212789
0000f0 ae db e3 3e 94 9c 06 bf 51 6d 40 3d ee 62 1b be
       0.4450354 -0.5258267 0.046979252 -0.15174457
000100 01 d7 66 3e cd 3e f6 bd 74 82 43 3b 2f 64 b9 be
       0.22542955 -0.12023697 0.0029832395 -0.36209247
000110 31 b7 ed 3d 19 cc 24 3f 64 a0 d0 be 68 fb f4 3c
       0.116072066 0.6437393 -0.40747368 0.029905036
000120 7a 6a 4b be a7 2e ca bc d0 3c de 3d 96 7d 2f 3e
       -0.19864836 -0.024680449 0.10851443 0.17137751
000130 70 f1 06 3e 2a 24 38 bf 73 81 03 be 30 d9 55 be
       0.13178039 -0.7193018 -0.1284235 -0.20883632
000140 b0 9b cc bd ed b8 c3 bd ef a9 cd bd ad 74 0a be
       -0.099906325 -0.09556756 -0.10042178 -0.13521071
000150 98 c9 ae 3b e3 56 2d bf c3 57 b5 be 5d e8 aa bd
       0.0053340904 -0.67710704 -0.3541852 -0.08345101
000160 e3 e3 51 3d 1e 10 e6 bd 21 d6 cd bd 59 51 11 be
       0.05124272 -0.11233543 -0.100506075 -0.14191188
000170 49 ec 91 3d 1b 74 39 bf ad 2e ea 3d b9 3a 44 3e
       0.07125146 -0.7244279 0.11434684 0.19163026
000180 8d b2 6a bc 3c b8 db 3c 9a 49 54 3d ca ee f5 3e
       -0.014324796 0.026821248 0.051828004 0.48033744
000190 ae 92 c9 3e aa 5f df be c0 eb 1e be 3c 39 73 bb
       0.3936972 -0.43627673 -0.15519619 -0.0037112972
0001a0 b4 41 63 be 61 1c 2b 3d ab 29 d1 bc eb 10 65 be
       -0.22193033 0.04177511 -0.025532564 -0.22369735
0001b0 42 77 a5 3e b3 4d 20 bf a8 9c a8 3d 2c 26 60 3e
       0.3231755 -0.6261856 0.08233005 0.21889561
0001c0 9f 70 21 be d7 01 2d bf d2 03 d5 be 55 a7 8b 3e
       -0.15765618 -0.6758093 -0.41604477 0.27276102
0001d0 ad 9e 46 bc 34 6d 35 3f 17 d3 b8 bd c9 fc e5 3c
       -0.012122792 0.70869756 -0.09024637 0.028074639
0001e0 55 c4 ab be e7 48 f8 be d8 c7 26 bf 1d c0 b6 bd
       -0.33548227 -0.4849312 -0.6514869 -0.089233615
0001f0 96 5b 0c bd b2 e4 1e 3f 1f e4 03 3e 2b be 3b bd
       -0.03426703 0.6206771 0.1287999 -0.045835655
000200 90 ed 26 be 0a 4f d8 3d 24 df 4e 3e 6a 21 9d 3e
       -0.1630156 0.105619505 0.20202309 0.30689555
000210 df 7f d6 3d 17 d1 b9 be 17 9b 38 be 8b c3 24 bd
       0.10473608 -0.36292335 -0.18027912 -0.040225547
000220 b1 2f 77 3c b1 70 ae 3d 31 71 b2 bd 0d 93 07 be
       0.015087054 0.08517588 -0.08712996 -0.13239689
000230 e2 d0 5e bd 2a 66 2e 3f f0 8e 2e 3e b3 19 21 be
       -0.054398425 0.6812464 0.17046714 -0.1573246
000240 ac bd d0 3d c3 07 e9 bd 8d 05 c3 3c 63 ce b9 be
       0.10192427 -0.113784336 0.023806358 -0.36290273
000250 69 66 c1 3e 19 ee ba be 0f c6 cd 3d ba ce de bd
       0.37773445 -0.3650978 0.10047542 -0.10879274
000260 da 05 7e 3d 76 8b d4 be 5a 1c 11 bf 05 42 9f bc
       0.0620173 -0.4151265 -0.56683886 -0.01944066
000270 66 70 d4 bd db 58 4f 3f 42 65 a1 3e 87 06 86 bc
       -0.10373001 0.8099496 0.31522566 -0.016360534
000280 50 a5 4b 3d 01 be 1b 3d a3 65 19 3d b7 3d 0f 3f
       0.0497182 0.038023 0.037450444 0.55953544
000290 5b c7 c1 3d 4c 41 ea 3e 8d 85 55 3d 00 54 f6 bd
       0.09461852 0.45752943 0.052129317 -0.120277405
0002a0 62 82 11 3e 8b 29 4e be f9 e1 a1 bb 23 93 c5 3c
       0.14209893 -0.20133035 -0.004940268 0.024118012
0002b0 60 5c 7a 3d 9f 17 5b bf 94 a7 ed 3c 9e f4 f6 bc
       0.061123252 -0.8558292 0.029010572 -0.03014594
0002c0 8e 77 40 bc fe 94 c7 3d 61 e0 0b 3f 92 27 0f 3d
       -0.011747254 0.09745215 0.5463925 0.034949847
0002d0 a0 3a 36 be 1f 96 64 bf 32 03 c5 3d 5b 1a c0 3d
       -0.17795801 -0.89291567 0.0961975 0.09380027
0002e0 90 86 82 be ff 57 05 3e 52 25 52 3c 22 33 55 be
       -0.25493288 0.13021849 0.012826281 -0.20820287
0002f0 e1 00 16 be 88 1c 57 bf 0c 0b e1 bc a9 96 38 3d
       -0.14648773 -0.8402791 -0.027471088 0.045065556
000300 e4 61 05 be 34 ff 17 be f3 3c 39 bf d5 34 d3 3d
       -0.13025624 -0.14843446 -0.72358626 0.10312811
000310 48 d6 93 3d 56 fc 44 3f 8b 31 3f 3e 70 81 5a be
       0.07218605 0.76947534 0.18671243 -0.21338439
000320 8f 17 c8 be 19 c9 d8 be 48 34 f1 be b1 cb 09 be
       -0.39080474 -0.42340925 -0.471102 -0.13456608
000330 a0 85 a7 bd 5a 3c 2f 3f 05 25 1f 3e 2a 2a 4f bd
       -0.08179784 0.68451464 0.15541466 -0.05057732
000340 eb 8f 14 3e 1d 6f 82 bd 80 53 2e be 3a eb 14 be
       0.14508025 -0.063688494 -0.1702404 -0.14542857
000350 f7 46 07 3e 68 d3 bb 3e 47 f3 1f 3e 03 32 1f be
       0.13210665 0.36684728 0.15620147 -0.15546422
000360 ea b1 87 bd 7d c7 29 bd d3 ee 2d 3d 71 14 e0 3e
       -0.06625731 -0.041450012 0.04246409 0.43765596
000370 67 36 85 be d3 4c 8b bf 91 04 41 bd 95 52 08 3e
       -0.26018068 -1.088282 -0.047123495 0.13312753
000380 54 ac 08 3d dd 74 82 3e af 5a 1c be 21 ba 24 bd
       0.03336747 0.25479785 -0.15268968 -0.04021657
000390 0f bd b7 3c e5 d1 3c 3f bf c9 78 be b2 35 4d be
       0.022429017 0.73757774 -0.2429571 -0.20040014
0003a0 ca e8 bf 3d 9c f5 99 bd 77 86 88 3d c1 c1 42 3d
       0.09370573 -0.075175494 0.06666272 0.04754806
0003b0 af a6 8b be 71 44 04 bf a0 e6 c5 be 53 4e 25 be
       -0.27275607 -0.51666933 -0.38652515 -0.1614316
0003c0 7a a2 f7 3e e5 ea d1 3e d8 08 44 3f 37 97 8a bc
       0.48366147 0.40999523 0.76575994 -0.016917808
0003d0 a9 15 f9 3d 71 05 87 bf 90 1f 74 be 70 a2 ec bc
       0.121623345 -1.0548536 -0.23840165 -0.02888605
0003e0 70 34 8b be 38 16 90 bd 27 bf 4d 3e 99 ff 24 3d
       -0.27188444 -0.07035488 0.2009245 0.04028282
0003f0 d3 11 38 3e fd 9c 9c be c6 20 90 3d 50 ad ea 3d
       0.1797555 -0.30588523 0.07037501 0.11458838

actor_net.0.bias f4 [64]
000000 d2 bf dc 3d d2 41 53 3d fb 93 c6 bd 79 59 b9 bd
       0.10778774 0.051576443 -0.09696194 -0.09050269
000010 3f 82 58 3d db 1f b1 bd 80 f0 ec bd 9b b8 cd bd
       0.052858587 -0.08648654 -0.11569309 -0.10044976
000020 6f b5 d0 3d 80 c3 a7 bd ed 79 01 be ac 64 bd bd
       0.10190856 -0.081915855 -0.12644167 -0.09247717
000030 40 cd 8d bd 18 0f 99 bd 0d 12 0d 3e 15 83 36 3e
       -0.06923914 -0.07473582 0.13776417 0.17823441
000040 97 bf ae bd 45 12 a7 3d 7a c3 19 bd 3a 1b 56 3d
       -0.085326366 0.081577815 -0.037539937 0.05227206
000050 30 9c 00 3e 41 fd cd bd 49 2d e7 bd d1 76 df bd
       0.12559581 -0.1005807 -0.11287934 -0.10911334
000060 24 a1 b8 3d 19 bf 06 3e 6c 44 a8 3d 7b a1 d4 bd
       0.0901511 0.13158835 0.082161754 -0.103823625
000070 4a 5b d0 3d 3a 83 26 be b7 bf dc bd e1 2c af bd
       0.10173662 -0.16260996 -0.10778754 -0.08553482
000080 e7 39 e2 3d a3 80 de 3d 9a 00 82 3c f8 f8 f4 3d
       0.110462 0.10864379 0.015869427 0.119615495
000090 0e b7 ba bd fa 1e 8d 3d bb 0e f4 bd 45 f5 03 be
       -0.09116946 0.06890674 -0.11916872 -0.12886532
0000a0 0f ba 57 3e df 30 ab 3d 04 15 d3 bd 1f 46 b7 3d
       0.2106707 0.08358931 -0.10306743 0.089489214
0000b0 67 06 f5 3d ea c0 c2 3d bd b6 b2 3d f8 29 e8 bd
       0.11964112 0.09509452 0.08726261 -0.1133613
0000c0 34 de 22 3e 15 9a 4d 3c b9 f2 3b bd 5c 31 c7 3d
       0.15905076 0.012548943 -0.045885775 0.097262114
0000d0 e6 04 03 be b2 e3 d7 bd 75 6c be bd ee 34 cb 3d
       -0.12794837 -0.10541476 -0.0929803 0.09922205
0000e0 45 fe 37 be 51 bd 2f be 09 5a e4 3d 5c 5e 1e be
       -0.1796809 -0.17162062 0.11149985 -0.15465683
0000f0 76 12 d7 bd 4f b9 c3 3d f4 39 d4 bd 13 d1 73 3e
       -0.10501568 0.09556829 -0.10362616 0.23810224

actor_net.2.weight f4 [64, 64]
000000 88 4a 51 3e 54 ef e3 bb ed d6 e3 be da 80 ae bb
       0.20438588 -0.0069560204 -0.44499913 -0.005325419
000010 cf 69 b8 3e 6d 28 f9 be 83 14 29 be d0 38 90 3d
       0.36018226 -0.48663655 -0.16511731 0.07042086
000020 1e ff 92 3e ab cc c3 bc 3b 65 95 bd 3d 17 81 be
       0.28710264 -0.023901304 -0.07294699 -0.25213042
000030 31 17 30 be 76 fd be bd ed 30 31 be 8a 6b 79 3e
       -0.17196347 -0.093256876 -0.1730382 0.24357429
000040 27 11 89 3e 09 6a 1a be 50 82 0b be 88 74 1d be
       0.267709 -0.15079512 -0.13623929 -0.15376484
000050 41 3f 0c 3e 0a 9b 12 3e ea 19 93 3d a0 9b 3e 3d
       0.13696004 0.14316955 0.07182677 0.046535134
000060 2b b5 6c 3e 5a 3b 39 be 07 8e fa bd 21 84 a8 be
       0.23115985 -0.18089047 -0.12234121 -0.32913306
000070 1b af 1f bd 26 3a 57 3e 0c 04 c8 bd 82 b7 8a 3e
       -0.038985353 0.21018276 -0.09766397 0.2709313
000080 46 f8 99 3d db 5d a3 3d 04 32 a8 3d 0a b4 26 b8
       0.075180575 0.07976886 0.08212665 -3.974516e-05
000090 9b 29 41 3e 65 02 86 be ed a7 ac bd c5 a4 68 be
       0.18863527 -0.26173702 -0.08430467 -0.22719105
0000a0 9c 63 a4 be 56 e7 1a 3e 6f b3 8b be 08 e8 2b be
       -0.32107246 0.1512731 -0.27285334 -0.16787732
0000b0 f4 2d b5 bd 4c cd 83 3e 89 f9 aa 3d ca b9 43 be
       -0.088466555 0.25742567 0.08348376 -0.19113842
0000c0 7e e1 82 3e 11 a4 7c 3e ce b1 2c 3d 2c cc cd 3d
       0.25562662 0.24671961 0.042161755 0.10048708
0000d0 6c 72 0f 3e 40 5c 73 3e 00 36 3b be 9b 71 49 3d
       0.14008492 0.2376566 -0.18282318 0.04918061
0000e0 2b 4a bb 3d 7e 6b 9b 3d de d8 82 3d 28 23 ad be
       0.09145006 0.07588862 0.063890204 -0.33815885
0000f0 fc 5c 23 be e0 02 36 3e 9f be 1a 3d 97 68 3f 3e
       -0.1595344 0.17774534 0.037779447 0.18692242
000100 cc e3 78 3b 07 8b a5 3e 65 1f 33 bc 1a 45 d7 3e
       0.0037977574 0.32332632 -0.010932778 0.42044908
000110 e5 c6 c2 3d 4b 80 e9 bd 47 68 8e 3e 50 69 8c bd
       0.09510592 -0.11401423 0.27813932 -0.06856024
000120 3d f2 04 3d 9b a2 56 3e 37 1a 00 3d 85 c8 07 3f
       0.03245758 0.20960467 0.031275 0.53040344
000130 c7 bb d7 3c 02 91 80 bd d2 c0 9c bd 7d da b6 be
       0.026334656 -0.06277658 -0.07653965 -0.35713568
000140 54 06 98 3e c7 de e9 bd a0 e3 82 3e 5c cb 89 be
       0.29692328 -0.114194445 0.2556429 -0.26912963
000150 cc b4 0e 3e 90 3d e5 3d f5 a9 1b 3e c2 f9 98 3e
       0.13936156 0.11193383 0.15201552 0.2987805
000160 56 7f 58 be 9d 98 92 be 02 92 28 3e 79 2a 5a 3e
       -0.21142325 -0.2863206 0.16461948 0.21305265
000170 bf 4a 01 be e3 b5 c3 be 59 e9 b0 3d 62 2d 1b 3e
       -0.1262617 -0.38224706 0.086382575 0.15154031
000180 c6 80 20 bd 30 57 30 bd a1 36 53 be ad cc 45 be
       -0.039185308 -0.0430519 -0.20626308 -0.19316359
000190 79 90 4a 3e 0c 39 b1 3d 20 80 00 3e d8 d2 40 3e
       0.19781674 0.08653459 0.12548876 0.1883043
0001a0 fa d5 2a 3b a0 ea 8f 3d 51 2d 86 3e ff 07 05 bd
       0.0026067481 0.07027173 0.2620645 -0.03247833
0001b0 4e ec b5 bc 3a fb 2d 3e 65 c7 96 be 5d ea a0 bd
       -0.022207405 0.16990367 -0.29449 -0.07857201
0001c0 0a 60 57 3e fc 92 b2 bd 70 13 1d 3e 1f 41 40 3d
       0.2103273 -0.08719441 0.15339446 0.046937104
0001d0 c3 f0 1c 3e 9b 6a 17 3e 23 ca 21 bd db 22 46 be
       0.15326218 0.1478676 -0.039499413 -0.19349234
0001e0 45 fc e5 3c 5f 1f 8d bd c3 75 cc bd 95 64 13 3f
       0.028074393 -0.06890749 -0.09983399 0.5757535
0001f0 35 05 bc 3d c5 8d 2a 3e 72 fc ed bd 10 b4 00 be
       0.09180681 0.16655643 -0.11620416 -0.12568688
000200 56 08 d0 3d 42 1c 1a 3e b2 b6 d2 3b 46 1b 77 bd
       0.1015784 0.15049842 0.0064304704 -0.060328744
000210 a7 ee 4f 3e 20 c5 1b be b8 75 46 3e f9 4c 19 be
       0.20305882 -0.15211916 0.19380844 -0.14970769
000220 f0 4b bc 3e 82 f4 ed 3d 1b 12 1d be e2 71 e6 bd
       0.36776686 0.11618902 -0.15338938 -0.1125219
000230 7c 13 ce bd 28 a8 78 3a 13 21 90 3d 28 f3 1c 3c
       -0.1006231 0.00094855065 0.070375584 0.009579457
000240 0f fa 24 3e 4a 28 02 ba 19 24 12 be 74 4c 94 bc
       0.16111015 -0.000496511 -0.14271583 -0.018102862
000250 0f 8b 64 be f0 5f 1f bd 3d df 54 be 4e 6d 99 3e
       -0.22318672 -0.038909853 -0.20788284 0.29966205
000260 2b 1f bf 3e c6 07 ac 3e d4 5a 51 be 42 3d c8 bb
       0.37328467 0.3359968 -0.20444804 -0.006110818
000270 8d c7 44 3e 21 9c e0 3d fc bc 8d be ee 6f 82 be
       0.19216748 0.10967279 -0.27683246 -0.2547602
000280 59 6d b6 3d 52 f2 89 3e f1 cf aa 3d 3b 32 ca 3e
       0.08907575 0.26942688 0.08340443 0.39491448
000290 5f cf 44 3e d4 d0 4b 3d a7 b8 50 3e 20 1d cf 3d
       0.19219731 0.0497597 0.2038294 0.10112977
0002a0 31 20 85 3e d8 5b 35 3e a5 f0 c7 be 7d 94 b1 3e
       0.26001123 0.17710817 -0.39050785 0.346836
0002b0 6f b9 b5 3e 21 91 35 3e f5 8c b9 3e 33 a0 e3 bd
       0.35493037 0.17731144 0.36240354 -0.1111454
0002c0 0c ed 02 be 9e 21 c5 3d 70 40 04 3c d6 14 6d 3d
       -0.12785739 0.096255526 0.008072004 0.0578812
0002d0 98 f6 f7 3c 14 92 08 3e fd f2 63 bd 88 ed 9b 3d
       0.030268952 0.13336974 -0.055651654 0.07613665
0002e0 1d e7 1f bd 58 04 0f be cf 43 4b 3e 4c 41 98 bd
       -0.039038766 -0.13966501 0.19850086 -0.074343294
0002f0 89 95 8b 3e 0e cf 57 3e 47 b7 7f be 26 97 dd 3e
       0.27262524 0.21075079 -0.24972259 0.4327938
000300 1d 9a 64 be f6 e5 1d bd a0 e1 8c 3d b4 d1 c6 bd
       -0.22324415 -0.038549386 0.06878972 -0.097079664
000310 a3 07 b6 3c d8 7c f8 3d 4f 76 1d 3e 21 08 45 bd
       0.022220438 0.12133187 0.15377162 -0.048103455
000320 60 4d c9 be 43 95 cf 3d d1 7b 77 3c 84 05 2e 3e
       -0.39316845 0.10135891 0.015105204 0.16994292
000330 0b d0 2b 3e 5c 06 02 3e c5 3b 70 be 05 22 f1 be
       0.16778581 0.12697738 -0.234603 -0.47096267
000340 7f d7 44 3e 41 6f 84 3e 5a e8 3c be cf 8f 83 be
       0.1922283 0.2586613 -0.1844801 -0.25695655
000350 1d 1e 95 be a8 e6 1a 3d 72 48 d8 3e fb b8 0e 3c
       -0.29124537 0.037817627 0.4224277 0.008711095
000360 30 44 65 3b 10 17 cf be 10 85 89 be af ec 59 3d
       0.003498327 -0.40447283 -0.2685933 0.053204235
000370 5d 65 31 bb fb af 8b be 91 e9 f0 3e d2 91 9d 3d
       -0.0027068474 -0.272827 0.47053197 0.07693829
000380 e9 49 a0 3e cb e8 62 be 48 6d e0 3d d9 10 4b bc
       0.3130639 -0.22159116 0.10958344 -0.0123941535
000390 0e fa d6 3e a9 cf 49 bd 9d a5 8e be 40 90 e4 3d
       0.41987652 -0.049270306 -0.27860728 0.11160326
0003a0 fc e4 bf be d4 91 ab bd de 6d 0b 3e 35 cc 80 3d
       -0.3747939 -0.08377424 0.1361613 0.062889494
0003b0 d4 b8 95 3e 76 44 c8 bd 85 d3 e0 bd 40 ea 62 3e
       0.29242575 -0.09778683 -0.10977844 0.22159672
0003c0 ef 0b 91 be 96 fb e2 bd 1f c8 39 3e 85 c4 85 be
       -0.28329417 -0.110831425 0.18142746 -0.26126495
0003d0 8b 1a ff 3c 90 bb 27 3e 34 e0 40 3e 58 2a c9 3d
       0.031140586 0.16380143 0.18835527 0.098225296
0003e0 a5 d3 72 3e 9a b3 25 3e 10 94 dc 3c c1 6f d0 3e
       0.23713548 0.16181794 0.02692607 0.4071026
0003f0 0c d5 e7 bc c7 5d 06 be df 57 57 bc 93 2d b9 3d
       -0.02829983 -0.1312171 -0.013143509 0.09041896

actor_net.2.bias f4 [64]
000000 05 4e 02 3e 28 8b d8 bd 40 33 f7 3d 46 9c d2 bd
       0.12725075 -0.10573417 0.12070322 -0.10283713
000010 5e d7 f5 bd 92 6b df 3d 52 fc 99 3e d0 e7 04 be
       -0.12003969 0.10909189 0.30075318 -0.12979054
000020 c2 72 c0 bd 64 79 fa 3d f6 a9 00 3e 5c f0 c5 be
       -0.09396888 0.12230185 0.12564835 -0.38659942
000030 1e 86 de 3d 7d af 14 3e 3f 0b bb bd 77 87 ed bd
       0.108654246 0.14520068 -0.091330044 -0.115981035
000040 5d d0 51 3d 7b 8d cc bd 49 a8 ea bd c7 d6 8f 3e
       0.0512241 -0.09987923 -0.11457879 0.2809355
000050 2e 0b 8d be a7 4d cc 3d 8b ae 2e be f9 eb e8 3d
       -0.27547592 0.099757485 -0.1705877 0.11373133
000060 05 c8 bd 3d d5 92 04 be e0 e4 bb 3d 47 61 f6 bd
       0.09266666 -0.12946637 0.09174514 -0.12030273
000070 64 91 38 be 20 92 27 3e b5 02 ca be 73 33 d8 3d
       -0.18024212 0.16364336 -0.3945519 0.10556688
000080 2f fd bc 3d 97 b1 da 3d d7 a2 db 3d ca f7 f4 3d
       0.092279784 0.10678404 0.107244186 0.119613245
000090 70 98 c0 bd 90 63 0c be 71 9f 17 3e 67 82 00 3e
       -0.09404075 -0.13709855 0.14806916 0.12549745
0000a0 1a 9f ed 3d ab 44 e0 3d 12 85 e6 3d b4 f4 cb bd
       0.11602612 0.109505974 0.1125585 -0.09958783
0000b0 db 2e 17 be 60 df 8a 3e ba cb e8 bd 14 de 14 3e
       -0.14763968 0.27123547 -0.11366983 0.14537841
0000c0 55 df ad be 93 6a f4 3d 75 b1 f0 3d 35 6a 22 3e
       -0.3395945 0.1193439 0.11752597 0.15860827
0000d0 e6 5d ea 3d e5 ad 21 be 01 38 5f 3e 6a 51 0d be
       0.11443691 -0.15788992 0.21798708 -0.13800588
0000e0 19 7e ea bd 0a 47 19 be 84 68 c5 3d 75 6a f4 3d
       -0.114498325 -0.14968506 0.096390754 0.119343676
0000f0 63 5a 05 be fe 1a 05 3e df 9c f9 3d b0 a7 cc 3d
       -0.13022761 0.12998578 0.12188124 0.09992921

actor_mean.weight f4 [1, 64]
000000 f8 41 27 be bc 37 13 3e 63 71 6e be 5a 31 8c 3e
       -0.16333759 0.1437673 -0.23285441 0.27381402
000010 cc 32 6d 3e df 7e 95 be e9 84 ff bd af 5d bd 3e
       0.23163909 -0.29198357 -0.124765225 0.36985537
000020 c5 a3 50 3e 39 ea 1d be 0f a6 27 be e3 5e 07 3e
       0.20374973 -0.1542138 -0.1637194 0.1321979
000030 06 24 a6 be 71 c3 a1 be 66 7c 93 3e 57 88 e6 3d
       -0.3244936 -0.31594422 0.28805846 0.112564735
000040 29 f3 4a be f9 66 92 3e 37 fe b8 3e 54 69 05 be
       -0.1981932 0.28594187 0.3613145 -0.1302846
000050 8b 3f c9 3d dd bd ff bd 3d f4 1b 3e cb 4e 7f be
       0.09826573 -0.124873854 0.15229888 -0.24932401
000060 5d e2 ab be 03 fd 89 3e 4b e0 6b be 07 17 a5 3e
       -0.3357114 0.26950845 -0.2303478 0.3224413
000070 f7 6a 0c 3e d3 06 e9 bd ba 95 cb 3d 83 e2 3a be
       0.13712679 -0.11378255 0.099406675 -0.1825047
000080 13 4b 5e be 0b 18 8b be ee f6 ab be 36 10 20 be
       -0.21708326 -0.2716678 -0.3358683 -0.15631184
000090 8f e7 32 3e f9 ff 90 3d f8 01 05 be d4 7a 9b be
       0.17471145 0.07080073 -0.12989032 -0.30367148
0000a0 e3 b4 ae be 24 c0 9b be a8 1b af be 77 05 5c 3e
       -0.3412238 -0.3042003 -0.34200788 0.2148646
0000b0 6f 1f 11 3e 06 a2 fb bd e0 a6 a7 3e bc 64 f0 bd
       0.14172147 -0.12286763 0.32744503 -0.117379636
0000c0 d0 c3 f9 3d 6a 98 d5 be b6 ac ec be 0e 3c 18 be
       0.121955514 -0.41717845 -0.46225518 -0.14866659
0000d0 c4 da 4e be d3 d3 08 3e fd 77 fe bd 24 9c 9c 3e
       -0.2020064 0.13362055 -0.1242523 0.30587876
0000e0 af 63 3e 3e 8e fa 0c 3e da 56 b1 be d3 93 8b be
       0.18592714 0.13767454 -0.34636575 -0.27261218
0000f0 a1 5d 8f 3e 13 f8 e1 be cd 7c 52 be 21 aa e7 bd
       0.2800112 -0.44134578 -0.2055542 -0.113117464

critic_net.0.weight f4 [64, 8]
000000 eb 31 65 3d 1d fa 46 3d 69 8d ec 3d ba cc 16 3c
       0.05595581 0.04857837 0.11550409 0.009204084
000010 b9 27 e7 3d 08 8c a9 3f e2 84 0c 3e cd 05 e2 bd
       0.11286873 1.3245859 0.13722566 -0.11036263
000020 be 0c 94 bc 52 d2 ef be 34 bc fb bd 70 f3 40 3d
       -0.018072482 -0.4684015 -0.12291756 0.04710716
000030 79 5e 60 bf 16 ff af bf 1d ac 17 bd cd a2 27 bf
       -0.87644154 -1.3749721 -0.037029374 -0.6548279
000040 39 f1 af 3e 29 cd f0 3d 38 8e fc 3e 49 52 e9 bc
       0.34363726 0.11757881 0.49327254 -0.02848162
000050 da 11 48 be 44 7c 92 bc fd de 8c be 78 14 1d 3e
       -0.1953806 -0.01788152 -0.27513877 0.1533984
000060 75 db f0 3e 37 8e d4 3e 68 95 03 3f 9e 88 c5 bd
       0.47042432 0.4151475 0.5139985 -0.09645198
000070 88 44 d0 be d7 a6 56 be e8 15 8a 3e 6f 0b b9 be
       -0.40677285 -0.20962082 0.26969838 -0.36141536
000080 52 b4 ce 3d 28 9b 3d 3e e7 a4 2b 3e 7e 83 db 3d
       0.10092987 0.18516219 0.16762124 0.107184395
000090 34 77 80 3e 2d 8d 96 3f 05 df 3a 3e 7c 7f cd 3e
       0.25090945 1.1761833 0.18249138 0.40136325
0000a0 4d a0 97 3e f7 41 af 3d b1 df 85 3d 4d c3 b1 bd
       0.29614487 0.08557504 0.065368064 -0.08679829
0000b0 b9 ec 90 bf a5 ba 0a 3e 2f 97 38 be 4d 12 67 bd
       -1.1322242 0.13547762 -0.18026422 -0.056413937
0000c0 21 1e 60 3d 7d 34 d6 3d a4 72 14 3e c6 01 50 3d
       0.054716233 0.1045923 0.14496857 0.05078294
0000d0 85 7f 93 bf 3a fe 8e 3e c5 bc a8 bd 40 46 9a bd
       -1.1523291 0.27928334 -0.0823913 -0.075329304
0000e0 35 19 29 3d 6b f7 5f be 42 8d 19 be 0a a2 90 be
       0.041283805 -0.21871726 -0.14995292 -0.28248626
0000f0 77 a1 8a be 6d 29 a8 bf 19 21 c2 bd 1d 72 16 be
       -0.27076313 -1.3137642 -0.09478969 -0.14691968
000100 97 1f 07 3f 8e d9 41 3e ed c6 c1 3b 68 4f ba bd
       0.5278258 0.18930647 0.0059136064 -0.09097177
000110 b3 c8 72 be 8e c3 60 bf 75 c0 e3 3e ae ff 27 3e
       -0.23709373 -0.8779839 0.4448277 0.16406128
000120 9e 4d 3b be de 3f 85 3e 3e a8 1e bd 80 06 4d 3d
       -0.18291327 0.2602529 -0.038734667 0.050055027
000130 73 af bd be 85 c8 b9 3f 46 18 61 bf d9 6f 3b bd
       -0.3704792 1.4514319 -0.87927663 -0.045760963
000140 f9 d5 77 3d ad c3 98 be 33 de 73 be 4b b4 7f be
       0.060506795 -0.2983679 -0.23815231 -0.2497112
000150 86 e7 35 bf 74 6a b4 bf 3a db 45 be df 87 1f be
       -0.710564 -1.4094987 -0.1932191 -0.15579174
000160 af 46 0f bf a3 49 db be f0 e8 2b bf 45 14 a4 be
       -0.5596723 -0.42829618 -0.6715231 -0.32046714
000170 92 16 a9 3e 1e 34 2a 3f 1c 4a ac 3e d3 1f 40 3d
       0.33025032 0.66485775 0.3365029 0.04690535
000180 39 f1 de 3e 0e 02 04 3f ec 4a df 3d 48 a6 81 3c
       0.43543413 0.51565635 0.10902962 0.01582636
000190 6e ea ab be 0b 25 10 bf c1 f0 0d be a8 e2 c9 3d
       -0.33577293 -0.56306523 -0.13861372 0.098576844
0001a0 cf 45 62 3e aa 3f c3 3e ee 98 af 3e ae 6c 2b be
       0.22096942 0.3813451 0.34296364 -0.16740677
0001b0 6c b5 a8 bd 02 72 83 bf 0f f6 8b 3e a9 7c 24 bd
       -0.082377285 -1.0269167 0.27336165 -0.040157948
0001c0 16 74 b4 bc 79 73 10 3c 73 0a d3 bc 7a ae 42 3e
       -0.02202801 0.008816593 -0.025761819 0.1901187
0001d0 cc 24 46 bf cf de 9b 3f 0d 8e b9 be 77 56 f0 bd
       -0.773999 1.2177371 -0.3624119 -0.11735242
0001e0 cc cd 47 3e 19 76 1d 3e 4e 3a 0c be a8 f2 c0 be
       0.19512099 0.15377082 -0.13694116 -0.37685132
0001f0 15 ee a2 be a5 80 1c bd 52 10 2c be cd 0e 2b be
       -0.31822267 -0.038208622 -0.168031 -0.16704865
000200 92 50 fa bd 38 65 39 bf f5 8e bb be 63 57 85 bc
       -0.12222399 -0.7242007 -0.36632505 -0.01627702
000210 0b c0 df 3e b5 ab 2c 3f e4 eb 69 3e 95 c4 b5 bd
       0.43701205 0.67449504 0.22843891 -0.08875386
000220 da 47 cd be 33 f8 3d bf 75 9d 01 bf 64 e6 f6 3d
       -0.4009388 -0.74206847 -0.50630885 0.12055662
000230 a5 97 e0 3e bd af 2a 3f 62 cd 28 3e 40 77 ee bc
       0.43865696 0.66674405 0.16484597 -0.029109597
000240 45 a5 02 bd 2a 70 1b be 8c 7f 55 be 4c 73 26 bc
       -0.031895895 -0.15179506 -0.20849437 -0.010159325
000250 1b c2 2c bf 0a ce ca bf d9 c1 33 3d 46 f0 4d 3c
       -0.6748368 -1.5844128 0.04388604 0.012569493
000260 da 95 8f bd 87 98 c0 be 01 25 e1 be fa 71 ff 3d
       -0.07011004 -0.3761637 -0.43973544 0.12472911
000270 91 20 da bd f4 8e 64 3f d0 c8 0c be c8 49 65 3c
       -0.10650743 0.8928063 -0.13748479 0.013994642
000280 be 3d 14 bf 3b e9 d4 be 05 14 54 be d8 59 f4 be
       -0.5790671 -0.4158419 -0.20710762 -0.47724795
000290 d0 f9 c4 3d 6f 26 a0 3e 03 67 9f 3e 54 2e 1f 3d
       0.096179605 0.31279323 0.3113328 0.03886254
0002a0 16 1b 4b be be b7 93 3e 0c 04 12 be 34 ab ba 3c
       -0.19834551 0.28851122 -0.14259356 0.022786714
0002b0 f5 29 7e 3e fc 3f ba bf 51 35 cd bd e9 9d 41 3e
       0.24820693 -1.4550776 -0.10019935 0.18907894
0002c0 8c b2 21 bf a6 1a b4 be 5a fa 15 bf 2f cb bb bd
       -0.63163066 -0.3517658 -0.5858513 -0.091696136
0002d0 82 f2 38 3e a3 34 06 3f e2 9e 02 3e 28 29 87 3e
       0.1806126 0.5242407 0.12755921 0.26398587
0002e0 eb a9 3d 3e 4c cc 5b be 56 3c ce 3e 85 cd 6c be
       0.1852185 -0.21464652 0.40280408 -0.23125274
0002f0 39 9a 6d be 26 bd 5b 3f ed 70 07 bf b2 4e 12 be
       -0.23203363 0.8583549 -0.52906686 -0.14287832
000300 b0 ac bd be f4 e1 12 be ef 84 a6 be 34 ec 0d 3e
       -0.37045813 -0.14344007 -0.32523295 0.13859636
000310 42 6c 2c 3e 41 ac 54 3f 95 fc 2e 3e 65 a6 6f be
       0.16838172 0.8307534 0.1708854 -0.23403318
000320 6e 34 4d bd e2 cd 81 3d 78 12 2a 3e 3a 1b 11 3e
       -0.05009883 0.06338097 0.16608608 0.14170542
000330 99 35 ad 3c d2 56 8f 3f 4e 39 8e bf 81 17 02 be
       0.021143721 1.119837 -1.1111238 -0.12704279
000340 b9 04 28 3e 79 0c 00 be 60 a3 51 3e 88 64 44 3e
       0.16408052 -0.12504758 0.20472479 0.19178975
000350 fa 24 51 3e 34 96 b0 3f 97 08 7b 3d 73 b7 29 be
       0.20424262 1.3795838 0.06128749 -0.16573887
000360 b8 84 18 3f be 97 2e 3f 85 be 08 3f 8e 86 c6 3c
       0.5957751 0.6820029 0.5341571 0.024234083
000370 87 f7 ad be 6f ed f0 be a7 be d8 be c4 7b 42 3e
       -0.3397791 -0.47056147 -0.42332956 0.18992525
000380 b5 22 5b be 4d 8f b2 3d 31 5d f9 3b 62 0d c4 3d
       -0.21399958 0.08718739 0.0076099862 0.09572865
000390 27 e5 d1 3c 2e bc 39 bf 7c 8d 5c 3f b2 e1 8a be
       0.025621964 -0.72552764 0.8615339 -0.27125317
0003a0 3d 5f e3 3e 63 f0 9a 3d 8d 0f 7c 3e 14 c3 18 3e
       0.444086 0.075653814 0.24615307 0.14918166
0003b0 d5 9f 77 bd ea c0 24 be 88 5e 69 be 03 ef 1b 3e
       -0.060455162 -0.16089216 -0.22789967 0.15227894
0003c0 0d ed 9b 3c e8 12 73 3e ab 56 29 3d 00 13 0e be
       0.019033933 0.23737681 0.04134242 -0.13874435
0003d0 4c 0a b4 3f 24 e8 72 3f ae af ef be f2 fe 81 be
       1.4065642 0.9488547 -0.4681372 -0.2538982
0003e0 e5 38 ef bd 4c b2 8b 3e 12 90 78 3e fa 76 17 be
       -0.11680774 0.27284467 0.24273708 -0.1479148
0003f0 ab 67 2c 3f 7a 18 af 3f b9 d7 06 3e 2a 67 50 be
       0.67345685 1.3679345 0.13168229 -0.20351854

critic_net.0.bias f4 [64]
000000 e8 e8 4a 3e c8 c8 af be 5e 4c 15 be 1b e7 9e be
       0.19815409 -0.3433287 -0.14579913 -0.31035694
000010 0f 5e 99 3e aa 5c c3 bc cc 48 8b bd a7 2c 9e be
       0.29954574 -0.023847897 -0.06800994 -0.30893442
000020 54 df f7 be fc 56 98 3e 2c 68 98 be 6e 51 0b 3e
       -0.48412573 0.29753864 -0.29766977 0.13605282
000030 e8 47 66 be 23 82 a7 be 6f da 7b 3e 38 ae ff bd
       -0.22488368 -0.32716474 0.24595045 -0.124844015
000040 7e e2 24 3e 52 95 6f 3e 11 84 60 be 5f 8c 9a 3e
       0.16102025 0.23396805 -0.2192538 0.3018522
000050 33 cc 13 3e c8 cd 65 be be be 3d 3e f1 0b a6 3e
       0.14433365 -0.2244178 0.18529794 0.32430986
000060 73 9c 34 3e 1f 41 b8 3e 84 66 58 3e 0b 09 ce bd
       0.17637806 0.35987183 0.21132857 -0.100603186
000070 34 ee 65 be 09 2f 1a be a3 41 43 3e 1c 6a 2a 3e
       -0.22454149 -0.15057005 0.19068007 0.1664204
000080 d2 df 41 be 67 a0 6a be a0 09 38 3d 19 7c 96 be
       -0.18933037 -0.22912751 0.044931054 -0.29391554
000090 f4 17 29 3e 2b 05 da 3c d8 b2 73 be 12 54 a2 3e
       0.16513044 0.026613792 -0.23798692 0.31704766
0000a0 07 22 47 be 58 72 0f 3e c5 83 56 be 8c 21 6b 3e
       -0.19446574 0.14008462 -0.20948704 0.22962016
0000b0 f6 7c 8e 3e 9d b8 54 be f7 98 45 3e d7 52 84 be
       0.27829713 -0.2077355 0.19296633 -0.25844452
0000c0 25 77 be bd b0 32 b3 3d 21 77 49 3e d3 49 ec bb
       -0.09300069 0.08749902 0.1967435 -0.007210949
0000d0 21 11 a0 be 9f 43 94 be 12 b3 74 3e e7 56 5d 3e
       -0.31263068 -0.2895784 0.23896435 0.21615182
0000e0 d8 d4 95 3e 5a 93 93 3e a5 e1 e8 bd d5 4d c5 bd
       0.2926395 0.28823358 -0.11371163 -0.09633986
0000f0 b3 84 8e be 26 9d 57 3e 5a b8 66 be a4 17 39 3d
       -0.27835616 0.21056041 -0.22531262 0.04518856

critic_net.2.weight f4 [64, 64]
000000 2c e2 77 bd 9b 07 9a 3d 4e 95 ed 3e 74 d1 fa 3e
       -0.06051843 0.07520982 0.46402973 0.48987925
000010 d1 07 3a 3e ac c6 b1 3e 26 f2 00 3f 1f d8 fd 3d
       0.18167044 0.34721887 0.5036949 0.123947375
000020 5a 90 e4 3e 06 71 a5 be 71 cf bf 3d 22 c3 d6 be
       0.44641382 -0.32312793 0.09365738 -0.4194575
000030 b0 8d 1a 3f 80 5f 36 3e 4a a9 5e be 49 02 f6 3e
       0.6037245 0.17809868 -0.21744266 0.48048618
000040 e4 c3 8e bf 8e e7 05 bf 14 2e 22 bb 04 e6 81 be
       -1.1153531 -0.5230645 -0.0024746703 -0.253708
000050 06 b9 12 bf 50 2d 45 3e e5 7c f2 be e0 28 6e 3e
       -0.57313573 0.19255567 -0.47360912 0.2325778
000060 12 03 00 bf 07 a6 bb bd c6 ce 05 be 15 6f 0f 3f
       -0.50004685 -0.091625266 -0.13067159 0.5602887
000070 19 99 0e 3d a1 c0 e4 3e 93 3b 2d be 7e 9a 82 3e
       0.034813974 0.44678214 -0.16917257 0.25508493
000080 06 af 9b 3f 2f f2 37 3f 52 f3 ee bc 47 13 32 3f
       1.2162788 0.7185392 -0.029168759 0.69560665
000090 93 ec 24 bf c9 91 08 3f cc ab ab 3f cc d7 61 be
       -0.64423484 0.5334745 1.3411803 -0.22054976
0000a0 5e 67 4e 3f dd cc aa 3d 98 c0 19 3f ba b3 63 bf
       0.80626476 0.08339856 0.600595 -0.88946116
0000b0 b1 41 af be f8 48 ca 3e 52 b1 a4 bd 5a 3d ac 3e
       -0.34229806 0.39508796 -0.08041634 0.33640558
0000c0 2b 51 65 be 4b e5 b8 bd 1f ca 01 be d1 b5 00 bd
       -0.22394244 -0.09028109 -0.1267476 -0.031423394
0000d0 ac 4d cc 3e 73 d1 0b be 95 1d 00 bf 0f ec 36 bd
       0.3990301 -0.13654117 -0.5004514 -0.044658717
0000e0 9d 98 3e bf 1f 8d af be 3a d0 cf 3d f6 22 fc be
       -0.7445162 -0.34287354 0.10147138 -0.49245423
0000f0 21 89 a6 3e 7e d4 4b 3d 72 8a 43 3e 6e 21 05 be
       0.32526496 0.049763195 0.19095781 -0.13001034
000100 30 37 09 bf 58 f2 59 3f 62 02 6f 3c 78 10 ce bd
       -0.53599834 0.8513541 0.01458797 -0.10061735
000110 2e 03 e9 be d5 99 ae 3e 9f 55 0d bd 1e 5b c8 3e
       -0.45510238 0.3410174 -0.034505483 0.39132017
000120 c9 f5 76 be ec 16 b0 3d 6f 8c 3e 3f e6 cc c4 3e
       -0.24117197 0.08598122 0.74433035 0.38437575
000130 3f ed 8b be 22 08 79 be e4 76 21 be 01 fe e2 3e
       -0.27329442 -0.24319509 -0.1576801 0.44334415
000140 31 ed 3e 3c 74 45 ff bc 76 4f 87 3e 72 51 00 3f
       0.0116532305 -0.031161048 0.2642781 0.50124276
000150 bf 78 a4 3d 94 f5 ab 3e e1 f3 80 be ea 16 3d 3e
       0.08030843 0.335858 -0.25186065 0.18465772
000160 fa 50 d6 3e 42 76 be 3e 2e bb 37 bf 3f 05 6b bc
       0.41858655 0.371996 -0.7176999 -0.0143445125
000170 46 22 69 be 22 a2 a1 bd 09 e1 03 be 34 66 ad be
       -0.2276698 -0.078922525 -0.12878813 -0.33867037
000180 6b be 89 bd f2 86 ea bd 50 3d fb be 39 f9 c5 3c
       -0.067257725 -0.1145152 -0.49070215 0.02416669
000190 51 eb 51 be 63 90 e9 3d 34 bd 8d bd 2f 91 b9 be
       -0.20499922 0.11404493 -0.06920853 -0.3624358
0001a0 65 d7 ad 3d f0 c2 f1 be a1 d2 a2 bd ac 06 16 bf
       0.08488349 -0.47219038 -0.079503305 -0.5860393
0001b0 7e 82 81 3e 42 f5 c8 3d 0d fc d3 bc d5 bb f0 3e
       0.2529487 0.09812404 -0.025877023 0.47018304
0001c0 05 a1 95 be d7 06 98 be 3d cf 96 3e 05 4b 35 3d
       -0.2922441 -0.29692718 0.29454985 0.044260997
0001d0 5e 05 fa 3d 17 bf 72 be 66 9b 20 bf c5 32 fc be
       0.12208055 -0.23705707 -0.6273712 -0.49257484
0001e0 c7 b6 92 3d 5e 17 a0 be da 0b b3 be a2 0a e5 3d
       0.07163768 -0.31267828 -0.3496998 0.11183669
0001f0 e9 fc 12 3f 9b 0f 2a bf 81 f3 85 3e 00 f6 d6 3e
       0.5741716 -0.6643006 0.2616234 0.41984558
000200 e4 e6 f1 3e c3 7a f4 be 91 27 21 3e 1a f4 a7 3c
       0.47246468 -0.4774991 0.1573775 0.020502139
000210 1f 02 6c 3d 2a 28 9a bd 44 80 80 be 12 5e 41 be
       0.05761921 -0.07527192 -0.2509786 -0.18883541
000220 67 9f a8 bc 6d 89 0a 3f 07 16 a2 be d9 95 ba 3e
       -0.020583821 0.54115945 -0.3165743 0.3644245
000230 b4 61 53 3e 6a 68 31 be 90 df 63 be fa 3a 23 be
       0.2064274 -0.17324987 -0.22253251 -0.15940467
000240 12 c3 f7 3d 32 b1 2c bd 69 7f c2 be 39 96 0a 3e
       0.120977536 -0.042161174 -0.3798783 0.13533868
000250 0c 90 ab 3e 1d d2 5d be 01 35 a3 3e 9f ec 94 3e
       0.33508337 -0.21662183 0.31876376 0.29086778
000260 60 97 1d 3d 7a 51 cd 3e 04 9d 6f 3e 0a 19 4f be
       0.03847444 0.40101224 0.2339974 -0.20224395
000270 cb 32 e8 bc f4 64 a4 bc 92 18 41 3b 1b b2 13 3f
       -0.028344532 -0.02006767 0.0029464108 0.5769364
000280 1f 57 13 be 35 24 34 be fa 69 96 3e 65 3c 36 be
       -0.14388703 -0.17591937 0.2937773 -0.17796476
000290 bc 2b 41 3c ab 5c ef 3c e9 ce 71 bd 17 13 f1 3e
       0.011790212 0.029218992 -0.059035216 0.47084877
0002a0 8f ee ad bd 27 21 e5 3e 4e b0 c8 bd 89 3f 8c 3e
       -0.08492767 0.44751856 -0.097992525 0.27392223
0002b0 71 63 44 3e 7b 5b c7 3e 92 7b f2 bd 3c a5 01 bf
       0.19178559 0.38936982 -0.118399754 -0.5064275
0002c0 61 28 16 3e 4f cd 88 be fd ba 99 3e a7 9c b3 3e
       0.14663841 -0.26719138 0.30025473 0.35080454
0002d0 e3 57 b0 be e7 d3 14 be 10 61 b4 3e ca 11 6b 3e
       -0.34442052 -0.1453396 0.35230303 0.22956005
0002e0 30 6e 41 3e d6 7c 9c be 30 5d 24 bd 5a 8a 7c 3d
       0.1888969 -0.30563992 -0.040127933 0.06165538
0002f0 f4 4c cb 39 7a ec c8 be d3 b7 a0 be 48 5a 15 3e
       0.00038776512 -0.39242917 -0.31390247 0.14585221
000300 2f ea dc 3e e0 09 27 bf f9 f6 14 bf d3 68 8c be
       0.43147418 -0.65249443 -0.5818935 -0.27423725
000310 a0 38 da 3e 80 84 9a be eb 6d 92 be 23 66 d7 3c
       0.42621326 -0.30179214 -0.28599486 0.02629382
000320 52 fb b0 bc 6f 17 ec 3d 72 3a 30 be 34 43 83 3e
       -0.021604214 0.11527907 -0.17209795 0.2563721
000330 1a 0c 9a 3c 33 2f 0c bd 48 e2 29 be c3 bb ad be
       0.018804599 -0.0342247 -0.16590226 -0.33932313
000340 ed a3 38 3e ec 36 fc 3d df f4 0c bf ae 46 09 be
       0.18031283 0.12315163 -0.55061144 -0.13405868
000350 2c 7a e2 3d 15 3e cf be 98 2a 01 bd e4 86 fe bb
       0.11058459 -0.40477052 -0.03153476 -0.007767545
000360 2e c6 7a b9 27 c8 fd bd 31 e6 d0 3e 46 37 9a be
       -0.00023915686 -0.12391692 0.40800622 -0.30120295
000370 3e 69 18 be 13 04 e6 bd 48 4f 6f 3d ac a2 fd 3e
       -0.14883897 -0.11231246 0.058425218 0.4953817
000380 65 ee 56 3e 23 1e ca be c4 f1 01 3e 59 61 3d be
       0.20989378 -0.39476117 0.12689883 -0.18494166
000390 5b 31 b3 bd c9 cf aa 3d b7 ee c5 bd f8 b9 1b 3f
       -0.08749648 0.08340413 -0.09664672 0.6083064
0003a0 94 b3 8a 3d 9b 4d 5e 3e e1 9b 25 3e 5f ec 07 bd
       0.06772533 0.21709292 0.16172744 -0.033184405
0003b0 ad 0a 46 bd b5 af 87 3e c0 72 58 3e 10 2f 96 be
       -0.048350025 0.2650124 0.21137524 -0.2933278
0003c0 97 63 cf 3c 50 d1 88 be b8 55 28 3d 10 42 ef 3e
       0.025316043 -0.26722193 0.041097373 0.4673009
0003d0 87 39 93 be 00 15 0c 3d 8f 7f ee 3e f2 8b da 3e
       -0.28754827 0.034199715 0.46581694 0.42684895
0003e0 58 8d 38 bd 65 bf fe 3e c4 91 b3 bd 08 7e c6 be
       -0.04505667 0.49755397 -0.08768037 -0.3876803
0003f0 eb a7 09 bf d1 ca 8b 3e 07 ea d7 be 78 43 b6 bb
       -0.5377185 0.27303174 -0.42170736 -0.005562242

critic_net.2.bias f4 [64]
000000 f1 9c 7e be 59 0f e4 be 00 6d 48 3e 92 0e 9c 3e
       -0.24864556 -0.4454296 0.1957283 0.30479866
000010 43 02 31 3e a4 0f 56 3e 63 94 32 3e c7 9f 05 be
       0.17286019 0.20904404 0.17439418 -0.13049231
000020 6e c0 3d be 52 42 89 3e ba 9b 00 be 1d cf f1 bd
       -0.18530437 0.2680841 -0.12559405 -0.11807082
000030 ca 99 15 be db f4 36 be 64 fb 13 be 7f 39 5c 3e
       -0.14609447 -0.17866842 -0.14451367 0.21506308
000040 de 9d a0 3d f1 c7 06 3e 38 2d b9 3e 77 c7 26 3e
       0.07842611 0.13162209 0.36167312 0.16287027
000050 d7 8d 5c be 58 e2 a5 be 15 69 be 3e 7e 72 52 3e
       -0.21538483 -0.3239925 0.37189546 0.20551488
000060 d6 ee cf be f7 f7 88 3e b2 a2 8b 3e 68 6b 88 3e
       -0.40611905 0.26751682 0.27272564 0.26644444
000070 7d eb 0b be 65 b4 d8 bd d2 fb 5e be 34 b8 b3 3d
       -0.1366405 -0.105812825 -0.2177575 0.08775368
000080 d7 f1 b5 be 7c fb 70 be 60 87 8f be b4 15 9e 3d
       -0.35536072 -0.23533434 -0.2803297 0.07718983
000090 53 3b 9f be 4f 72 2a be b7 d5 9f be 97 a1 04 3e
       -0.31099948 -0.16645168 -0.3121774 0.12952267
0000a0 83 0a a1 3d 14 63 72 3e fb 50 4b be 27 07 3e be
       0.07863333 0.23670608 -0.1985511 -0.18557416
0000b0 97 17 f2 bd e7 d1 72 be 83 f0 a0 be db e2 d6 3e
       -0.11820906 -0.23712884 -0.31433496 0.41969952
0000c0 c0 9e 12 be f9 62 13 be 23 49 a2 be 1d 30 2c 3e
       -0.14318371 -0.14393224 -0.31696424 0.16815229
0000d0 12 3f 34 be 03 ca 34 3e ae 2e d0 3e 83 9e 76 3e
       -0.17602184 0.17655186 0.40660614 0.24083905
0000e0 83 b3 8d be 1d cc c6 3e ad 22 30 be 1e 29 9f be
       -0.2767602 0.388276 -0.17200728 -0.31086057
0000f0 b2 4d 2d 3e d6 20 97 3e 7e f2 4d be f9 d4 22 3e
       0.1692417 0.2951724 -0.20112035 0.15901555

critic_head.weight f4 [1, 64]
000000 fc 24 5e 3f eb 28 2a 3f 58 8e 62 bf 4b 09 4e bf
       0.86775184 0.66468686 -0.8849845 -0.8048293
000010 fb 33 72 bf 45 78 99 bf 1b c1 8f bf bb 1b 97 3f
       -0.94610566 -1.1989828 -1.1230806 1.1805338
000020 82 55 a3 3f 61 59 80 bf d0 18 66 3f bb 3e 3a 3f
       1.276047 -1.0027276 0.8988161 0.7275197
000030 8f 98 63 3f a3 66 9e 3f 9b 2c 33 3f 3f a1 4e bf
       0.8890466 1.2375072 0.6998994 -0.8071479
000040 86 30 87 bf 34 b2 5a bf f6 06 97 bf 9a 3c ad bf
       -1.0561683 -0.85428166 -1.1798999 -1.3534119
000050 3a 4d bd 3f bb 6d a4 3f 1d 67 8f bf 04 f6 5e bf
       1.4789193 1.2845987 -1.1203343 -0.8709414
000060 45 2f 3f 3f d9 24 9f bf a4 dc ea bf 0e 96 aa bf
       0.746815 -1.243312 -1.8348584 -1.3327043
000070 a6 0b 50 3f f6 3b 90 3f eb f3 88 3f a3 00 6c bf
       0.81267774 1.1268299 1.0699438 -0.9218847
000080 25 c8 67 3f e8 f6 ce 3f 25 87 46 3f 25 32 4d bf
       0.9053977 1.61691 0.77549964 -0.8015464
000090 22 2e b5 3f 62 d9 96 3f b4 96 9e 3f 09 07 70 bf
       1.4154704 1.178509 1.2389741 -0.93760735
0000a0 93 a2 62 bf 0f 92 ae bf 3f fd 86 3f 70 e3 ad 3f
       -0.8852932 -1.3638324 1.0546035 1.3585033
0000b0 6c 4d 90 3f b0 71 ee 3f 61 ce 58 3f 1f c7 e2 bf
       1.1273627 1.8628445 0.8468991 -1.7717017
0000c0 f4 70 69 3f 37 51 97 3f 50 3d 4f 3f 13 9c 89 bf
       0.9118798 1.182166 0.8095293 -1.0750755
0000d0 41 d4 87 3f 65 0e 58 bf 64 fb 4e bf ae c0 71 bf
       1.061165 -0.84396964 -0.8085234 -0.9443463
0000e0 49 64 f2 3f 03 40 4b bf e7 cb 72 3f 01 24 a1 3f
       1.8936855 -0.7939455 0.9484238 1.2589113
0000f0 26 d4 c5 bf 73 79 b3 bf 73 3f 84 3f 23 db 8e bf
       -1.5455368 -1.4021438 1.0331863 -1.1160625

exp_avg f4 [64, 8]
000000 21 60 c6 38 3c 26 c6 38 ac 33 cf 38 c6 8e 59 39
       9.459281e-05 9.4484974e-05 9.880154e-05 0.0002074792
000010 05 55 36 39 82 e9 2e b5 b2 a8 03 3a fe f2 96 39
       0.00017388545 -6.515985e-07 0.0005022391 0.00028791273
000020 6f 46 80 37 de 81 61 37 82 66 37 37 2d c9 0a 38
       1.5291587e-05 1.3441282e-05 1.0931517e-05 3.3089123e-05
000030 83 7e 97 37 22 f9 59 34 64 14 92 38 49 72 23 38
       1.8059514e-05 2.0300334e-07 6.9656206e-05 3.8968665e-05
000040 b3 7f fb b8 00 12 f3 b8 01 1c f3 b8 a5 dd 8d b9
       -0.000119923985 -0.00011590496 -0.00011592359 -0.00027058754
000050 20 be 6e b9 44 bb 46 34 ac 53 2f ba ed c3 c7 b9
       -0.00022768276 1.8508314e-07 -0.00066881883 -0.00038102214
000060 5e 6e fb b8 8b 53 fe b8 e8 fd 03 b9 ae 59 4a b9
       -0.0001198917 -0.00012127225 -0.00012587721 -0.0001929763
000070 64 68 12 b9 49 34 8b b4 86 62 e2 b9 f6 97 87 b9
       -0.00013962534 -2.592881e-07 -0.00043179485 -0.00025862426
000080 63 fe 88 38 27 75 89 38 e1 cd 8e 38 56 fe dd 38
       6.5323686e-05 6.5544904e-05 6.8094356e-05 0.00010585475
000090 25 07 ef 38 de 4d ef 34 65 46 98 39 fa 14 26 39
       0.00011397739 4.4573875e-07 0.00029044147 0.00015838808
0000a0 38 ce 40 b8 1c 81 29 b8 47 61 17 b8 cb 23 26 b9
       -4.5968423e-05 -4.0412982e-05 -3.6091802e-05 -0.00015844328
0000b0 52 07 22 b9 f3 cd 0e 34 1a 24 da b9 67 fa 66 b9
       -0.00015452251 1.3299704e-07 -0.00041607098 -0.00022027791
0000c0 d1 f6 0e b9 a0 b7 0d b9 3d 1a 0e b9 be 9c 86 b9
       -0.00013634122 -0.00013515214 -0.0001355195 -0.00025675254
0000d0 c0 a3 33 b9 3b a1 31 b5 b2 a8 0c ba 77 ba af b9
       -0.00017131772 -6.617226e-07 -0.0005365714 -0.00033517528
0000e0 9d f1 11 b8 7c 38 01 b8 96 ab e8 b7 71 73 e6 b8
       -3.4795714e-05 -3.0808602e-05 -2.7736456e-05 -0.00010988757
0000f0 b5 91 d5 b8 ba 3f c8 33 a5 b1 98 b9 06 29 25 b9
       -0.000101837715 9.3248175e-08 -0.00029124055 -0.00015750909
000100 5c 94 ac 38 53 f5 ae 38 f2 e6 b9 38 56 f4 23 39
       8.229233e-05 8.342662e-05 8.864504e-05 0.00015635914
000110 6c b4 0d 39 0f d8 cf b3 07 bc c6 39 03 52 6f 39
       0.0001351402 -9.6784895e-08 0.00037905594 0.00022823368
000120 26 b3 5e b8 04 12 53 b8 53 e0 4a b8 8b 54 f0 b8
       -5.309577e-05 -5.03231e-05 -4.836947e-05 -0.00011459839
000130 31 eb b8 b8 39 b3 9b b3 27 31 8f b9 f1 c0 23 b9
       -8.8176115e-05 -7.2503504e-08 -0.00027311707 -0.00015616768
000140 a1 f0 1d b7 ac 10 01 b7 84 fd cc b6 24 ed fd b7
       -9.413955e-06 -7.692881e-06 -6.109187e-06 -3.0270377e-05
000150 11 19 01 b8 54 67 9f b2 0a 73 bc b8 b7 fd 48 b8
       -3.077934e-05 -1.8557024e-08 -8.985966e-05 -4.7920006e-05
000160 91 4a 89 b8 c5 54 80 b8 22 e6 7d b8 5e 49 62 b9
       -6.546558e-05 -6.119305e-05 -6.053423e-05 -0.00021580371
000170 a5 3b 53 b9 a9 1f 41 35 d4 23 11 ba c9 26 9c b9
       -0.00020144747 7.1944174e-07 -0.000553665 -0.00029783536
000180 6f 0a ff b8 a4 78 05 b9 13 63 10 b9 d4 f3 37 b9
       -0.00012161291 -0.0001272881 -0.00013769818 -0.00017543073
000190 45 fc d6 b8 ca 30 ea 33 8b 61 b8 b9 a1 94 70 b9
       -0.00010251304 1.0905349e-07 -0.0003516789 -0.00022943552
0001a0 34 39 6a b8 69 6c 5a b8 1c ca 50 b8 1e d7 18 b9
       -5.5843222e-05 -5.2076215e-05 -4.9779293e-05 -0.00014575987
0001b0 f7 4d 08 b9 fe 00 3e 33 a2 ac c2 b9 51 fe 53 b9
       -0.00012999015 4.4238725e-08 -0.00037131185 -0.00020217268
0001c0 25 03 72 39 9d 5a 6f 39 8c 2a 6f 39 5d 33 e6 39
       0.0002308009 0.00022826572 0.00022808666 0.00043907287
0001d0 e0 20 9e 39 84 6a 97 35 e0 5d 74 3a e5 e9 16 3a
       0.00030160602 1.1281377e-06 0.000932185 0.0005756899
0001e0 6a 47 80 39 6d bc 7e 39 1f f5 7f 39 9a 68 eb 39
       0.0002446727 0.00024293522 0.0002441001 0.00044900627
0001f0 c6 3c 96 39 2e 00 83 35 e8 1b 75 3a ea d5 18 3a
       0.0002865551 9.760313e-07 0.00093501667 0.00058302155
000200 8f c5 6e b8 4b 9e 81 b8 9f db 8f b8 90 ef 8c b8
       -5.6927613e-05 -6.180684e-05 -6.859679e-05 -6.720342e-05
000210 57 7f 88 b7 1e de 4b b3 9d 39 af b8 12 4c 98 b8
       -1.627176e-05 -4.7466635e-08 -8.3553816e-05 -7.262094e-05
000220 56 9f 4b 38 f5 c1 4e 38 e5 4b 54 38 9f 09 a4 38
       4.8547365e-05 4.9294864e-05 5.061542e-05 7.8219215e-05
000230 a0 18 1c 38 f8 c7 5e 34 67 03 16 39 28 fb c8 38
       3.7216232e-05 2.074811e-07 0.00014306382 9.583525e-05
000240 4b b9 8f b7 29 93 74 b7 84 fe 69 b7 92 8d b6 b8
       -1.7133212e-05 -1.4577797e-05 -1.3947141e-05 -8.704806e-05
000250 b7 2f cc b8 7c 21 00 35 44 89 81 b9 be 95 fb b8
       -9.7363656e-05 4.773244e-07 -0.00024707068 -0.00011996504
000260 10 c4 ae 38 c9 44 af 38 58 18 b3 38 1a f6 fa 38
       8.333486e-05 8.3574625e-05 8.5399195e-05 0.00011966769
000270 02 e3 43 38 b5 aa d7 33 c3 07 74 39 11 c4 28 39
       4.670304e-05 1.0042769e-07 0.00023272545 0.00016094769
000280 60 d5 01 37 81 6e fa 36 b6 aa f2 36 d2 68 de 37
       7.738679e-06 7.463445e-06 7.2320354e-06 2.6513273e-05
000290 fa 0e c2 37 d6 0c 0e 34 0d fb 65 38 35 9e fb 37
       2.3133576e-05 1.322945e-07 5.4831664e-05 2.9995203e-05
0002a0 0e 1f 03 b9 39 9f 01 b9 8c c0 04 b9 43 2b 86 b9
       -0.00012504702 -0.00012361714 -0.0001266023 -0.00025590704
0002b0 44 8c 56 b9 f5 69 6b 34 b9 51 20 ba b7 36 b8 b9
       -0.00020460883 2.1924627e-07 -0.0006115693 -0.0003513598
0002c0 3a d1 d1 b8 12 8c d1 b8 7d 69 d5 b8 b3 29 4d b9
       -0.00010004868 -9.991987e-05 -0.0001017628 -0.00019565858
0002d0 be 81 07 b9 ce 5d f3 b3 17 16 d6 b9 d1 b2 85 b9
       -0.00012922936 -1.1332632e-07 -0.0004083372 -0.00025500965
0002e0 fd 27 9c b8 93 ec 98 b8 af 11 9c b8 3b 48 35 b9
       -7.446108e-05 -7.29199e-05 -7.4419535e-05 -0.00017288413
0002f0 f6 08 1c b9 16 0e 52 34 2a 1e de b9 50 a3 7c b9
       -0.00014880658 1.9562899e-07 -0.00042365614 -0.00024093431
000300 dc 1a 5a 39 f5 04 58 39 d5 6e 58 39 61 ff c8 39
       0.00020800106 0.00020601212 0.00020640653 0.00038337245
000310 ca 2b 81 39 d3 d8 3f 35 78 68 52 3a 9f 39 02 3a
       0.00024637423 7.1468565e-07 0.00080264313 0.00049676927
000320 a1 08 6c 39 34 1c 6a 39 12 fc 6a 39 fd be dc 39
       0.00022509928 0.00022326485 0.00022409883 0.00042103967
000330 72 ee 90 39 8e a9 7e 35 de c1 67 3a 4b 77 0f 3a
       0.00027643476 9.486911e-07 0.0008840839 0.0005472793
000340 3f d2 d9 37 86 7c f3 37 07 9b 07 38 13 e3 f0 36
       2.596632e-05 2.9025843e-05 3.233089e-05 7.1789923e-06
000350 0d 57 a2 b7 63 c1 8c 34 b8 92 dc b7 3b ea a2 35
       -1.9352441e-05 2.621774e-07 -2.6294365e-05 1.2138111e-06
000360 5a 19 20 b9 0f 99 22 b9 4a 7c 2a b9 2f 1c 8b b9
       -0.00015268233 -0.00015506543 -0.00016258765 -0.00026533144
000370 22 08 3b b9 07 9e 80 34 c1 ed 16 ba c2 b7 b9 b9
       -0.0001783674 2.3956838e-07 -0.0005757474 -0.0003542286
000380 aa e2 ba 38 59 20 b6 38 0c 82 bb 38 99 13 58 39
       8.9113906e-05 8.6844615e-05 8.941078e-05 0.00020606666
000390 7a a4 52 39 ec 77 be b4 9e 61 10 3a 55 d4 a0 39
       0.00020088433 -3.5477512e-07 0.000550771 0.00030675778
0003a0 d3 60 31 b8 eb b6 43 b8 8c cb 5a b8 b8 4f 22 b8
       -4.2290263e-05 -4.666198e-05 -5.2164818e-05 -3.8698054e-05
0003b0 0e 90 1c b7 65 06 8d b4 19 54 15 b8 29 4c 19 b8
       -9.331865e-06 -2.626795e-07 -3.560269e-05 -3.6548972e-05
0003c0 bf 6e ff b9 4e 51 fd b9 67 31 fe b9 63 f2 6a ba
       -0.00048719902 -0.00048316497 -0.00048483463 -0.000896251
0003d0 dc 59 16 ba d6 bb f2 b5 52 61 f6 ba 31 4d 98 ba
       -0.0005735436 -1.8085072e-06 -0.0018797314 -0.0011619685
0003e0 a6 e3 22 b8 b0 96 1e b8 3b 4e 20 b8 27 f3 a4 b8
       -3.8835824e-05 -3.7810474e-05 -3.821983e-05 -7.86542e-05
0003f0 d9 f1 84 b8 d9 1f 62 33 a9 8e 4f b9 68 09 ec b8
       -6.339298e-05 5.264869e-08 -0.00019794203 -0.00011255109
