results/longer_training/models/final_model.pt (torch, 201903 bytes, 30 tensors)

actor_net.0.weight f4 [64, 8]
0	0xbd80e246	-0.06293158
1	0xbe141218	-0.14460027
2	0x3e8187dd	0.25298968
3	0x3ebd45c5	0.36967292
4	0xbeac4c0f	-0.33651778
5	0x3f8e9315	1.1138636
6	0x3db589ee	0.088641986
7	0xbcb67a78	-0.022275195
8	0x3d8c1887	0.06840616
9	0x3e2f9e2f	0.17150186
10	0xbd5bf6ad	-0.053702045
11	0x3d9d435b	0.07678863
12	0xbea809d8	-0.3282001
13	0x3f23a16c	0.63918185
14	0x3e269c2e	0.16270515
15	0xbde183bf	-0.11011457
16	0x3d842caf	0.06453835
17	0xbe71b605	-0.23604591
18	0x3d99c21a	0.07507725
19	0x3e29b17b	0.1657161
20	0xbd999d13	-0.07500663
21	0xbf555a09	-0.8334051
22	0x3e2348a1	0.15945674
23	0xbde2458c	-0.11048421
24	0x3d4b90e1	0.049698714
25	0xbdab5ef6	-0.08367722
26	0x3c577147	0.013149566
27	0x3e55307e	0.2081928
28	0x3eb139de	0.34614462
29	0xbf4d5b40	-0.8021736
30	0xbdf7e969	-0.12105066
31	0xbdec9e69	-0.11553652
32	0x3e4b88cf	0.19876407
33	0x3d9cd18d	0.07657156
34	0xbe7b2c3d	-0.24528594
35	0x3d418fde	0.047256343
36	0x3b805320	0.0039161593
37	0x3f0daf29	0.553454
38	0xbecc00f7	-0.39844486
39	0x3eead072	0.45862156
40	0xbca6dd7e	-0.020369288
41	0xbe177f4e	-0.14794657
42	0xbcb9bd1d	-0.022673184
43	0xbe1b53f3	-0.15168743
44	0x3c5e5fdb	0.013572658
45	0xbf3a5a01	-0.72793585
46	0x3e5fff8c	0.21874827
47	0x3da4f3b5	0.08054296
48	0x3f02c035	0.51074535
49	0xbcde727f	-0.027154205
50	0x3ef4f9bd	0.47846785
51	0xbe26053f	-0.16212939
52	0xbda1f694	-0.07908359
53	0xbf5167d2	-0.8179904
54	0x3d8b3a54	0.067982346
55	0x3c7328d5	0.014841278
56	0xbe6c76e3	-0.23092227
57	0x3e3ff61e	0.1874623
58	0xbe536632	-0.20644453
59	0xbe616b85	-0.22013672
60	0x3ef48b5c	0.47762573
61	0xbf1c95bc	-0.61165977
62	0x3d510178	0.05102679
63	0xbe15f30e	-0.146435
64	0x3e606bc6	0.21916112
65	0xbe00e9f0	-0.1258924
66	0xbb4c2597	-0.0031150335
67	0xbebded6a	-0.37095195
68	0x3d963371	0.073340304
69	0x3f24606b	0.6420962
70	0xbedbdba9	-0.42941025
71	0x3c9af932	0.018917654
72	0xbe4a8c87	-0.1978017
73	0xbce7d6fd	-0.028300757
74	0x3dcbd273	0.099522494
75	0x3e2d514b	0.16925542
76	0x3e3513ca	0.1768333
77	0xbf4fb8de	-0.8114146
78	0xbe02e058	-0.12780893
79	0xbe4d7206	-0.20063028
80	0xbde81f90	-0.11334145
81	0xbde8f7f2	-0.11375417
82	0xbdfe2f36	-0.124113485
83	0xbe1c64a1	-0.15272762
84	0x3d00722a	0.031358875
85	0xbf4db5d8	-0.80355597
86	0xbeb2a2eb	-0.34889922
87	0xbda68709	-0.08131225
88	0x3d566b07	0.052348163
89	0xbde36869	-0.11103899
90	0xbdc8f088	-0.09811503
91	0xbe13009f	-0.14355706
92	0x3dd9d9ee	0.1063727
93	0xbf403ebe	-0.75095737
94	0x3df31445	0.118691005
95	0x3e488093	0.19580297
96	0xbd288145	-0.041138906
97	0xba9f0733	-0.0012132883
98	0x3cd3d7b4	0.025859691
99	0x3ef6ccc1	0.4820309
100	0x3eec8916	0.46198338
101	0xbed26db3	-0.4109932
102	0xbe28af35	-0.16473086
103	0xbb350d87	-0.002762647
104	0xbe57345e	-0.2101607
105	0x3d545c6f	0.051845964
106	0xbc91934f	-0.017770438
107	0xbe6af8c1	-0.22946455
108	0x3eb7d691	0.3590589
109	0xbf25011c	-0.6445482
110	0x3da1c1a5	0.07898263
111	0x3e6368ae	0.22207901
112	0xbe22d161	-0.15900184
113	0xbf2c0876	-0.6720041
114	0xbecf9b23	-0.40548047
115	0x3e899aa2	0.26875788
116	0xbd4ee6d3	-0.0505131
117	0x3f5c8c5f	0.8615169
118	0xbdbfdd4f	-0.09368383
119	0x3cb0b14d	0.021568919
120	0xbead226e	-0.3381533
121	0xbef6d052	-0.4820581
122	0xbf242517	-0.64119095
123	0xbdbbe89a	-0.091752246
124	0xbda0a358	-0.07843655
125	0x3f4b8598	0.7950072
126	0x3e088ddb	0.13335364
127	0xbd52b123	-0.051438462
128	0xbe044c60	-0.1291976
129	0x3e106a6a	0.14103094
130	0x3e76f5b6	0.24117169
131	0x3ea88892	0.32916695
132	0x3e5389fe	0.20658109
133	0xbe9dbfdb	-0.30810437
134	0xbe527c0a	-0.2055513
135	0xbd164c60	-0.03669393
136	0x3ceaeeca	0.028678317
137	0x3dd0ed59	0.102015205
138	0xbd8887f2	-0.066665545
139	0xbe0fe576	-0.14052376
140	0xbde8c485	-0.11365608
141	0x3f581982	0.8441392
142	0x3e377b79	0.17918195
143	0xbe2447a0	-0.16042948
144	0x3dceab52	0.100912705
145	0xbde95562	-0.113932386
146	0x3cd1db37	0.025617225
147	0xbec03eca	-0.37547904
148	0x3ed37586	0.413006
149	0xbeb6fc4f	-0.3573937
150	0x3dca4ac7	0.09877544
151	0xbdda2542	-0.106516376
152	0x3d61a995	0.055093367
153	0xbed7907b	-0.42102417
154	0xbf126fd2	-0.57201874
155	0xbd08c4fe	-0.03339099
156	0xbe3ab732	-0.18233946
157	0x3f6be5eb	0.921477
158	0x3eab69bc	0.33479106
159	0xbcb49153	-0.022041952
160	0x3d8c27cb	0.068435274
161	0x3d80e230	0.06293142
162	0x3d8fa12b	0.07013162
163	0x3f10aadb	0.56510705
164	0x3d859620	0.06522775
165	0x3f10962d	0.5647915
166	0x3d27f0d4	0.041001156
167	0xbdfd205e	-0.12359689
168	0x3e146160	0.1449027
169	0xbe4b6e68	-0.19866335
170	0xbac04808	-0.0014669904
171	0x3cc50692	0.024050985
172	0x3de1b7dd	0.11021397
173	0xbf5be251	-0.85892206
174	0x3ce7d420	0.028299391
175	0xbcbc8538	-0.023012742
176	0xbcb19b1f	-0.021680413
177	0x3db24bb3	0.08705845
178	0x3f09abf1	0.53777987
179	0x3d315ca8	0.043301255
180	0xbe0c41c7	-0.13696967
181	0xbf82075d	-1.0158497
182	0x3dd13f71	0.102171786
183	0x3dcd9513	0.10038199
184	0xbe80b093	-0.25134715
185	0x3e068732	0.1313751
186	0x3c39455b	0.01130804
187	0xbe559c3c	-0.2086038
188	0xbddaf95b	-0.10692092
189	0xbf5bb62f	-0.85824865
190	0xbcca53ef	-0.024698226
191	0x3d52c687	0.05145886
192	0xbe01578e	-0.12631056
193	0xbe111bee	-0.1417081
194	0xbf36b8ea	-0.71375906
195	0x3dcc0e4f	0.09963667
196	0x3ce1d0f1	0.027565451
197	0x3f6c89d1	0.9239779
198	0x3e42838b	0.18995492
199	0xbe6080a2	-0.2192407
200	0xbec94a91	-0.39314702
201	0xbed719eb	-0.4201196
202	0xbeeba88c	-0.4602703
203	0xbe0d02d2	-0.13770607
204	0xbdff8b8a	-0.12477787
205	0x3f5bcbfd	0.85858136
206	0x3e221f7e	0.15832326
207	0xbd64a90d	-0.055825282
208	0x3e09dbaa	0.13462701
209	0xbd977374	-0.07395068
210	0xbe38e0a9	-0.18054451
211	0xbe2354ad	-0.1595027
212	0x3dd85d48	0.10564667
213	0x3e9f64a2	0.31131464
214	0x3e4b3455	0.19844182
215	0xbe1e28a9	-0.15445198
216	0xbd9660cf	-0.073426835
217	0xbd498f68	-0.04920903
218	0x3d1129f6	0.035440408
219	0x3ee146ec	0.43999422
220	0xbe54406c	-0.207277
221	0xbf8db043	-1.1069416
222	0xbd51d90a	-0.051232375
223	0x3e0d3b97	0.13792263
224	0x3c9dad24	0.019247599
225	0x3e7758b9	0.24154939
226	0xbe295e86	-0.16539964
227	0xbd2e511b	-0.042557817
228	0xbc862f0c	-0.016379856
229	0x3f38de5c	0.72214293
230	0xbe82386c	-0.2543367
231	0xbe562dd7	-0.20915924
232	0x3e24736f	0.1605966
233	0xbbe41b30	-0.006961249
234	0x3e0b3466	0.13594207
235	0x3dd5715a	0.10422011
236	0xbe2f3ea3	-0.17113738
237	0xbee5e439	-0.44900683
238	0xbeb8103b	-0.35949883
239	0xbde496b8	-0.1116156
240	0x3ef9b3ec	0.48770082
241	0x3ed11411	0.40835622
242	0x3f41aab6	0.7565111
243	0xbc638c7a	-0.013888473
244	0x3e2bc477	0.16774164
245	0xbf9d7360	-1.2300835
246	0xbe787abd	-0.24265571
247	0xbcb6c6ae	-0.022311535
248	0xbe827ef9	-0.25487497
249	0xbd61a131	-0.055085365
250	0x3e5b1920	0.21396303
251	0x3d043eb5	0.032286365
252	0x3e6965f0	0.22792792
253	0xbe8a2251	-0.26979306
254	0x3d6957af	0.056968387
255	0x3dedbdc6	0.11608462

actor_net.0.bias f4 [64]
0	0x3de1eb2f	0.11031186
1	0x3d802fcb	0.06259116
2	0xbdcbd530	-0.09952772
3	0xbdbf9899	-0.093552776
4	0x3d40a0c8	0.047028333
5	0xbdbeb32f	-0.0931152
6	0xbdf03b80	-0.11730099
7	0xbdd9ec55	-0.1064078
8	0x3dd387f0	0.103286624
9	0xbdac5559	-0.08414716
10	0xbe0a72a8	-0.135203
11	0xbdcc9f3f	-0.09991311
12	0xbda2e9f9	-0.07954783
13	0xbdaaaf4d	-0.08334217
14	0x3e116f7c	0.14202684
15	0x3e3bb729	0.18331589
16	0xbdb676d2	-0.08909382
17	0x3db4043d	0.08789871
18	0xbd41a41a	-0.04727564
19	0x3d621e4d	0.05520468
20	0x3e09497b	0.13406937
21	0xbdd734f6	-0.10508148
22	0xbdf0b5fd	-0.117534615
23	0xbde9aead	-0.1141027
24	0x3dc25eaf	0.09490716
25	0x3e0c4488	0.13698018
26	0x3da3acb4	0.07991925
27	0xbde336f2	-0.11094464
28	0x3dd6e244	0.104923755
29	0xbde8a3ad	-0.11359344
30	0xbde44edb	-0.11147853
31	0xbdc50e95	-0.09621922
32	0x3dee08d2	0.11622776
33	0x3df187cd	0.1179348
34	0x3b957729	0.004561324
35	0x3e002465	0.12513883
36	0xbdc93f54	-0.09826532
37	0x3d9a6802	0.07539369
38	0xbe04d7e4	-0.1297298
39	0xbe07a2a1	-0.13245632
40	0x3e66e028	0.22546446
41	0x3dae714f	0.08517706
42	0xbdde34a7	-0.108498864
43	0x3db51426	0.08841734
44	0x3e01ea38	0.12687004
45	0x3dc6c048	0.097046435
46	0x3dbeb4fc	0.09311864
47	0xbde9dceb	-0.1141909
48	0x3e2ff7ca	0.17184368
49	0x3af186ab	0.0018426975
50	0xbd448178	-0.047975034
51	0x3dce0a9e	0.10060619
52	0xbe09c109	-0.13452543
53	0xbde708b0	-0.11280954
54	0xbdc41687	-0.09574609
55	0x3dd0e1c3	0.10199311
56	0xbe4abb82	-0.19798091
57	0xbe39f556	-0.18159994
58	0x3df90477	0.12159055
59	0xbe21d56c	-0.1580407
60	0xbde1e798	-0.11030501
61	0x3dd2529d	0.102696635
62	0xbde26822	-0.11055018
63	0x3e79548e	0.24348661

actor_net.2.weight f4 [64, 64]
0	0x3e54d3d8	0.20783937
1	0x3ba22422	0.004948155
2	0xbee61cfa	-0.44943982
3	0xba8e525d	-0.0010858286
4	0x3ebd9368	0.37026525
5	0xbf073aa6	-0.52823865
6	0xbe0b75f4	-0.13619214
7	0x3d658ce9	0.056042586
8	0x3e9adaff	0.30245206
9	0xbc3ddcca	-0.011588285
10	0xbd8648fe	-0.06556891
11	0xbe9b487b	-0.30328736
12	0xbe351b20	-0.17686129
13	0xbe1aa176	-0.15100655
14	0xbe47d34c	-0.19514197
15	0x3e6a4ba3	0.22880416
16	0x3e93c74f	0.28862998
17	0xbe2b880b	-0.16751115
18	0xbe1cf819	-0.15329017
19	0xbe4fc334	-0.20289308
20	0x3e0a66dc	0.135158
21	0x3e066713	0.13125257
22	0x3da8e979	0.082476564
23	0x3d4ba621	0.04971898
24	0x3e4979dd	0.19675393
25	0xbe458cfd	-0.19292064
26	0xbe21f3f3	-0.15815715
27	0xbea48ee0	-0.32140255
28	0xbc640af7	-0.01391863
29	0x3e69a003	0.22814946
30	0xbd9b4daf	-0.07583176
31	0x3e726024	0.23669487
32	0x3d8a4c18	0.06752795
33	0x3e0009ae	0.12503693
34	0x3d9b2cb0	0.07576883
35	0xbb2883ef	-0.0025713404
36	0x3e316af6	0.17325959
37	0xbe81aabd	-0.25325575
38	0xbdb1272a	-0.08650048
39	0xbe5e8c8f	-0.21733306
40	0xbea716ee	-0.3263468
41	0x3e1c9f53	0.15295152
42	0xbe870b62	-0.26375872
43	0xbe2fe7a9	-0.17178215
44	0xbdc953d0	-0.09830439
45	0x3e845d7b	0.2585257
46	0x3dab7141	0.08371211
47	0xbe39803a	-0.18115321
48	0x3e7f8fa6	0.24957141
49	0x3e8b845e	0.27249426
50	0x3d6ccbc2	0.057811506
51	0x3dbb27a2	0.09138419
52	0x3e0b6200	0.13611603
53	0x3e5d8869	0.21634068
54	0xbe57d169	-0.21075977
55	0x3d0ecfef	0.03486627
56	0x3dc75e23	0.09734752
57	0x3da21d65	0.07915763
58	0x3ddba2b0	0.107243896
59	0xbea1ed5d	-0.31626406
60	0xbe1eb3c3	-0.15498261
61	0x3e51e7c8	0.20498574
62	0xbbed1972	-0.0072356993
63	0x3e315b4b	0.17319982
64	0xbb618cbd	-0.0034416162
65	0x3e92814a	0.28614265
66	0xbcf3aad3	-0.029744541
67	0x3eee68cd	0.46564332
68	0x3e066316	0.13123736
69	0xbdfc8caf	-0.12331521
70	0x3e8b3af0	0.27193403
71	0xbd6d9479	-0.058002923
72	0x3ce215e6	0.027598333
73	0x3e5e0468	0.21681368
74	0x3cdc61eb	0.02690216
75	0x3f0c02fc	0.54692054
76	0x3d89e1cc	0.067325205
77	0xbc94869b	-0.018130591
78	0xbd9668fb	-0.07344242
79	0xbeba2375	-0.36355177
80	0x3ea6686e	0.3250155
81	0xbe1cd44d	-0.15315361
82	0x3e8bbbe9	0.27291802
83	0xbe931b7d	-0.2873191
84	0x3e13d495	0.14436562
85	0x3e011053	0.12603883
86	0x3e1d0e8e	0.15337583
87	0x3e94bf29	0.29052094
88	0xbe5bac60	-0.21452475
89	0xbe97d6e5	-0.2965614
90	0x3e271266	0.16315612
91	0x3e59167b	0.21199982
92	0xbe07c2b1	-0.13257863
93	0xbec80098	-0.39062953
94	0x3dc48835	0.09596292
95	0x3e48b7f8	0.19601429
96	0xbca6fe48	-0.020384923
97	0xbd67e964	-0.056619063
98	0xbe2abaec	-0.16672868
99	0xbe4858e2	-0.19565156
100	0x3e69f632	0.22847822
101	0x3df68d22	0.12038638
102	0x3e06f167	0.13178025
103	0x3e381488	0.17976582
104	0x3bd7dd99	0.006587696
105	0x3dbb4dea	0.0914572
106	0x3e81361a	0.2523659
107	0xbc3319c5	-0.010931437
108	0xbc8cad85	-0.017172584
109	0x3e2e6ded	0.17034121
110	0xbe8e2bff	-0.2776794
111	0xbdcefdd7	-0.1010701
112	0x3e5f0abe	0.21781442
113	0xbd6e7160	-0.05821359
114	0x3e28fb64	0.16502148
115	0x3d49d484	0.049274936
116	0x3e3a3581	0.18184473
117	0x3e491a65	0.19638975
118	0xbce0e378	-0.027452216
119	0xbe3c2c5b	-0.18376295
120	0x3cc6197b	0.024182072
121	0xbd90ea72	-0.07075967
122	0xbde3f1b3	-0.11130085
123	0x3f13c1bd	0.57717496
124	0x3db31ba7	0.08745509
125	0x3e4d5559	0.20052089
126	0xbe0126cc	-0.12612456
127	0xbe071480	-0.13191414
128	0x3df5c7bc	0.12000987
129	0x3e3cd1e1	0.18439437
130	0x3d34f11f	0.044175263
131	0xbd8ac653	-0.067761086
132	0x3e438942	0.19095328
133	0xbe2d319b	-0.16913454
134	0x3e698b35	0.2280701
135	0xbe327de8	-0.17430842
136	0x3eb89329	0.36049774
137	0x3def1414	0.116737515
138	0xbe233886	-0.1593953
139	0xbe15f641	-0.1464472
140	0xbdd05f88	-0.10174471
141	0xbd4f9395	-0.050677855
142	0x3d2ecbc3	0.04267479
143	0xbc24c7bb	-0.010057385
144	0x3e33dc36	0.17564473
145	0x3ae3257a	0.0017329894
146	0xbe2e9876	-0.17050347
147	0xbd4162ca	-0.047213353
148	0xbe5a13be	-0.21296594
149	0xbd547529	-0.051869545
150	0xbe3b7aa9	-0.1830851
151	0x3e961fe4	0.29321206
152	0x3eafa10c	0.34302557
153	0x3ea3b647	0.31975004
154	0xbe62f148	-0.22162354
155	0x3c8daa35	0.017293075
156	0x3e446cc0	0.1918211
157	0x3de6531f	0.11246323
158	0xbe832887	-0.25616857
159	0xbe884741	-0.26616862
160	0x3da9a564	0.08283499
161	0x3e9e50db	0.30921063
162	0x3d96699b	0.073443614
163	0x3ed0fd88	0.4081843
164	0x3e435e9c	0.1907906
165	0x3d4d0d14	0.0500613
166	0x3e3e7d0a	0.18602386
167	0x3dcd2810	0.10017407
168	0x3e87e3ce	0.2654099
169	0x3e3115f0	0.17293525
170	0xbec9ff1c	-0.39452446
171	0x3eb235eb	0.3480676
172	0x3eb606a5	0.35551944
173	0x3e426bb4	0.18986398
174	0x3ebb5421	0.36587623
175	0xbdcd27b6	-0.1001734
176	0xbdfe6274	-0.12421122
177	0x3dcfb1e3	0.10141351
178	0x3a148d30	0.00056667905
179	0x3cfbd6d6	0.03074209
180	0x3d12c679	0.03583381
181	0x3e00674f	0.12539409
182	0xbd5e2636	-0.05423566
183	0x3d8fd89c	0.07023737
184	0xbd371215	-0.04469498
185	0xbe16e779	-0.14736737
186	0x3e66244c	0.22474784
187	0xbd3f7d99	-0.04675064
188	0x3e871d6e	0.2638964
189	0x3e4b4270	0.19849563
190	0xbe83b42b	-0.25723395
191	0x3ed2aab5	0.41145864
192	0xbe620c44	-0.22074991
193	0xbd8548de	-0.06508039
194	0x3d7fee20	0.062482953
195	0xbd6400e0	-0.055664897
196	0x3d2ac8a9	0.04169527
197	0x3df287dc	0.11842319
198	0x3e18e6d3	0.14931802
199	0xbd331a4c	-0.04372625
200	0xbed19cc0	-0.40939903
201	0x3dd59f21	0.10430742
202	0x3b9f3310	0.004858382
203	0x3e3d1b67	0.18467484
204	0x3e51a390	0.2047255
205	0x3e28f971	0.16501404
206	0xbe6db4ab	-0.2321345
207	0xbef4c5e3	-0.47807226
208	0x3e606ad6	0.21915755
209	0x3e69f13c	0.2284593
210	0xbe353a95	-0.17698129
211	0xbe87155b	-0.2638348
212	0xbe8f7cd1	-0.28024915
213	0x3d43e055	0.04782136
214	0x3edd1e06	0.4318697
215	0xbb86ac15	-0.0041098692
216	0x3b95355f	0.0045534815
217	0xbed45ba6	-0.41476172
218	0xbe89b44f	-0.26895377
219	0x3d78628e	0.060640864
220	0xbc9e2b2f	-0.0193077
221	0xbe9334f2	-0.28751332
222	0x3ef4182b	0.4767469
223	0x3dfa2c42	0.12215473
224	0x3eaa9df5	0.33323637
225	0xbe68a876	-0.22720513
226	0x3e1437c5	0.144744
227	0xbbbfd735	-0.005854512
228	0x3ee86e20	0.4539652
229	0xbcb42221	-0.02198893
230	0xbe8fbf33	-0.2807556
231	0x3dca56d1	0.0987984
232	0xbebbd36e	-0.36684746
233	0xbd86fc73	-0.065911196
234	0x3df4d7b6	0.11955206
235	0x3dae8b6d	0.08522687
236	0x3e9a5dde	0.3014974
237	0xbdb94d28	-0.090479195
238	0xbdbeebea	-0.09322341
239	0x3e4d796f	0.20065854
240	0xbe8b71be	-0.27235216
241	0xbdc48b02	-0.09596826
242	0x3e3c7d72	0.18407229
243	0xbe8943dd	-0.26809588
244	0x3d889a78	0.066700876
245	0x3e58f088	0.21185505
246	0x3e59c037	0.2126473
247	0x3de4017b	0.11133095
248	0x3e6a2786	0.2286664
249	0x3e1f4555	0.15553792
250	0x3c81dc4b	0.015852114
251	0x3ed247e7	0.41070482
252	0xbd24dcdc	-0.04024969
253	0xbdde269d	-0.10847209
254	0xbc678553	-0.014130908
255	0x3da706cd	0.08155594

actor_net.2.bias f4 [64]
0	0x3e0233b4	0.12715036
1	0xbddc686d	-0.10762105
2	0x3e053957	0.13010155
3	0xbdd0528f	-0.10171997
4	0xbdf83c2d	-0.121208526
5	0x3dd2815c	0.102785796
6	0x3e9bd51d	0.3043603
7	0xbe11ea60	-0.14249563
8	0xbdcdb758	-0.10044736
9	0x3e097d1f	0.13426636
10	0x3e110f58	0.1416601
11	0xbecc593d	-0.39911833
12	0x3de6c3cd	0.11267815
13	0x3e2065e9	0.15663876
14	0xbda65fe1	-0.08123756
15	0xbe07ad9d	-0.13249822
16	0x3d3bcf13	0.04585178
17	0xbddb6597	-0.10712736
18	0xbe035ece	-0.12829134
19	0x3e8e3d76	0.27781266
20	0xbe965b64	-0.293666
21	0x3dd60a8b	0.1045123
22	0xbe35e49f	-0.17762993
23	0x3de78edb	0.113065444
24	0x3dd873d4	0.105689675
25	0xbe0750f0	-0.13214469
26	0x3dbdcd43	0.09267666
27	0xbdf75acf	-0.12077867
28	0xbe44c490	-0.19215608
29	0x3e3cf2d5	0.18452008
30	0xbed40878	-0.4141271
31	0x3dd0ad00	0.10189247
32	0x3db198f9	0.08671755
33	0x3dd11348	0.10208756
34	0x3de05103	0.10952952
35	0x3e00ca2a	0.1257712
36	0xbdccff3b	-0.10009619
37	0xbe165a03	-0.14682774
38	0x3e1e2779	0.15444745
39	0x3e001f20	0.12511873
40	0x3e04bf4e	0.12963602
41	0x3df93020	0.12167382
42	0x3de4b479	0.11167235
43	0xbdc2980d	-0.09501658
44	0xbe29236d	-0.1651742
45	0x3e962c51	0.29330686
46	0xbdfaf459	-0.12253637
47	0x3e26657f	0.16249655
48	0xbea33968	-0.31879735
49	0x3df84fbb	0.121245824
50	0x3e04fb7d	0.1298656
51	0x3e36f758	0.17867792
52	0x3ddeb84c	0.108749956
53	0xbe32ae61	-0.17449333
54	0x3e6d31d2	0.23163536
55	0xbe14de4a	-0.14537922
56	0xbe00a325	-0.12562235
57	0xbe2e4210	-0.17017388
58	0x3ddebb08	0.10875517
59	0x3df529b5	0.119708456
60	0xbe16373c	-0.14669508
61	0x3e0fa57a	0.14027968
62	0x3e0b4623	0.13600974
63	0x3dcaca1d	0.09901831

actor_mean.weight f4 [1, 64]
0	0xbdfdcb02	-0.12392236
1	0x3e1b5102	0.15167621
2	0xbe495412	-0.19660977
3	0x3e91b85d	0.2846097
4	0x3e561543	0.20906548
5	0xbe984e96	-0.29747456
6	0xbe007552	-0.12544754
7	0x3eadaa7d	0.33919135
8	0x3e5a5f38	0.21325386
9	0xbe2de632	-0.16982344
10	0xbe22eb39	-0.15910043
11	0x3e081fa5	0.13293321
12	0xbeac503e	-0.3365497
13	0xbea77386	-0.32705325
14	0x3e94a055	0.29028574
15	0x3dcddaa2	0.100514665
16	0xbe4999e3	-0.1968761
17	0x3e986832	0.29766995
18	0x3eb0cf83	0.3453332
19	0xbe061f4d	-0.13097878
20	0x3dca6ded	0.09884248
21	0xbe0907d1	-0.13381888
22	0x3e29571e	0.16537139
23	0xbe87fa93	-0.2655836
24	0xbea53f58	-0.3227489
25	0x3e97f1e3	0.29676732
26	0xbe6cb86b	-0.23117225
27	0x3ea68b61	0.32528213
28	0x3e0c2bb7	0.13688551
29	0xbddf25c3	-0.10895874
30	0x3dcd15b9	0.10013909
31	0xbdb6ebba	-0.0893168
32	0xbe5df8d7	-0.21676956
33	0xbe89f389	-0.26943615
34	0xbe9c2fbc	-0.30505168
35	0xbe2b321f	-0.16718338
36	0x3e37c5a0	0.17946482
37	0x3d7cbad3	0.061701607
38	0xbe0d7213	-0.13813047
39	0xbe8bb371	-0.2728534
40	0xbeb461a7	-0.35230753
41	0xbe8bb1f7	-0.27284214
42	0xbeafe622	-0.34355265
43	0x3e518fd4	0.20465022
44	0x3e0ddb99	0.13853301
45	0xbdfcdf2a	-0.12347253
46	0x3e9c50bf	0.30530354
47	0xbe0a4c39	-0.13505639
48	0x3dfb45ec	0.12269196
49	0xbedbd3b1	-0.42934945
50	0xbee56108	-0.4480059
51	0xbe15fc9d	-0.14647146
52	0xbe54f807	-0.2079774
53	0x3e07d23a	0.13263789
54	0xbdfedf58	-0.12444943
55	0x3ea463a1	0.3210726
56	0x3e26ba13	0.16281919
57	0x3e07bc8a	0.13255516
58	0xbeb8ea57	-0.36116287
59	0xbe8c2aec	-0.27376497
60	0x3e890b37	0.2676637
61	0xbee7bf2f	-0.4526305
62	0xbe4c81f1	-0.19971444
63	0xbdec8e75	-0.11550609

critic_net.0.weight f4 [64, 8]
0	0x3d248294	0.04016359
1	0x3d5ba1a6	0.053620957
2	0x3e0ffcdc	0.14061302
3	0x3c3b6723	0.011438164
4	0x3daddef8	0.084897935
5	0x3fc1c204	1.5137334
6	0x3e16a812	0.14712551
7	0xbdd99b0b	-0.10625275
8	0xbc3465ca	-0.0110105965
9	0xbef6f643	-0.48234758
10	0xbe218a65	-0.1577545
11	0x3cae4587	0.021273388
12	0xbf61a6f2	-0.88145363
13	0xbfcd1781	-1.6022798
14	0xbd8e9cbb	-0.06963488
15	0xbf2a92e7	-0.66630405
16	0x3eba7cf6	0.36423463
17	0x3e038927	0.12845288
18	0x3eff302b	0.49841437
19	0xbd2aae8b	-0.041670363
20	0xbe1bc4fd	-0.15211864
21	0xbc5ee323	-0.013603958
22	0xbe90cf39	-0.28283098
23	0x3e2564ed	0.16151781
24	0x3efe7566	0.49698943
25	0x3edacdbf	0.42735097
26	0x3f03cd62	0.51485264
27	0xbdc52e5e	-0.096279845
28	0xbed350b2	-0.41272503
29	0xbe75aaca	-0.23990932
30	0x3e9554a4	0.29166138
31	0xbeb749f6	-0.35798615
32	0x3db3cc52	0.087792054
33	0x3e45a730	0.19302058
34	0x3e4950f5	0.19659789
35	0x3e02e26e	0.12781689
36	0x3e847177	0.25867817
37	0x3fb350ff	1.4009093
38	0x3e423bf1	0.18968178
39	0x3ecdd6bb	0.4020289
40	0x3e86781e	0.26263517
41	0x3d72a795	0.05924185
42	0x3d476e1e	0.048689
43	0xbddd39a6	-0.10802011
44	0xbf8b4f3a	-1.0883553
45	0x3e029eb6	0.12755856
46	0xbe554a00	-0.2082901
47	0xbcfe22e9	-0.031022506
48	0x3ce26708	0.02763702
49	0x3d94b7ee	0.07261644
50	0x3de388ad	0.11110053
51	0x3ce178c3	0.027523404
52	0xbf937ba4	-1.1522107
53	0x3eb01015	0.3438727
54	0xbda7c8e9	-0.081926174
55	0xbd5faacb	-0.05460624
56	0x3d3848f8	0.044991463
57	0xbe6db654	-0.23214084
58	0xbe392ccc	-0.18083495
59	0xbe9b6dbe	-0.30357164
60	0xbe8fd1a2	-0.28089625
61	0xbfc840ff	-1.5644835
62	0xbde59dca	-0.112117365
63	0xbe1e9e57	-0.1549009
64	0x3f0bed39	0.5465885
65	0x3e3c0672	0.18361834
66	0xbcc27ebe	-0.023742076
67	0xbdb9e8a1	-0.090775736
68	0xbe749fc6	-0.23889074
69	0xbf863706	-1.0485542
70	0x3eed5823	0.46356305
71	0x3e22b9a0	0.15891123
72	0xbe3f573c	-0.18685621
73	0x3e87bff4	0.26513636
74	0xbcc2780c	-0.023738883
75	0x3d5d3399	0.054004285
76	0xbebc4272	-0.36769444
77	0x3fc5c513	1.5450767
78	0xbf6a5f84	-0.91551995
79	0xbcfde7d2	-0.03099433
80	0x3d901b2b	0.07036432
81	0xbe9c0c06	-0.30477923
82	0xbe85a63a	-0.26103383
83	0xbe8a5c77	-0.2702367
84	0xbf3868a8	-0.7203469
85	0xbfd1e9ee	-1.6399515
86	0xbe55d0a7	-0.20880376
87	0xbe23f8cc	-0.16012877
88	0xbf16ea9e	-0.5895175
89	0xbee2fe4f	-0.44334647
90	0xbf2cafa7	-0.67455524
91	0xbea4d94e	-0.3219704
92	0x3e927aec	0.28609407
93	0x3f2e30f7	0.68043464
94	0x3eb7d1cc	0.3590225
95	0x3d202bb5	0.039104182
96	0x3eeb865c	0.46000946
97	0x3f059235	0.5217622
98	0x3dc9e302	0.098577514
99	0x3c45435b	0.012039985
100	0xbe9c7f8b	-0.30566058
101	0xbf185662	-0.5950681
102	0xbe16d404	-0.14729315
103	0x3dcf93c2	0.101356044
104	0x3e709734	0.2349518
105	0x3ec46148	0.3835547
106	0x3eaa29b6	0.33234948
107	0xbe239503	-0.15974812
108	0xbdbe1f77	-0.09283345
109	0xbf9561c4	-1.1670461
110	0x3e951db4	0.29124224
111	0xbd32818b	-0.043580573
112	0xbc6c732e	-0.014431758
113	0x3cab86b6	0.020938259
114	0xbc3c55aa	-0.011495033
115	0x3e2d8947	0.16946898
116	0xbf494d77	-0.78633827
117	0x3fa72015	1.3056666
118	0xbec11c71	-0.37717012
119	0xbdd9edab	-0.10641035
120	0x3e5e6a6e	0.21720287
121	0x3e275222	0.16339925
122	0xbe0c203f	-0.13684176
123	0xbec47387	-0.3836939
124	0xbe8a5cf9	-0.27024058
125	0xbdddb91e	-0.10826324
126	0xbe3b6cae	-0.18303177
127	0xbe199329	-0.14997543
128	0xbe17c23a	-0.14820185
129	0xbf3c587a	-0.73572505
130	0xbeba4dce	-0.36387485
131	0xbc79e223	-0.015251669
132	0x3ecc0f2c	0.39855325
133	0x3f36cf7c	0.71410346
134	0x3e7424ce	0.23842165
135	0xbdc2230f	-0.09479343
136	0xbedba734	-0.42901003
137	0xbf407bbc	-0.75188804
138	0xbeffa958	-0.49933887
139	0x3df88ae1	0.12135864
140	0x3ed47d72	0.41501957
141	0x3f3b1e4f	0.7309312
142	0x3e330c46	0.1748515
143	0xbcff06e5	-0.031131217
144	0xbc7a0885	-0.01526082
145	0xbe21463e	-0.15749452
146	0xbe71c9c3	-0.23612122
147	0xbc90ef8c	-0.01769235
148	0xbf2791e3	-0.6545698
149	0xbfe8d424	-1.818974
150	0x3ca0d188	0.019631162
151	0x3c2db74d	0.010602784
152	0xbd95e4fe	-0.073190674
153	0xbebc21e4	-0.36744606
154	0xbed7bc93	-0.42136058
155	0x3dfb6593	0.12275233
156	0xbdb8e5a6	-0.09028177
157	0x3f748fa4	0.9553168
158	0xbe2120bf	-0.15735148
159	0x3cb0075c	0.021487884
160	0xbf1a5aaa	-0.6029459
161	0xbed9ab6f	-0.42513606
162	0xbe51c5de	-0.20485637
163	0xbeef16d8	-0.46697116
164	0x3d5025b6	0.050817214
165	0x3eb1939e	0.34682935
166	0x3eacd51d	0.33756343
167	0x3d0b28d5	0.033974487
168	0xbe3ed50c	-0.18635958
169	0x3e920e9c	0.2852677
170	0xbe214ef1	-0.1575277
171	0x3cf414ec	0.029795133
172	0x3e8b3928	0.27192044
173	0xbfc5f305	-1.5464789
174	0xbddd7355	-0.108130135
175	0x3e3ae412	0.18251064
176	0xbf2814cf	-0.6565675
177	0xbeb7a91e	-0.35871214
178	0xbf13c456	-0.5772146
179	0xbdb0c820	-0.08631921
180	0x3e190baf	0.14945863
181	0x3f0c5db7	0.548305
182	0x3e0eb964	0.13937908
183	0x3e867e87	0.26268408
184	0x3e3aeea9	0.18255104
185	0xbe4bba2a	-0.19895235
186	0x3ede7661	0.4344969
187	0xbe6404e7	-0.22267495
188	0xbe5b5431	-0.21418835
189	0x3f810f0e	1.0082719
190	0xbf0b75ed	-0.54476815
191	0xbe006f23	-0.12542395
192	0xbec90166	-0.3925888
193	0xbe1877ff	-0.14889525
194	0xbea1ade9	-0.31577995
195	0x3e103d33	0.14085846
196	0x3e11a9b3	0.14224891
197	0x3f5c83f0	0.8613882
198	0x3e38387d	0.17990299
199	0xbe7010da	-0.23443928
200	0xbd75790e	-0.0599299
201	0x3d914339	0.070929
202	0x3e43c2a6	0.19117221
203	0x3e0eb963	0.13937907
204	0x3cebb21f	0.028771458
205	0x3fa48592	1.2853262
206	0xbf957768	-1.1677065
207	0xbdf6e9d0	-0.12056315
208	0x3e21ebd4	0.15812618
209	0xbde32b5f	-0.11092257
210	0x3e72e0f6	0.23718628
211	0x3e502357	0.20325981
212	0x3e4c948a	0.19978538
213	0x3fc91e35	1.5712343
214	0x3da2bd51	0.079462655
215	0xbe204263	-0.15650325
216	0x3f21a8ab	0.6314799
217	0x3f339d38	0.7016177
218	0x3f0a6093	0.5405361
219	0x3d06cb3b	0.03290866
220	0xbe909654	-0.2823969
221	0xbef696be	-0.48161882
222	0xbee29d7d	-0.4426078
223	0x3e4e34da	0.20137349
224	0xbe41ff43	-0.18945031
225	0x3db90de5	0.09035853
226	0xbc0e60c5	-0.008690064
227	0x3dbe6aaf	0.09297692
228	0x3cdff11d	0.027336651
229	0xbf418fb0	-0.75609875
230	0x3f65059a	0.8946167
231	0xbe8da5d4	-0.2766558
232	0x3eeff947	0.4686987
233	0x3dafefdb	0.08590671
234	0x3e7b61f5	0.24549086
235	0x3e1665fe	0.14687344
236	0x3b314f5e	0.0027055363
237	0xbe2ef0a2	-0.17083982
238	0xbe77b4bf	-0.24190043
239	0x3e2368c5	0.15957935
240	0xbab48d54	-0.0013775029
241	0x3e63635d	0.22205873
242	0x3cefc6c2	0.02926958
243	0xbe058981	-0.13040735
244	0x3fb43d78	1.4081259
245	0x3f5e9649	0.86948067
246	0xbef48fea	-0.47766048
247	0xbe8be40b	-0.2732242
248	0xbe090c2c	-0.1338355
249	0x3e8d7591	0.2762876
250	0x3e89776c	0.26848924
251	0xbe0db373	-0.13837986
252	0x3f1ab8a7	0.6043801
253	0x3fd3a265	1.6533934
254	0x3e213fa0	0.15746927
255	0xbe51989e	-0.20468375

critic_net.0.bias f4 [64]
0	0x3e506b24	0.20353371
1	0xbebb7557	-0.3661296
2	0xbe1151c7	-0.14191352
3	0xbea3ad65	-0.31968227
4	0x3e9cf0de	0.30652517
5	0x3af5dc4d	0.0018757671
6	0xbd41d5f6	-0.04732319
7	0xbea4613a	-0.32105428
8	0xbefd2e15	-0.4944922
9	0x3ea11017	0.31457588
10	0xbe9d74fe	-0.3075332
11	0x3e098e63	0.13433222
12	0xbe68e685	-0.22744186
13	0xbeacc3ec	-0.33743227
14	0x3e863504	0.26212323
15	0xbdcb72d3	-0.0993401
16	0x3e237179	0.15961255
17	0x3e722db4	0.23650247
18	0xbe6695d9	-0.225181
19	0x3ea2c10b	0.31787905
20	0x3e1451da	0.14484349
21	0xbe6f183a	-0.23349085
22	0x3e416d29	0.18889298
23	0x3eb1af7d	0.347042
24	0x3e3751d4	0.17902309
25	0x3ebb9d58	0.3664348
26	0x3e632fc8	0.22186196
27	0xbdc14be0	-0.094383
28	0xbe7184aa	-0.23585764
29	0xbe18a610	-0.14907098
30	0x3e3bc58f	0.18337081
31	0x3e2924ff	0.16518019
32	0xbe426428	-0.18983519
33	0xbe5a9ab5	-0.21348079
34	0x3d551dd5	0.052030403
35	0xbe99f1c2	-0.3006726
36	0x3e270bdd	0.16313119
37	0x3d7a1dac	0.061063454
38	0xbe7241eb	-0.23657958
39	0x3ea6343d	0.3246173
40	0xbe49a38e	-0.19691297
41	0x3e123bb8	0.14280593
42	0xbe5ffa9f	-0.21872948
43	0x3e6b3e91	0.22973086
44	0x3e8e429b	0.2778519
45	0xbe4acd9a	-0.19804993
46	0x3e40731d	0.18793912
47	0xbe8a2887	-0.26984045
48	0xbdee600b	-0.116394125
49	0x3de2f8a9	0.110825844
50	0x3e4ee7f2	0.20205668
51	0xbd27e9e7	-0.04099455
52	0xbea80994	-0.32819808
53	0xbea96782	-0.33086783
54	0x3e7d4eb2	0.24737051
55	0x3e60dfc6	0.21960363
56	0x3e96bf92	0.29443032
57	0x3e94f708	0.2909472
58	0xbe046e69	-0.12932743
59	0xbddf9632	-0.10917319
60	0xbe94dfd2	-0.2907701
61	0x3e63e64c	0.2225582
62	0xbe6c9bea	-0.23106351
63	0x3c38203c	0.011238154

critic_net.2.weight f4 [64, 64]
0	0xbd69c1bb	-0.05706952
1	0x3d8d9429	0.06913025
2	0x3f03aed8	0.51438665
3	0x3f00e8a6	0.50354993
4	0x3e3cd4eb	0.18440597
5	0x3eaecfcf	0.3414292
6	0x3ef33249	0.47499302
7	0x3dfed059	0.12442083
8	0x3eee7c4d	0.4657921
9	0xbeb3ef45	-0.35143486
10	0x3dbd02cb	0.09229048
11	0xbee0cdd7	-0.43907043
12	0x3f2a4292	0.6650783
13	0x3e4a470e	0.19753668
14	0xbe7abdf2	-0.24486521
15	0x3efae57c	0.49003208
16	0xbf92234e	-1.1417024
17	0xbf15f4c5	-0.58576614
18	0xbc8890c0	-0.016670585
19	0xbe8ea828	-0.27862668
20	0xbf165bcf	-0.5873384
21	0x3e4c1ca8	0.19932806
22	0xbf04b68a	-0.5184103
23	0x3e779768	0.2417885
24	0xbf144d49	-0.5793043
25	0xbe0a089b	-0.13479845
26	0xbe061c6e	-0.13096783
27	0x3f19968a	0.5999533
28	0x3d5db344	0.05412604
29	0x3ef1a57c	0.47196567
30	0xbe0a69b6	-0.13516888
31	0x3e8c40a2	0.2739306
32	0x3fa9d9f3	1.3269638
33	0x3f2ab388	0.6668019
34	0xbd363f16	-0.044493757
35	0x3f44a629	0.7681604
36	0xbf290fdb	-0.6603982
37	0x3f06e070	0.52686214
38	0x3fb015f7	1.3756703
39	0xbe5dd578	-0.21663463
40	0x3f57bbe1	0.84271055
41	0x3dc644f6	0.09681122
42	0x3f1efa2a	0.6210047
43	0xbf81ea49	-1.0149623
44	0xbec6d658	-0.38835406
45	0x3ea8734c	0.32900465
46	0xbda743eb	-0.08167251
47	0x3ea6cf22	0.32579905
48	0xbe3e2891	-0.18570162
49	0xbe347429	-0.17622437
50	0xbe0daf80	-0.13836479
51	0x3baa1bac	0.005191287
52	0x3ecd3bd7	0.40084717
53	0xbe6fffd3	-0.23437433
54	0xbefaedaa	-0.49009448
55	0xbd14b1c0	-0.036302328
56	0xbf4974a5	-0.7869361
57	0xbeade77c	-0.3396567
58	0x3e047d71	0.12938477
59	0xbf13648e	-0.5757531
60	0x3ea32e87	0.31871435
61	0x3b81d822	0.0039625326
62	0x3e42976a	0.19003072
63	0xbdfda791	-0.123854764
64	0xbf07e89f	-0.53089327
65	0x3f56f6e7	0.83970493
66	0x3c40dba9	0.011771121
67	0xbdd60a9d	-0.10451243
68	0xbee37041	-0.4442158
69	0x3eb05e56	0.34446973
70	0xbd0d04fe	-0.03442859
71	0x3ec42437	0.3830888
72	0xbe6f1d65	-0.23351057
73	0x3d99454f	0.07483923
74	0x3f3c61c7	0.73586696
75	0x3ec4b1ad	0.38416806
76	0xbe8a3d78	-0.27000022
77	0xbe752d2b	-0.23943011
78	0xbe1d9155	-0.15387471
79	0x3edf9fc7	0.43676588
80	0x3b8898cb	0.004168605
81	0xbd31f630	-0.043447673
82	0x3e85e6a2	0.2615252
83	0x3f01ef59	0.5075584
84	0x3dbcbdfe	0.09215926
85	0x3ea6fc07	0.32614157
86	0xbe79c1c8	-0.24390328
87	0x3e3e6723	0.18594031
88	0x3ed0f3df	0.4081106
89	0x3eb3e0ed	0.35132542
90	0xbf377ef6	-0.716781
91	0x3a0dde3f	0.00054118404
92	0xbe61726c	-0.22016305
93	0xbdb47bc7	-0.08812671
94	0xbe285d5d	-0.16441865
95	0xbead7c75	-0.33884016
96	0xbd8648d8	-0.065568626
97	0xbdd71fed	-0.10504136
98	0xbef53cb5	-0.47897878
99	0x3cccc5d1	0.02499667
100	0xbe3e6edd	-0.18596978
101	0x3df722c7	0.1206718
102	0xbd5d893e	-0.054085962
103	0xbeb4fc61	-0.353488
104	0x3da729f7	0.08162301
105	0xbef13b1f	-0.47115418
106	0xbdbd406f	-0.09240805
107	0xbf186eac	-0.5954387
108	0x3e713d24	0.2355848
109	0x3dc35019	0.09536762
110	0xbd32cb78	-0.043651074
111	0x3eee4be2	0.4654227
112	0xbe9c2406	-0.30496234
113	0xbe86a28e	-0.26295894
114	0x3e9dd453	0.30826053
115	0x3cc3df5f	0.023910223
116	0x3ddd0678	0.107922494
117	0xbe7b62ee	-0.24549457
118	0xbf201bac	-0.62542224
119	0xbef936df	-0.48674676
120	0x3d60b4bf	0.054859873
121	0xbe9b6c5f	-0.30356118
122	0xbeaaf942	-0.33393294
123	0x3ddc63ed	0.10761247
124	0x3f1198a1	0.5687352
125	0xbf271c66	-0.6527771
126	0x3e83569c	0.25652015
127	0x3ecee05a	0.40405542
128	0x3f00882f	0.502078
129	0xbefe0109	-0.49610165
130	0x3e18c6e9	0.14919628
131	0x3d98f760	0.07469058
132	0x3da2541b	0.07926198
133	0xbdb09dbe	-0.08623837
134	0xbe68e190	-0.22742295
135	0xbe56d464	-0.20979458
136	0x3c69cae2	0.014269562
137	0x3f08d3b0	0.5344801
138	0xbeace1bf	-0.3376598
139	0x3ebf067f	0.37309644
140	0x3e4f967b	0.20272247
141	0xbde46688	-0.11152369
142	0xbe700b16	-0.23441729
143	0xbe39329e	-0.18085715
144	0x3ded36a8	0.115826905
145	0xbd325a63	-0.04354323
146	0xbec96ae7	-0.39339373
147	0x3d920872	0.07130517
148	0x3eb14da6	0.34629554
149	0xbe86168e	-0.26189083
150	0x3ea4645a	0.32107812
151	0x3e8989ca	0.26862937
152	0x3d48f4a8	0.049061447
153	0x3ed1a0b0	0.40942907
154	0x3e826ffe	0.25476068
155	0xbe627c3e	-0.22117707
156	0xbbc977d0	-0.006148316
157	0xbcee356f	-0.029078213
158	0xbd65b40f	-0.05607992
159	0x3f1b99d1	0.6078158
160	0xbe2732d4	-0.16327983
161	0xbe0a41e5	-0.135017
162	0x3ea93c19	0.33053663
163	0xbe445b36	-0.19175419
164	0x3c4bd848	0.012441702
165	0x3d0522cf	0.0325039
166	0xbd4ea7ce	-0.050453
167	0x3efb8bc8	0.49130082
168	0xbddfed37	-0.10933917
169	0x3eee7044	0.46570027
170	0xbdd2f7d1	-0.103011735
171	0x3e9db052	0.30798584
172	0x3e4ad039	0.19805993
173	0x3ef9c435	0.48782507
174	0xbe13d8d4	-0.14438182
175	0xbf068f10	-0.52562046
176	0x3dca751b	0.09885617
177	0xbe878c79	-0.2647436
178	0x3e9d3ce6	0.30710524
179	0x3eb8606b	0.3601106
180	0xbe9f2650	-0.31083918
181	0xbdaf90ef	-0.08572566
182	0x3ebcb35e	0.36855596
183	0x3e8106f9	0.25200632
184	0x3e2ede9f	0.1707711
185	0xbe91d48b	-0.2848247
186	0xbd1c6ee4	-0.03819169
187	0x3db4717b	0.08810707
188	0xbc4d6612	-0.0125365425
189	0xbebed010	-0.37268114
190	0xbeacd203	-0.33753976
191	0x3df91a84	0.121632606
192	0x3eee7aef	0.46578166
193	0xbf2d74fb	-0.67756623
194	0xbf1538c5	-0.5828975
195	0xbe6b2973	-0.2296503
196	0x3ee884a9	0.45413712
197	0xbea9a538	-0.33133864
198	0xbe9754aa	-0.2955678
199	0xbb511805	-0.0031905186
200	0x3c9d20f8	0.01918076
201	0x3db57f93	0.088622235
202	0xbe4d72e1	-0.20063354
203	0x3e7b0415	0.24513276
204	0x3ce31df6	0.027724247
205	0x3c37cbb3	0.011217999
206	0xbe454dd3	-0.19267969
207	0xbebe24e5	-0.37137523
208	0x3e2c2fae	0.16815063
209	0x3df0b3ee	0.11753069
210	0xbf13889d	-0.5763033
211	0xbe3cc7c9	-0.18435587
212	0x3dc976c8	0.09837109
213	0xbee003b3	-0.43752822
214	0xbd310ce7	-0.043225195
215	0xbd53e09d	-0.05172788
216	0x3b6bcffe	0.0035982127
217	0xbe0f7a9b	-0.14011614
218	0x3ee22453	0.44168338
219	0xbe9b2e3e	-0.30308717
220	0xbde2f06e	-0.110810146
221	0xbdced6f2	-0.10099591
222	0x3c31a270	0.010841951
223	0x3f074938	0.528461
224	0x3e4fedca	0.20305553
225	0xbeb1a1e8	-0.34693837
226	0x3e2b88be	0.16751382
227	0xbe3a32f7	-0.18183504
228	0xbdd4ede8	-0.103969395
229	0x3d947708	0.07249266
230	0xbdc2fb3a	-0.09520574
231	0x3f22cb71	0.63591677
232	0x3d3f1816	0.04665383
233	0x3e7c559e	0.24642035
234	0x3e36dc7c	0.17857546
235	0xbbf7cc3e	-0.0075621894
236	0xbd52d7d3	-0.051475357
237	0x3ea8a095	0.32935014
238	0x3e31e2d9	0.17371692
239	0xbea41895	-0.32050005
240	0x3cb3f9c5	0.021969685
241	0xbe90af7f	-0.28258893
242	0x3cce5475	0.025186757
243	0x3f003672	0.50083077
244	0xbe799b92	-0.24375752
245	0x3dc6f24c	0.09714183
246	0x3efd0d3f	0.49424168
247	0x3ee9c29f	0.45656297
248	0xbd887360	-0.06662631
249	0x3f06727f	0.5251846
250	0xbd8ccf2e	-0.06875454
251	0xbebc5fef	-0.36791942
252	0xbf1002e0	-0.56254387
253	0x3e9d2875	0.3069493
254	0xbee8b4de	-0.4545049
255	0xbd13fd58	-0.03613028

critic_net.2.bias f4 [64]
0	0xbe7a89cc	-0.24466628
1	0xbedc880b	-0.43072543
2	0x3e5ca271	0.21546341
3	0x3ea81297	0.32826683
4	0x3e3f5685	0.18685348
5	0x3e6f7977	0.23386179
6	0x3e353b0b	0.17698304
7	0xbe01027a	-0.12598601
8	0xbe46e458	-0.19423044
9	0x3e842ccd	0.2581543
10	0xbe13ece9	-0.14445843
11	0xbe0756d3	-0.13216715
12	0xbe1da064	-0.15393215
13	0xbe43c963	-0.19119792
14	0xbe117e4a	-0.14208332
15	0x3e61dccd	0.22056885
16	0x3d8622d6	0.06549613
17	0x3e148a48	0.14505875
18	0x3ec8819c	0.39161384
19	0x3e1f54a2	0.15559629
20	0xbe620b95	-0.2207473
21	0xbeb32776	-0.34991044
22	0x3ecff780	0.40618515
23	0x3e539326	0.20661601
24	0xbec8760a	-0.39152557
25	0x3e902ed6	0.28160733
26	0x3e8b8587	0.2725031
27	0x3e9a0ac6	0.30086344
28	0xbe1c4575	-0.15260871
29	0xbe003168	-0.12518847
30	0xbe6a56d1	-0.2288468
31	0x3d737e60	0.059446692
32	0xbebf0402	-0.37307745
33	0xbe7981b7	-0.24365889
34	0xbe9af72b	-0.302667
35	0x3d4bdb88	0.04976991
36	0xbeac4370	-0.336452
37	0xbe30ecb1	-0.1727779
38	0xbeabd352	-0.33559662
39	0x3e11c965	0.14236982
40	0x3d5a6541	0.05331922
41	0x3e8737f0	0.26409864
42	0xbe57c341	-0.21070577
43	0xbe3754a8	-0.17903388
44	0xbe0beb14	-0.13663894
45	0xbe71d645	-0.23616894
46	0xbead4a27	-0.33845636
47	0x3ed526d6	0.41631192
48	0xbe22fc4a	-0.15916553
49	0xbe16119e	-0.14655158
50	0xbe9cd9ef	-0.3063502
51	0x3e5404f2	0.20705011
52	0xbe46938b	-0.1939222
53	0x3e34bfb4	0.17651254
54	0x3ec9e11a	0.3942955
55	0x3e6a1531	0.22859646
56	0xbe8d2bff	-0.2757263
57	0x3ebf4026	0.3735363
58	0xbe3e7b34	-0.18601686
59	0xbead8391	-0.3388944
60	0x3e267922	0.16257146
61	0x3ea545b8	0.32279754
62	0xbe47693b	-0.19473736
63	0x3e23e50f	0.16005348

critic_head.weight f4 [1, 64]
0	0x3f5d2c2c	0.86395526
1	0x3f4ef4e3	0.8084242
2	0xbf842366	-1.0323303
3	0xbf72d6e4	-0.9485915
4	0xbf8cc840	-1.0998611
5	0xbfb1bb2c	-1.3885245
6	0xbfa55502	-1.2916567
7	0x3fb08b02	1.3792422
8	0x3fb8a38b	1.4424909
9	0xbf7e71f5	-0.99392635
10	0x3f6801dd	0.90627843
11	0x3f3a73ce	0.72832954
12	0x3f667183	0.90016955
13	0x3fb336c6	1.400109
14	0x3f33fe24	0.7030966
15	0xbf52822d	-0.8222988
16	0xbf90cd3b	-1.1312631
17	0xbf81d942	-1.0144427
18	0xbfa6b43b	-1.3023752
19	0xbfc4b9ec	-1.5369239
20	0x3fdbd78d	1.7175156
21	0x3fb55370	1.4166088
22	0xbf9ecc00	-1.2406006
23	0xbf60f17f	-0.87868494
24	0x3f63fb34	0.8905518
25	0xbfb9015b	-1.4453539
26	0xc004e7f7	-2.076658
27	0xbfb92f7c	-1.4467616
28	0x3f510561	0.8164883
29	0x3fa4cd8e	1.287523
30	0x3f9df8fd	1.234161
31	0xbf7e6218	-0.9936843
32	0x3f864c33	1.0492004
33	0x3fecc25a	1.8496811
34	0x3f6b97e9	0.9202867
35	0xbf61b0ee	-0.881606
36	0x3fc5a7bd	1.5441815
37	0x3facc67c	1.3498073
38	0x3faf0048	1.3671961
39	0xbf741e33	-0.9535858
40	0xbf7554ee	-0.9583272
41	0xbfbec91f	-1.4905127
42	0x3f9bb055	1.2163187
43	0x3fc57c80	1.5428619
44	0x3f91bd8b	1.1385969
45	0x40060869	2.0942633
46	0x3f7da1b3	0.9907486
47	0xbff82867	-1.938733
48	0x3f6b15a9	0.91829926
49	0x3faded98	1.3588133
50	0x3f4cde63	0.80026835
51	0xbf99bd7c	-1.2010951
52	0x3fa35d1b	1.2762789
53	0xbf5968be	-0.8492545
54	0xbf73c756	-0.9522604
55	0xbf6f03aa	-0.93364966
56	0x40034aff	2.0514524
57	0xbf700bf7	-0.93768257
58	0x3f8de950	1.1086826
59	0x3fb110f5	1.38333
60	0xbfdd9b6d	-1.7313057
61	0xbfc3a21e	-1.5283849
62	0x3f83ea1e	1.0305822
63	0xbfa4ce76	-1.2875507

exp_avg f4 [64, 8]
0	0x39a406b5	0.00031285515
1	0x39a7e63c	0.0003202426
2	0x39aedc54	0.00033352023
3	0x39a42676	0.00031309173
4	0x393b49a4	0.00017861143
5	0x36735985	3.626193e-06
6	0x3a329477	0.0006812284
7	0x3a2fa585	0.00067003845
8	0x38908d6b	6.892796e-05
9	0x388ae1fa	6.622444e-05
10	0x388989ad	6.558313e-05
11	0x383aa433	4.4498778e-05
12	0x38328067	4.255809e-05
13	0xb46febfe	-2.2344463e-07
14	0x398cbbe9	0.00026842885
15	0x395e10e2	0.00021177859
16	0xb98f98f7	-0.00027389053
17	0xb9938435	-0.00028136527
18	0xb99a4c39	-0.0002942996
19	0xb9a1f5d4	-0.0003089147
20	0xb942e472	-0.00018586384
21	0xb63354d4	-2.6722455e-06
22	0xba1f2f03	-0.0006072374
23	0xba29c32a	-0.000647592
24	0xb9a6f8f9	-0.00031847486
25	0xb9aad58d	-0.00032584034
26	0xb9b1a7fb	-0.00033885226
27	0xb995f617	-0.00028602846
28	0xb9452615	-0.0001880157
29	0xb6961843	-4.473173e-06
30	0xba2e08fa	-0.0006638911
31	0xba2ba866	-0.00065482256
32	0x38ea6c26	0.00011178134
33	0x38f5f094	0.000117273215
34	0x39028485	0.00012447133
35	0x390a4450	0.00013186154
36	0x389fe7f5	7.624916e-05
37	0x35feb5e4	1.8977412e-06
38	0x392ef133	0.00016683787
39	0x396fc7c1	0.0002286723
40	0xb91d2b6e	-0.00014988866
41	0xb91edc58	-0.00015150139
42	0xb9252a30	-0.00015751342
43	0xb93bb232	-0.00017900093
44	0xb8e57025	-0.000109404595
45	0xb5330ab6	-6.669828e-07
46	0xb9d0d014	-0.00039827882
47	0xb9dd9415	-0.00042262734
48	0xb93ffdeb	-0.00018309771
49	0xb941f052	-0.0001849544
50	0xb94887ca	-0.00019124072
51	0xb982e8a9	-0.00024968878
52	0xb928ac73	-0.00016085971
53	0xb4dc3648	-4.1017688e-07
54	0xba07c25d	-0.00051788037
55	0xba110a42	-0.00055328396
56	0xb92736bc	-0.00015946751
57	0xb9290be5	-0.00016121527
58	0xb92ed33d	-0.00016672625
59	0xb93ca734	-0.00017991365
60	0xb8e57c6b	-0.000109427456
61	0xb5507bed	-7.7666374e-07
62	0xb9dd689d	-0.00042230348
63	0xb9d94fc9	-0.0004144891
64	0x3997a6af	0.00028925153
65	0x399c17f9	0.000297725
66	0x39a2fbff	0.000310868
67	0x39a3fa29	0.00031276167
68	0x3932ff13	0.00017070425
69	0x3687e911	4.050446e-06
70	0x3a0f5421	0.0005467553
71	0x3a16298a	0.00057282357
72	0xb8da399e	-0.00010405782
73	0xb8daac9c	-0.00010427201
74	0xb8e0c8e9	-0.00010718575
75	0xb8d3d9e7	-0.000101018515
76	0xb8984b50	-7.261953e-05
77	0xb4f5073f	-4.5640078e-07
78	0xb998c02e	-0.00029134884
79	0xb9926db2	-0.0002792902
80	0xb84a8fc0	-4.829443e-05
81	0xb84abcf8	-4.8336544e-05
82	0xb84fec52	-4.9572736e-05
83	0xb823249c	-3.8896324e-05
84	0xb7e14dc4	-2.6858303e-05
85	0xb4478d12	-1.858464e-07
86	0xb90a7194	-0.00013203017
87	0xb8f2d651	-0.00011579379
88	0xb99d9b84	-0.00030061242
89	0xb9a0ff2a	-0.0003070769
90	0xb9a7f2ee	-0.0003203372
91	0xb9af5f42	-0.00033449574
92	0xb95a086d	-0.00020793239
93	0xb629c66b	-2.5298457e-06
94	0xba38af01	-0.00070451206
95	0xba43870e	-0.00074587844
96	0xb9877dff	-0.0002584308
97	0xb988cf17	-0.00026094235
98	0xb98d419f	-0.00026942507
99	0xb96fc75f	-0.00022867088
100	0xb92853d2	-0.00016052954
101	0xb677cf45	-3.6926515e-06
102	0xba244efd	-0.00062678737
103	0xba143bed	-0.00056546816
104	0xb9939a53	-0.00028153005
105	0xb996eb4d	-0.00028785542
106	0xb99cfdd3	-0.00029943752
107	0xb99cfb60	-0.00029941928
108	0xb93b1037	-0.0001783975
109	0xb628910c	-2.511838e-06
110	0xba2c73ef	-0.0006578555
111	0xba2e85f0	-0.00066575315
112	0x39b0771d	0.00033658082
113	0x39b1752c	0.0003384737
114	0x39b6f68b	0.00034897434
115	0x39ee1a7d	0.00045414633
116	0x3993931a	0.00028147624
117	0x3515ef32	5.58549e-07
118	0x3a803f46	0.0009784482
119	0x3a840dcb	0.0010074911
120	0x39b5238e	0.000345495
121	0x39b511ad	0.0003453618
122	0x39b94322	0.00035335968
123	0x39d50d92	0.00040636637
124	0x39896c95	0.00026211576
125	0x349364f1	2.7454328e-07
126	0x3a8b76df	0.0010640285
127	0x3a849ac4	0.0010116925
128	0xb88be50f	-6.670702e-05
129	0xb88a66a2	-6.5994696e-05
130	0xb88b8e9e	-6.654601e-05
131	0xb89fbf65	-7.617361e-05
132	0xb85dbaed	-5.2864594e-05
133	0x33b13d43	8.253348e-08
134	0xb9753b02	-0.00023387003
135	0xb950e417	-0.00019921396
136	0x38a590b3	7.8947654e-05
137	0x389e3402	7.543714e-05
138	0x389c93cb	7.466188e-05
139	0x3893008c	7.009608e-05
140	0x38853e35	6.353521e-05
141	0xb48129e0	-2.405859e-07
142	0x39a5c36c	0.00031616853
143	0x39892b73	0.00026163048
144	0xb962fd12	-0.00021647316
145	0xb9693683	-0.00022240919
146	0xb9736c3e	-0.00023214609
147	0xb9432cfa	-0.00018613404
148	0xb8ddaee5	-0.00010570678
149	0xb6540a6d	-3.159653e-06
150	0xb9e1b7a9	-0.00043052182
151	0xb9da8181	-0.00041676688
152	0x38df0b9e	0.000106356325
153	0x38db0bf0	0.00010444957
154	0x38daa6f7	0.0001042615
155	0x38b0d0e2	8.4312414e-05
156	0x389baa8e	7.422744e-05
157	0xb4713fc7	-2.2468076e-07
158	0x39c2d1cd	0.00037158877
159	0x3999622a	0.00029255572
160	0x37c6a666	2.3680925e-05
161	0x37be3889	2.2676091e-05
162	0x37bdb5bd	2.2615184e-05
163	0x37970555	1.8003086e-05
164	0x3770d281	1.43541265e-05
165	0xb43b003b	-1.7415816e-07
166	0x38c4b5e6	9.3798895e-05
167	0x389c0322	7.439243e-05
168	0xb9c5eee4	-0.00037752755
169	0xb9cbb9a1	-0.00038857482
170	0xb9d4c402	-0.00040581828
171	0xb9c511ad	-0.00037587938
172	0xb96cad37	-0.00022571241
173	0xb699412d	-4.567343e-06
174	0xba509679	-0.00079569925
175	0xba53096a	-0.0008050414
176	0xb92184ba	-0.00015403601
177	0xb92257fe	-0.00015482304
178	0xb92714bd	-0.00015934087
179	0xb94ce4e3	-0.00019540223
180	0xb902ca34	-0.00012473093
181	0xb4ae052e	-3.2413794e-07
182	0xb9e6d2ac	-0.0004402598
183	0xb9ec94b2	-0.00045124214
184	0xb945f2bf	-0.00018877814
185	0xb948039d	-0.00019074832
186	0xb94e7d0e	-0.00019692277
187	0xb95f1e59	-0.00021278243
188	0xb906e39b	-0.00012864025
189	0xb58d547c	-1.0529907e-06
190	0xba04810a	-0.0005054629
191	0xba005983	-0.0004896151
192	0x398ce15d	0.0002687079
193	0x398c984a	0.00026816345
194	0x398faa45	0.00027401946
195	0x399e8ec1	0.00030242468
196	0x3954c918	0.00020292809
197	0x3436cc28	1.7024342e-07
198	0x3a5ac889	0.0008345922
199	0x3a4edf1c	0.0007891522
200	0x39b13038	0.00033795997
201	0x39b1062a	0.00033764663
202	0x39b54054	0.00034570938
203	0x39ceb2f8	0.00039424724
204	0x39868ee4	0.00025664933
205	0x348ff7d7	2.6816153e-07
206	0x3a87ee8b	0.0010370774
207	0x3a81bedd	0.0009898801
208	0xb805fac0	-3.19432e-05
209	0xb813c1a5	-3.5227877e-05
210	0xb822441c	-3.868724e-05
211	0xb8202038	-3.817698e-05
212	0xb7643d62	-1.3604151e-05
213	0xb5810d85	-9.615184e-07
214	0x36f9a11e	7.439535e-06
215	0xb806b852	-3.211975e-05
216	0xb988b107	-0.00026071837
217	0xb98a8409	-0.00026419785
218	0xb98f3677	-0.00027315665
219	0xb9865336	-0.0002562047
220	0xb928c52b	-0.0001609518
221	0xb6257cdf	-2.46596e-06
222	0xba26f76a	-0.0006369265
223	0xba1d0897	-0.00059903547
224	0x39b80088	0.0003509561
225	0x39beef21	0.0003641779
226	0x39c8b6b9	0.00038283112
227	0x39c46184	0.00037456688
228	0x396250fe	0.00021583211
229	0x36aadb60	5.0919334e-06
230	0x3a254c26	0.00063055975
231	0x3a3b4234	0.0007143349
232	0xb711802d	-8.672517e-06
233	0xb70d1611	-8.409393e-06
234	0xb704a218	-7.9055535e-06
235	0xb7007bc5	-7.658212e-06
236	0xb68bcf4f	-4.1666567e-06
237	0x3405a1dd	1.2445476e-07
238	0xb82c1408	-4.102665e-05
239	0xb7cf5fbc	-2.4720903e-05
240	0xba32c401	-0.0006819368
241	0xba326ce2	-0.0006806386
242	0xba367317	-0.0006959899
243	0xba483fb0	-0.00076388847
244	0xba072ce7	-0.0005156532
245	0xb5156b42	-5.5662906e-07
246	0xbb0aff6b	-0.002120937
247	0xbb03575f	-0.002004109
248	0xb94e735d	-0.00019688667
249	0xb9546047	-0.00020253762
250	0xb95cf725	-0.00021072903
251	0xb9365cfa	-0.00017391509
252	0xb8e16f6a	-0.000107495885
253	0xb642f674	-2.9051707e-06
254	0xb9c9c51e	-0.0003848457
255	0xb9c78d90	-0.0003806171
