results/stability_test/models/checkpoint_40.pt (torch, 155619 bytes, 30 tensors)

actor_net.0.weight f4 [64, 8]
00000000: 167a 1bbd 8d6c ddbd bdb7 9c3e c581 d03e
00000010: bcc7 bcbe 3b2b b13e ada3 5b3e b4a6 933c
00000020: 1fdd 4c3d e735 123e ba44 d2bd 4c55 83bd
00000030: 7389 64bd b345 e53c b66c 413e 318b bdbd
00000040: af23 b63d 0dc5 52be c917 f33d 3c20 cc3d
00000050: 20cb 45bc a47e f4bd f4ee 1f3e 9167 0abe
00000060: 979e d2bb 3407 13be 5448 3bbd e74f 003e
00000070: 4528 ed3e a497 14be 1aa6 49be 3890 22be
00000080: dd9f ac3e 2855 423e 742e 26be 8bc8 1f3e
00000090: c8c2 50be 3054 8f3d b622 a6be cf60 053f
000000a0: 135e 4bbd f3ed 38be 6a08 38bd b84a 6abe
000000b0: 7170 4c3e a389 493d 2e09 283e 5490 0d3d
000000c0: e40e 8e3e df61 64be e0e3 ab3e a365 4abe
000000d0: 9ea6 b0be 6ceb e83d c5b8 9fbc 4569 65bc
000000e0: 7f93 c0be b6ff 5b3d 1db3 a3be 9f5f 77be
000000f0: b554 ff3e 8bb7 653e c446 1dbd 6e99 57be
00000100: 1b7d 613e f141 0abe c41b b2bc 810e 9cbe
00000110: 7b79 823d e122 173d aa8a b3be 6bef 3d3d
00000120: 6028 a0be 950d 05be 3196 983c a51a 873e
00000130: 8497 8f3c dfcf 05be 0c07 6abe 13dc 4ebe
00000140: 22f5 edbd 140b f8bd d757 03be 4677 e73c
00000150: 9a6f 1bbd 3411 e93a 1b33 07bf 0880 27bd
00000160: 2bf1 373d 763b f7bd aef9 e1bd ddab 74be
00000170: 0524 373e 9bc4 0a3d 93ee 243c 85f0 043e
00000180: 3c2a 04be 04b4 d1bd 4279 b7bd a94b a93e
00000190: d9b6 a73e df28 08bb f964 03be b4b5 babc
000001a0: a482 b3be fcfd a9bd 1f70 08be 172b 90be
000001b0: dbc6 a23e d6b8 913d ac48 71bc 0ec0 263e
000001c0: c57b 953d 3634 f9be 39b0 86be 0ecd 703e
000001d0: 8614 5d3e 8c91 efbc 90c7 9d3b def4 743c
000001e0: 0ae1 4dbd 4980 49be 4674 c2be 2cfd 18be
000001f0: 6521 ee3d dae1 75be a068 ab3d 15a6 f7bd
00000200: 5f88 9cbe 661e 57bd 82d3 f63c 2ef4 a83e
00000210: a6c1 bdbd 97d6 25bd c18d 1fbe 8d96 39bc
00000220: 3be9 223d 932e e33d f6ab 81bd a0a1 67be
00000230: 1e69 683d 589f cb3d 6317 6f3e dea4 3abe
00000240: 3ab2 b53d dcdd d2bd 717e 883d d8c4 a2be
00000250: 5c48 c83e c8de 24be 4530 6dbd 9b60 e1bd
00000260: 0c91 b03e dc70 05be 57e9 92be e4d6 b6bc
00000270: e52f 933d e1d7 f23d 67c7 d43e 5736 7b3c
00000280: fb96 5f3b 3d47 eab8 7628 1f3b 91c7 0b3f
00000290: ec84 c63d 0c05 a2be 9081 f83d 4791 04be
000002a0: 82f2 223d 61dc a3be f189 f8bd c1e2 b93d
000002b0: 03d5 b0bd b59a 31be dbbb 3abd b0e3 d8bc
000002c0: 17b8 17be a673 25bd 9836 d73e a9ff 91bd
000002d0: 3100 e2bc 87c5 9cbd 9420 dd3d 164a ad3d
000002e0: 5c19 61be d948 373e 21da 993d 316d edbd
000002f0: b674 96be 8f35 78be f047 a3bd d68a 9b3d
00000300: d8ca d13d d19b d33d 36bf edbe 5eb4 8b3d
00000310: 9fb4 883e d581 b4bc f16c 603e 18c1 67be
00000320: 1d3d f2bd 5e4f 03be 925a 34be 9119 3fbe
00000330: 8e92 f1bc db1a 37be b0dd 043e 8a75 e1bd
00000340: 1f07 323e 597f f2bc bec0 05be 3091 67be
00000350: a3dc be3e a753 d5bc 785d 3b3e ee6f 34be
00000360: b1d8 4dbd 0348 b3bc a374 873d 36b8 013f
00000370: acf3 d0be 77db 02bf 453d 18bd 5824 363e
00000380: 7a64 27bc 8c80 523e 93e8 5cbe c7f1 443b
00000390: 96f6 0abe 2cb8 043e 57bc 33be 6978 39be
000003a0: 8b02 dd3c c2ab 36be 61cf 8bbd cfeb b93d
000003b0: aec3 bcbe a0b9 92bd 040a fabe 7c6b acbd
000003c0: be47 183e 575d 603d 99ab d63e bd39 7ebc
000003d0: bc2d 21bd 3929 3ebe 382c 79be ace6 93bb
000003e0: defb c4be 2953 33be 7a51 eb3d 0b3a 8abd
000003f0: 060d 9e3e 8408 543e 6b0f c33d aadf 8c3d
-0.037958227 -0.1081172 0.3060893 0.40724006 -0.36871135 0.34603295 0.21449156 0.018023826
0.050015565 0.14278375 -0.10267015 -0.064127535 -0.055795144 0.027987337 0.18889126 -0.09255064
0.08893525 -0.20582981 0.11869771 0.09967086 -0.012072355 -0.11938217 0.15618497 -0.1351607
-0.006427597 -0.14358217 -0.045723274 0.1253048 0.46319786 -0.14510971 -0.19692269 -0.15875328
0.33715716 0.18977797 -0.16228658 0.15603845 -0.20386803 0.06998479 -0.32448357 0.52100843
-0.049650263 -0.1805952 -0.0449299 -0.22880065 0.19964768 0.049203526 0.16409752 0.03456147
0.27745736 -0.2230296 0.33572292 -0.19765334 -0.3450212 0.11373028 -0.019497285 -0.014002149
-0.3761253 0.05371066 -0.3197259 -0.2415757 0.49869314 0.22433297 -0.038397565 -0.21054623
0.2202038 -0.13501717 -0.021741755 -0.30479816 0.06370827 0.036898497 -0.3506673 0.046370905
-0.31280804 -0.12993462 0.018626304 0.26387516 0.017528303 -0.13067578 -0.2285425 -0.20201139
-0.11619021 -0.12111488 -0.12826477 0.028255116 -0.03794823 0.0017781616 -0.52812356 -0.040893584
0.04490773 -0.12071888 -0.11033951 -0.23893686 0.17884834 0.033878904 0.010066646 0.12982376
-0.12906736 -0.102394134 -0.08958675 0.33065537 0.3275669 -0.0020776314 -0.12831487 -0.02279172
-0.35060608 -0.08300397 -0.13324021 -0.28157875 0.3179234 0.07115333 -0.014726799 0.162842
0.07298998 -0.48672646 -0.26306322 0.23515722 0.2158986 -0.029244207 0.0048150495 0.014950959
-0.050263442 -0.19677843 -0.37979335 -0.14940327 0.11627463 -0.24011937 0.08369565 -0.120922245
-0.30572793 -0.052519225 0.030130152 0.32998794 -0.09265451 -0.040487852 -0.15581419 -0.011327398
0.039773207 0.11092868 -0.06331627 -0.22620249 0.056740873 0.09942502 0.23348765 -0.18226954
0.08871885 -0.102962226 0.06664742 -0.31790805 0.39117706 -0.1610061 -0.05790736 -0.11004754
0.34485662 -0.13031334 -0.2869365 -0.022319265 0.071868695 0.11857582 0.41558382 0.01533278
0.003411709 -0.00011171259 0.0024285591 0.5460139 0.096933216 -0.31644475 0.12134087 -0.12946044
0.039782055 -0.32004073 -0.12135685 0.09076453 -0.08634379 -0.17344172 -0.04558931 -0.026475757
-0.14816318 -0.040393494 0.4203384 -0.071288414 -0.027587982 -0.07654863 0.107972294 0.084613964
-0.2198233 0.17898883 0.07512308 -0.11593092 -0.29385918 -0.24239181 -0.07972705 0.0759484
0.102437675 0.10332454 -0.46434945 0.06821512 0.26700303 -0.022034565 0.21916558 -0.22632253
-0.11828063 -0.12823245 -0.17612675 -0.18662097 -0.029488828 -0.17881338 0.12975192 -0.11008747
0.17385529 -0.02960174 -0.13061807 -0.22613978 0.37277707 -0.026040865 0.18297374 -0.17620823
-0.05025548 -0.021884924 0.066140436 0.5067171 -0.40810907 -0.51116127 -0.037167806 0.17787302
-0.010216827 0.20556849 -0.21573095 0.0030051337 -0.13570628 0.12960881 -0.17552315 -0.18112339
0.026978752 -0.17838958 -0.06826664 0.0907818 -0.36868042 -0.071643114 -0.48835766 -0.084189385
0.14871117 0.054776516 0.41927794 -0.015516696 -0.039350256 -0.18570413 -0.24333274 -0.004513582
-0.3847341 -0.17512192 0.1149015 -0.06749352 0.3086931 0.20706373 0.09524425 0.06878598

actor_net.0.bias f4 [64]
00000000: 8f51 c63c c24f e83c e0f2 533d 72e7 043d
00000010: b279 78bd ed4f 5e3d 3177 3cbd 9ef3 b4bc
00000020: 043d 70bd 0c43 56bd f079 84bd f566 903b
00000030: 7d96 833c 0cca a7bc 4b88 063d f317 393d
00000040: 6e9d adbc b8e1 633c aaad ad3b 2d72 663d
00000050: 97e5 9f3c b51c 90bd 1c4c 4c3d 0d0a 3bbd
00000060: 14a6 453d cb48 423c 0328 513d 6347 a0bb
00000070: c34b 55bd 682d 79bd cf72 3abd b952 4a3d
00000080: 1ad0 503d 27fd 9b3c 5d41 333d e24a 513d
00000090: e1c0 3d3d 5a0d e73b 99eb 62bd 6908 81bd
000000a0: 1805 993d c9f5 843d c5cc 45bd 2eaa db3c
000000b0: 64e7 9c3c 983c 873d d014 f53c 17c8 59bd
000000c0: f7ae 803d d45e 59bd 3334 57bd fd2b 58bd
000000d0: 2add 233d eb16 4a3d f5aa 7d3d c183 033d
000000e0: 63e4 9ebd 0c96 0abe 35cc c53c d5bd 0dbd
000000f0: 637a 55bd e4cb 0bbd b5a3 503d 5346 ddbd
0.024208812 0.028358344 0.051745296 0.032447286 -0.060662933 0.054275442 -0.046012107 -0.022088822
-0.05865194 -0.052310035 -0.0646857 0.0044068047 0.01606297 -0.020482086 0.032844823 0.045188855
-0.021193232 0.013908796 0.0053002434 0.05626123 0.019518657 -0.070367254 0.04987727 -0.045663882
0.048254088 0.0118581755 0.05106355 -0.0048913225 -0.052074205 -0.06083432 -0.045519646 0.049395297
0.05097971 0.01904161 0.043763507 0.051096804 0.04632652 0.007051152 -0.055400465 -0.06300432
0.07471675 0.06492192 -0.048290987 0.026814546 0.019153304 0.06603354 0.02991715 -0.053169336
0.06283372 -0.05306895 -0.052540015 -0.052776325 0.04000584 0.049338263 0.061930615 0.032108072
-0.07758405 -0.13533801 0.024145225 -0.034604866 -0.05211867 -0.034129992 0.050937373 -0.10804429

actor_net.2.weight f4 [64, 64]
00000000: d72d 033e a6de 61bd 3a55 9ebe 4576 0b3d
00000010: c318 a13e d3ba d8be 9515 3dbe 5ea1 e43d
00000020: 702b 5f3e 6086 4f3c db0d eebc 8142 37be
00000030: a9da 0fbe 0fa8 93bc 265c 88be 0d0f f53d
00000040: 402b 8a3e e3d3 5abe c435 d6bd 7e82 40be
00000050: 963f 023e 04e4 8f3e e6fb 0a3e 569f 2e3e
00000060: 9795 843d fa44 93be cbf5 5cbe 89d4 62be
00000070: f14a 0bbe 3fbb 873e 00a3 333e 4a2e 4b3e
00000080: c7dd 93be a0f9 a4bd 4772 823b 250f 22be
00000090: 1c21 553e 7731 cfbe c1a8 0abd 7ade 2fbe
000000a0: 2138 c5be 236a d43c 4820 48be 2054 5fbe
000000b0: 8fb4 0bbe e386 423e b1b2 063c 3500 c5bd
000000c0: f817 453e 22d6 643e 0e7a 463d 5135 be3d
000000d0: ce9e 1f3e 9d08 af3e 761b cebd 0b2f b6bd
000000e0: 5b4e 263e eee3 1b3e 54eb 44bd 60ef cbbd
000000f0: 72c6 8e3c 3753 853d 6389 d43d 7181 7d3d
00000100: 3a34 a03d 50c5 683e b7e2 50be 2b8e c13e
00000110: 8573 3f3e 96ab a7be 7cd2 573d 8927 d0bd
00000120: 572f 3f3e cb15 613e 5907 c03d 21dc bc3e
00000130: 803b 0a3d 1b84 15be 8653 663e 47df 3abe
00000140: fd5c b23e 2bf0 84be 5850 453e fe79 7dbe
00000150: df4a 2a3e 440a f73c 3d74 b03c fe98 7f3e
00000160: 9b2a 37be 4919 2cbe 83f6 c5bc 78df 083e
00000170: 5ee0 033d bd1f a9be ecfa 4dbe 5b12 5abc
00000180: c592 52be deb3 f5bd 570f a5be 5a2d 9cbe
00000190: 628e f43d 7e7c 0f3e d82c 4e3e de99 633e
000001a0: ff89 64bc 0cb1 c33d fdc4 a63e 0b08 d23a
000001b0: 11bb 0bbd dad8 6a3e f568 7fbe b757 e9bd
000001c0: 83c9 663e 77ea 853c b3d7 a13e eb5e cf3e
000001d0: 6a17 3fbd 6997 bcbd 7a71 98be c106 63be
000001e0: 6fa2 463d 7912 c3bd 589b 48bd 19e9 193e
000001f0: c0b9 083e 28dd a73e db69 82be 3e98 ff3d
00000200: 1bd7 e03c ca45 ee3d 2f34 083e a4ff 16bd
00000210: 75d8 453e 5974 acbd d1e7 483e 774f 02be
00000220: 3477 963e e7c0 103e 7db5 f5bd c2ec fcbc
00000230: a842 a6bd e316 953d f5f9 60bd bb2f 0ebe
00000240: 841b 1b3e 4d01 89bd 0548 20be 8784 9cbc
00000250: 4fcc 69be 469c ba3d da23 33be 77e2 da3e
00000260: 1739 743e 937d 583e 36d4 9fbe de38 043e
00000270: efa5 c83d ed26 203e a579 c63c a2ad b8be
00000280: 6ac0 aabe 1b02 cb3d 411a 993b a68d 843e
00000290: 905b 593e d8db dcbd cd3d 7f3e 7bd8 1a3e
000002a0: 7328 5d3e bc8f 773d 8348 98be e4bc 983e
000002b0: a385 a63e 9fe8 eb3d b7dc 983e ed5e 77bc
000002c0: 32d6 3dbe 183b c83d 8c28 2a3c 9de6 ac3d
000002d0: 8709 353d ca14 693e 9949 cc3c 7a64 7fbd
000002e0: be0e b73c 2d1e 9cbd 565b 733d 0fdf 533e
000002f0: 063c e93e 5658 b53d 5911 2ebe 993e 943e
00000300: e185 2cbe 09c2 78bd 1cb2 fabd 80f6 25be
00000310: 1c8f 213d da5f 0bbd 90a5 8339 4c58 28bd
00000320: 0e6e 77be 3c68 013e dac3 a33d 7b8a b53c
00000330: 629a d73d 2e82 913d d875 613d 87d9 7bbe
00000340: 98aa 5e3e 5bd3 763e 7ba7 51be 9ea4 84be
00000350: 28bc 9abe 9e2f d3bc 081a 9c3e 0650 7dbc
00000360: 3208 bd3d c649 63be a048 afbe f722 bfbd
00000370: 0a7f 313e 15dc 61be 34d6 c53d 9545 43bd
00000380: dd3e 643e cd74 85be 9967 a2bb 1764 dfbc
00000390: 5518 963e 7e43 2cbd 467d 74be ce15 253e
000003a0: 96f1 d7be 0aa0 adbd 6f3a 3c3e 4aa8 133d
000003b0: 5780 863e 7bc5 a0bd 646a f3bd 4f73 6e3e
000003c0: 212c 9dbe 9c6c 63bd b8a6 8a3e 975f 22bd
000003d0: cc3a 28be d50f d4bd 569c 0dbd b4a2 b73d
000003e0: e512 893e a6f5 313e 3c2e fc3d 34bc 1fbd
000003f0: 2016 21bd 4ff5 00bd 4800 10be 710a c23e
0.12810455 -0.055143975 -0.30924398 0.034048337 0.31464204 -0.42330036 -0.18465264 0.11163591
0.21793914 0.012666315 -0.029059341 -0.17896463 -0.14048256 -0.018024473 -0.26632804 0.11965761
0.26986122 -0.21369891 -0.10459474 -0.18799779 0.12719569 0.2810365 0.13572654 0.1705297
0.064738445 -0.28763562 -0.21578138 -0.22151388 -0.13602807 0.26510045 0.17542648 0.19841877
-0.2888014 -0.08055425 0.003980908 -0.1582609 0.20813411 -0.40467426 -0.033852343 -0.17174712
-0.38519385 0.025929516 -0.19543564 -0.21809435 -0.13643096 0.18996768 0.008221314 -0.0961918
0.19247425 0.2234731 0.048456244 0.09287513 0.15587923 0.3418626 -0.100638315 -0.088956915
0.16240828 0.15223667 -0.04807599 -0.099577665 0.01742861 0.065100126 0.10377767 0.061891023
0.078224614 0.22731519 -0.20398985 0.37803778 0.18696411 -0.32748097 0.052690968 -0.10163791
0.18670402 0.2198097 0.093764015 0.36886695 0.03374815 -0.14601175 0.22492799 -0.18249236
0.3483657 -0.25964484 0.1926893 -0.24753568 0.16630124 0.030156262 0.021539802 0.24960706
-0.17887346 -0.1680652 -0.024165398 0.13366497 0.032196395 -0.33032027 -0.2011525 -0.01331004
-0.205638 -0.119971976 -0.32238266 -0.3050335 0.1194122 0.14012334 0.20134294 0.22226664
-0.013948916 0.095552534 0.32572165 0.0016024126 -0.034113947 0.22934285 -0.24942382 -0.113936834
0.22537808 0.016347153 0.31609878 0.40502104 -0.04665319 -0.09208567 -0.29774076 -0.22170545
0.048494752 -0.09525008 -0.048976272 0.15030326 0.13352108 0.32785916 -0.25471386 0.1248021
0.02744632 0.11634405 0.13301156 -0.03686489 0.19320853 -0.08420629 0.19619681 -0.12725626
0.2938782 0.14136086 -0.11997507 -0.030874614 -0.081181824 0.07279756 -0.054925878 -0.13885395
0.15147215 -0.06689701 -0.15652473 -0.019106163 -0.22831844 0.09111838 -0.17494145 0.42750904
0.23849903 0.21141653 -0.31216592 0.12912318 0.09797274 0.15639849 0.024227927 -0.3606997
-0.33349925 0.09912511 0.004672319 0.2588932 0.21226335 -0.10784119 0.24925919 0.15121643
0.21597461 0.06043981 -0.29742822 0.29831612 0.32523832 0.11518978 0.29855892 -0.015098316
-0.1853874 0.09776896 0.010385644 0.084424235 0.04419854 0.22761837 0.024937438 -0.06235168
0.022345897 -0.07622943 0.059413277 0.20690559 0.45553607 0.08854739 -0.16998805 0.28954008
-0.16847946 -0.06073192 -0.12241003 -0.16207314 0.03944312 -0.034026958 0.0002510962 -0.04109983
-0.24163076 0.12637419 0.0799634 0.02216076 0.10527493 0.07104908 0.055044025 -0.24594699
0.21744764 0.24104063 -0.20474045 -0.25906843 -0.30221677 -0.025779542 0.3048861 -0.015460974
0.09230079 -0.22196111 -0.34235096 -0.09332841 0.17333618 -0.22056611 0.09659997 -0.04767378
0.22289605 -0.26065674 -0.0049561975 -0.027269406 0.2931544 -0.042056553 -0.23875913 0.16121599
-0.42176503 -0.08477791 0.18381666 0.036049165 0.2626979 -0.078501664 -0.11885527 0.23286174
-0.3069773 -0.0555235 0.2708032 -0.039641943 -0.16428679 -0.10354582 -0.03457292 0.0896658
0.26772228 0.17378864 0.12313506 -0.038997844 -0.03932774 -0.031483945 -0.14062607 0.3789859

actor_net.2.bias f4 [64]
00000000: 8646 51bd 1448 2dbd 0a31 38bd c08f 9abd
00000010: 9ca1 21bc 9723 d7bc 25bf 663d 66d9 31bd
00000020: cd94 4dbd fc1c 2c3d 2498 783d e166 66bd
00000030: c9f7 053d 176a 40bd 85cf 4cbd 04d3 1ebd
00000040: 2f25 ad3d ea8b adbb 92fd 2abd 07c5 603d
00000050: 7d4d 4ebd 128e 103c 7ea6 8e3d 7682 16bd
00000060: 3a6a 643d ee84 a23c 7063 193d f8e7 273d
00000070: 9d50 a4bd 08d8 153d 4475 94bc 062b 1b3d
00000080: 2193 473d c24b 723d da71 78bd 292f 39bd
00000090: 4c4c 8abc a07d 303d 6f0a 3dbd 93bb 0dbd
000000a0: a530 1bbd d894 7f3c 82f7 f33c 0fd3 3bbd
000000b0: 0875 a7bd 7f55 1a3d d828 90bd 53a9 afbd
000000c0: 1310 92bd c3b3 383d ae75 153d 6a09 d73c
000000d0: 060a 44bd f70e 61bd e94a 8b3d a371 52bd
000000e0: 3a5c 88bd d4a9 44bd 9e35 8a3c bbe1 593d
000000f0: 4328 2dbd f74f 7abd 5f6a 863d 1f74 13bd
-0.051092647 -0.042305067 -0.044968642 -0.075469494 -0.009865191 -0.026262088 0.056334633 -0.043420218
-0.050190736 0.04201983 0.060691968 -0.056250457 0.03270701 -0.046976175 -0.050002594 -0.03877546
0.08454358 -0.00529622 -0.04174573 0.0548754 -0.050366867 0.008822935 0.069653496 -0.03674551
0.055765368 0.019838776 0.037448347 0.040992707 -0.08023188 0.036582977 -0.018122323 0.037882827
0.048724297 0.05915428 -0.060655452 -0.04521099 -0.016882084 0.043088555 -0.04615253 -0.034602713
-0.037888188 0.015599452 0.029781107 -0.045855578 -0.08176619 0.03767919 -0.0703904 -0.08577218
-0.07131972 0.04509331 0.03648918 0.026249606 -0.04786112 -0.054945912 0.06801397 -0.051377904
-0.06658216 -0.048013523 0.01687127 0.05319379 -0.042274725 -0.061111417 0.065632574 -0.035999414

actor_mean.weight f4 [1, 64]
00000000: e278 143d 69e4 603d 55e1 3c3d a441 d33c
00000010: 24d5 c6bc fbed 003d 2dd7 f3bc 5c67 5d3d
00000020: 4cd9 0f3d 998f 22bd ef47 e8bc 48a9 013d
00000030: b158 c6bc fd60 0c3d 1dd8 343c 3fa1 263d
00000040: 48f5 f7bc 8b5d b13d cc3f 103d 9d68 04bd
00000050: e7dd 933c 9c1c 11bd 2f85 afbc a0e0 903d
00000060: ddae 04bd e398 2ebd 17f6 94bd bcd3 88bd
00000070: d241 8d3c f3e9 68bd 1a6b 293d c6cb 5bbd
00000080: b275 f8bc daf7 32bc 373b 353d 6c88 643d
00000090: 58f7 093e d062 b8bc d6db ea3c 068e 753d
000000a0: 07e8 153d c12a ab3c ceb2 a6bd d785 2e3d
000000b0: f2b3 d83c c893 1bbd a0e1 c53c 7b0b c63c
000000c0: 193b df3c be20 53bd 5309 a13a d3fb 10bc
000000d0: a88e 6e3d e21f da3c bdfd e0bc dd8d 9b3c
000000e0: 6520 9f3c 6dae 1b3d 0fd9 87bd 2efe f5bc
000000f0: 2380 2a3d 1827 6a3c 46af c0bc 636e 633d
0.036248095 0.05490533 0.04611333 0.025788136 -0.024271555 0.031476956 -0.02976569 0.05405365
0.03511934 -0.039687727 -0.028354613 0.03165558 -0.024212213 0.034272183 0.011037854 0.04068112
-0.030268326 0.0866042 0.03521709 -0.03232633 0.018050147 -0.035427675 -0.021425812 0.07074094
-0.032393325 -0.042626273 -0.072735004 -0.0668101 0.0172433 -0.056863736 0.041361906 -0.05366113
-0.030329559 -0.01092335 0.044245925 0.055794165 0.1347326 -0.022508055 0.02866928 0.059949897
0.03659823 0.02089441 -0.08139573 0.04260811 0.026452992 -0.037982732 0.024155438 0.024175396
0.02724986 -0.051544897 0.0012286104 -0.008849102 0.058241516 0.026626531 -0.027464742 0.018988544
0.019424627 0.038008142 -0.066331975 -0.030028429 0.041626107 0.014291547 -0.023521077 0.055525195

critic_net.0.weight f4 [64, 8]
00000000: b99c d33d 0a6f 70bc 5934 a9bd a654 c1bd
00000010: 09ce 803e ffc7 133e 43ed 023e 7c53 ccbd
00000020: 26d4 6dbd 770a d5be 4bcb a33d b4d5 1a3e
00000030: a716 b1be 0a07 26be 1f58 b93c 257b 04bf
00000040: 4845 913d f597 c7bd 0e74 a03e 6c15 613d
00000050: 9457 a0bc 9a20 953c fb57 25be a25a 1e3e
00000060: 56aa d53d 8218 c93d 56a5 8b3e dd8c d3bd
00000070: b350 a9be 4073 9e3e 9fbc 6e3e f0c1 a6be
00000080: 979c 4c3d 1e65 1f3d e6e9 e9bd 05ff dcbd
00000090: 8874 fc3d c60d 3ebd a5d6 393e 536b 9b3e
000000a0: 90af 9b3e 5a0f 693d 6786 29bd aee0 0cbe
000000b0: a2cf 0ebf 45a8 50bd 23b0 35be 27af e4bd
000000c0: dc74 68bd b797 683c 3120 203d 5cfe af3d
000000d0: 2e1f 973e 3d89 28be 8489 6f3c a9b2 0cbe
000000e0: 9a4d eb3d 30b4 ebbd 010a 0e3d 62b6 a6be
000000f0: 3e76 48be dcdb 94bc d98a 853d 6440 83bd
00000100: b186 843e 0c0b d53c 75df 0abc df1b ef3d
00000110: e024 71be 9903 e43d f292 ad3e db68 b33e
00000120: 97f2 74bd 9066 a13e a48a e9bd 63dd 50bd
00000130: 7ac9 4ebe 042c 8b3e 0549 92be a642 aa3c
00000140: 5d8f 4d3d 460d 98be a763 15be 5e29 90be
00000150: a465 eabe 7dc0 bdbc 6c79 73be 0779 e1bd
00000160: a7ba 1abe 8642 82bd b057 bfbe 7357 57be
00000170: a7e7 c63e bd57 dc3d 0e3d 0e3e 2222 b63d
00000180: d121 7d3d fe07 4f3e 0b7a d6bd 98b1 d93c
00000190: 4125 d2be 5e81 b93d 0a53 c43b 3e7b b93d
000001a0: eb23 17bd 3fa4 2d3e 0991 6c3e 6117 f8bc
000001b0: 6c1f 6ebe 0be7 17bd 5d37 693e 24da 013d
000001c0: de29 663d ef79 963d bfb5 a4bc 1f48 a23e
000001d0: ddac 43be b3ed fb3d a6a3 3bbe 5662 63bd
000001e0: e621 a53d 68a9 163e 3e43 22bd 4311 adbe
000001f0: f6f1 8ebe 0896 373d 71e3 f03c 90d6 46be
00000200: f9fe 693e 5b5c cfbe ee20 fdbd c5ec 793c
00000210: 78a9 053f ebd2 a8bc 1a85 cf3d 9e86 1ebd
00000220: 7066 4cbc a28f ccbe c4b7 8dbe ff51 043e
00000230: 7038 f63e d82f 1ebe 5286 cd3c dfdc bdbc
00000240: bc5e 9ebd e6dc b3bd a477 d9ba 25cb 253d
00000250: 019c 0cbf 615c 69be 93dc a13d 741b 86bc
00000260: 4548 103e f6f3 3abe 4688 a3be 58b0 a63d
00000270: f206 003d 399a a9bc 833e f0bd 321e 53bd
00000280: 1e49 6abe c05c 14be cb49 b7bb 88b3 b7be
00000290: 09a3 f5be 9649 7eba f3c0 bc3c a8ec 973d
000002a0: f63a b6be 90c7 873e e346 02bd e163 8c3d
000002b0: 9184 f13e ff5e 9abe d949 79bd e561 c03d
000002c0: 458e 6ebe 2559 82bc cecd afbe 058b 64bd
000002d0: 2551 843e 0949 d8bd 1588 fbbb a86a 9a3e
000002e0: 1206 473e 3afa 8bbe c88a 883e d5ec afbe
000002f0: 3ee8 913e aeb3 8abe 4436 92be 78b0 41be
00000300: ffe0 e0bd 961b 6c3d d410 62be 02bf c53d
00000310: 1949 b13e 75ab c13d 94d9 763d 6f41 47be
00000320: 9c07 083e 0e22 333e 9743 213e 798a aebc
00000330: a2d4 ab3e 0266 35be 55f2 0abf 75cb f1bd
00000340: 742a 853e 8bc6 ffbd b91a bc3d e2b1 4c3e
00000350: ceff 9a3e 71a8 f23d 64d2 bcbc 51eb 14be
00000360: 0dec 013e 0699 973e db7b 753e 5ccf 9bbd
00000370: 1039 b8be dd4f 203d 26dd a5be 50b7 d53d
00000380: eb55 a6be e605 103e 9c4d 683e 4c8b 323e
00000390: 831b 84be c8cf 853d b203 db3e 8f32 9bbe
000003a0: a604 6a3e aa76 f0bd 6ef8 8b3d 4163 3d3e
000003b0: bd69 2ebe 4e56 e63d 907a 03be 0958 113e
000003c0: 3133 14bc 6901 0e3e 4252 20be d88c 24be
000003d0: 0568 0f3f 7cbe efbc a9f1 3dbe 9a9d 32be
000003e0: 473c 98bd adeb 6b3e ec91 763d 7696 77be
000003f0: dea1 293e 2bf4 1cbd ecf3 6c3e 76c9 e2bd
0.10332627 -0.014674911 -0.08261938 -0.094399735 0.25157192 0.14431761 0.1278582 -0.09976861
-0.05806365 -0.41609547 0.079977594 0.15120584 -0.34587595 -0.16213623 0.022625027 -0.51750404
0.070932925 -0.097457804 0.31338543 0.05495207 -0.01957301 0.018204022 -0.16146843 0.15464261
0.104328796 0.098191276 0.2727458 -0.10329602 -0.3306938 0.30947304 0.2331414 -0.32569838
0.049954023 0.038914792 -0.11421566 -0.107908286 0.12326914 -0.046399854 0.18148287 0.3035532
0.3040738 0.056899406 -0.04138794 -0.13757583 -0.5578557 -0.050941724 -0.17742972 -0.1116622
-0.05675207 0.014196328 0.0390932 0.08593437 0.29515976 -0.16458602 0.014620189 -0.13740028
0.11489411 -0.115089774 0.03467751 -0.32561022 -0.19576356 -0.018171243 0.06520624 -0.06408766
0.2588401 0.026006244 -0.008476128 0.11675238 -0.23549223 0.11133499 0.33901173 0.35040936
-0.059801664 0.3152356 -0.11403397 -0.05099238 -0.20194045 0.2718202 -0.28571334 0.020783734
0.05018555 -0.29697627 -0.14588796 -0.2815656 -0.4578067 -0.023163075 -0.23776788 -0.11009412
-0.15110265 -0.063603446 -0.37371588 -0.21029453 0.38848612 0.10758922 0.13890478 0.08893229
0.061799828 0.20217893 -0.104724966 0.026573941 -0.41044047 0.09057878 0.0059913443 0.0905671
-0.03689949 0.16957186 0.23102202 -0.030284585 -0.23254174 -0.037085574 0.22775026 0.031702176
0.05619227 0.07347476 -0.020106195 0.3169565 -0.19108911 0.12301197 -0.18324146 -0.055513702
0.08063106 0.14713061 -0.03961491 -0.33802232 -0.27918977 0.044820815 0.029405328 -0.19417787
0.2285117 -0.4050015 -0.123597965 0.015254204 0.52211714 -0.020608386 0.10132809 -0.0387026
-0.012475595 -0.39953333 -0.27679265 0.12921904 0.48089933 -0.15447938 0.025088463 -0.023176609
-0.07732913 -0.087823674 -0.0016591442 0.040476937 -0.54925543 -0.22789146 0.07903399 -0.016370513
0.14090069 -0.18257126 -0.31939906 0.08139104 0.031256624 -0.020703422 -0.11730673 -0.05154247
-0.22879454 -0.14488506 -0.0055935136 -0.3587916 -0.47975948 -0.0009700296 0.023041224 0.074181855
-0.3559186 0.26519442 -0.031805884 0.06854988 0.47171453 -0.301506 -0.060861442 0.09393672
-0.23296459 -0.015911648 -0.34336704 -0.05579664 0.25843158 -0.10560805 -0.0076761344 0.30159497
0.1943591 -0.27339345 0.26668382 -0.34360376 0.284975 -0.2709021 -0.28557026 -0.18914974
-0.109804146 0.057643496 -0.22076732 0.096555725 0.34626082 0.09456531 0.060266092 -0.19458555
0.13284153 0.1749346 0.1574844 -0.021306263 0.33560663 -0.17714694 -0.5427602 -0.118063845
0.26008952 -0.12489041 0.091847844 0.19989732 0.30273288 0.11848534 -0.02304954 -0.14542891
0.12687702 0.29608935 0.23973028 -0.0760791 -0.35981035 0.039138664 -0.32395285 0.10435355
-0.32487425 0.1406475 0.22685856 0.1743595 -0.2580224 0.06533772 0.42776257 -0.3031201
0.22853336 -0.117413834 0.068344936 0.18494894 -0.17032523 0.1124693 -0.12839723 0.14193739
-0.009045408 0.13867725 -0.15656379 -0.16069353 0.56018096 -0.029265635 -0.18549217 -0.17442933
-0.07433372 0.23039122 0.060197756 -0.2417849 0.16565654 -0.038318794 0.23139924 -0.11073582

critic_net.0.bias f4 [64]
00000000: fba0 0c3d dc0f 6cbd af78 153d 7a62 9dbd
00000010: d919 323d e577 8bbd 876b 5d3d e56b 36bd
00000020: 0e48 bbbd 11ea 6b3d d325 a8bd 3fc7 023c
00000030: ade7 77bd 9871 64bd 29d6 1f3d a734 5dbd
00000040: baea 5e3d 337a 853d 9413 8abd ec93 4f3d
00000050: 6509 7bbd 960a e23c ec21 643d 415e 403d
00000060: 3ead 503d 48b8 db3d 4ca9 273d 8f17 52ba
00000070: 2a0a a0bc 30f2 5bbd 6dd2 913d 1a62 083b
00000080: 99a9 51bd 461b 97bd 649a a1bd 17d5 02bd
00000090: 448f 57bc a249 36bc 2968 8dbd aaa6 7b3d
000000a0: 2039 66bd 4f98 433c b872 3cbd 462b 843d
000000b0: 713e 903d 6819 6fbd 07e3 a53c a640 54bd
000000c0: 1c94 5d3d 2409 9a3d 7fcd 64bd 8b9a 0f3d
000000d0: e43d 42bd 513b 3b3c 2fe5 963d 56bd 573d
000000e0: bbec 8b3d d320 693d 144e c7bb 1dfa 973d
000000f0: dd50 7dbd 510b 0b3d c8a1 49bd 65b6 1f3d
0.03433321 -0.057632312 0.036492046 -0.076847985 0.04348168 -0.068099774 0.054057624 -0.04453649
-0.09144603 0.05759627 -0.082103394 0.007982074 -0.060523678 -0.055772394 0.0390226 -0.05400529
0.05442307 0.06517448 -0.067420155 0.05067818 -0.061288256 0.027592938 0.055696413 0.046964888
0.050946467 0.10728508 0.04093294 -0.0008014375 -0.019536097 -0.053697765 0.07120214 0.0020810426
-0.05118713 -0.07378249 -0.07890776 -0.0319415 -0.013156716 -0.011125954 -0.069046326 0.06143824
-0.056206822 0.011938169 -0.04600784 0.06453566 0.0704316 -0.05837384 0.020249857 -0.051819466
0.054096326 0.07521275 -0.05586004 0.035059493 -0.047422305 0.011427716 0.07367932 0.0526708
0.06832262 0.05691607 -0.0060823057 0.07420752 -0.061844695 0.03394634 -0.049226552 0.038992304

critic_net.2.weight f4 [64, 64]
00000000: 1ab8 b03d 80ad b8bc 19ee eebd 4678 c53a
00000010: 6fa8 993e 13e8 ad3d 245d f6bc 640c c03b
00000020: ffbf 4f3e c00e 3ebe aec2 02bd 812b 9c3c
00000030: ef0a 61bd 2050 0cbd ffcd 56be ff2d 9e3e
00000040: aa43 e4be 876f 433d 87a5 87bc cc22 d2bc
00000050: 72bc 37be 14c8 c4bd a97a cbb9 3e3d 4a3e
00000060: f616 313d fad3 cc3d dc94 6bbd 411d 553c
00000070: 8222 b23b 3f6e a83d a838 3fbd 05cd d53e
00000080: 18ff fb3d 1288 ec3e 52ab 673b 76dc 1b3e
00000090: e5e2 27be 2481 303e b9f9 853e a3b7 f0bd
000000a0: e178 493e d031 203e 829d ac3e a878 2b3e
000000b0: 1c90 603e 5901 333d e2cc 11be 5636 443e
000000c0: f8da 2b3b c68b 043e 645c 2c3e 2628 35bc
000000d0: 6af2 bd3e 1c88 96bd 628a d1be 90d7 713d
000000e0: 1b12 debe 6e3d 64be 1d32 023e 8455 b6be
000000f0: fef2 873e 9ce7 db3e fe2b 9c3d cc26 95bd
00000100: 4f0a dabd 3e73 d83e 29e4 733b 3c17 35be
00000110: e0db f9bc 06b8 f53d 099a e7be fe4f bdbd
00000120: 0c56 4abd c11d acbd 4e46 a83e 2826 663e
00000130: 34f5 99bd 8daa 4abd c257 4dbd 8a09 bb3d
00000140: 0fce 08be 79a0 bcbd 2d24 08be c8d0 ab3e
00000150: ef70 23bd 0f0f 48be 7c24 93be 70d2 b6bc
00000160: 8046 693e ef1b 6d3e de13 97be 87c8 053e
00000170: 090c 26be 9fa4 2f3e 5b62 23be c530 2a3d
00000180: 4960 0ebd 8ea2 d83d c29d c7bd fc88 5b3d
00000190: e3b2 31be 417b 5a3d 924b c0bc ac10 a93d
000001a0: af24 40be 727e afbd 716e 193e 1a1f efbe
000001b0: a075 293e c0c8 893e e84d f9bd f2f0 023d
000001c0: 6971 49bd 69f4 48be 84ff 163e 4360 933e
000001d0: 4feb 54be 0bfa 4bbd 23dd 8fbe b3bf 80bd
000001e0: b12d d6bd e0b7 c33d 0420 bebd 6df7 51be
000001f0: 4a89 ee3d ac82 9dbe df86 25be edf9 4cbd
00000200: a2f9 7c3e a1e6 acbe 8759 2d3e b0c0 8ebc
00000210: 9213 6ebd 9937 abbc 7080 fabd 3160 16bd
00000220: 45f5 383d 0f03 8a3e 817e 27be a966 b83d
00000230: ec9b 8e3e fc52 86be c654 96be ecd1 d0bd
00000240: 3320 193e 5d39 32be 26a1 08be 5025 a63e
00000250: ef75 a33d 5b25 003e b0fb 3f3e 5452 263e
00000260: 0190 e43d 9121 afbc 4e79 073d 93d1 853d
00000270: 08fa 303e 2ff8 fc3c 45e7 72be 1f8f 553e
00000280: 3083 e8bd e256 2abe f2f2 4e3e 5eb4 e73d
00000290: af73 9bbd fae2 d23a d2f1 853d 33b7 943e
000002a0: 15f1 09bc da1a 643e a9b9 d13c b1c0 3e3e
000002b0: c481 9e3c 3f4a 4cbd 3545 bfbe 70eb 6dbe
000002c0: 4e63 ce3d 2a76 45bd cc89 a23c 02eb fb3d
000002d0: e73e 5fbe 3493 3abe 930f 3e3e 94d0 bd3c
000002e0: 479a 753d 4744 e8be 6d96 133e 842c b23e
000002f0: d3ee 063e 8892 87be c8ad fcbd fdeb 883e
00000300: a8b6 c03d 5e7c babe ccc9 1fbf d6aa b1be
00000310: 83bc 323e 5d58 11be 5e01 0ebd 3b23 ab3e
00000320: f657 c0bd 2a34 123d a581 043e d3da 2b3e
00000330: bded 39bd 4903 49be 7212 59be 1b87 12be
00000340: 9354 a63e 10aa d73d 0c4d 1fbe 00e9 bd3d
00000350: 7192 213c 1cf7 1e3d 5204 53bd 4015 8a3c
00000360: 0785 233e 8d38 afbe cc1d 8d3d fb5a 66be
00000370: 8b9e a4bd 81ac 46be 16f2 5abd 1b4b 483d
00000380: 9b7b 293e b3ea f9be 06af ccbd d8f0 08bd
00000390: 9f1d d0bd 13b3 853d 41eb 89bd 3e20 8c3e
000003a0: 0936 6d3e 35b8 17be d718 0c3e e84c a8bd
000003b0: 9213 b1bd 0cdb 08be ec88 a43d 014a d63d
000003c0: 146e 02be c3f1 25be 9243 a0bd 1562 2f3e
000003d0: 32d2 92bd d9d8 a4bd 198d 293e de6b bb3d
000003e0: c34e 04bd b8d1 573e f259 9bbd 05c5 d6bd
000003f0: ddb7 77be 94df 823e 4dda bbbd 82b5 8a3e
0.086288646 -0.022543669 -0.11666507 0.0015065752 0.30011317 0.0849153 -0.03007371 0.005860852
0.20288084 -0.18560314 -0.031923942 0.019063713 -0.054942068 -0.0342561 -0.20977019 0.30894467
-0.44582874 0.047713783 -0.016558422 -0.025651358 -0.1794298 -0.096084744 -0.00038810566 0.19749925
0.043234788 0.10001369 -0.05751501 0.013007463 0.0054362426 0.08224153 -0.04668489 0.4175798
0.12304515 0.46197563 0.0035349918 0.15220818 -0.16395147 0.17236763 0.26167086 -0.11753776
0.19675018 0.15644002 0.3371392 0.16745245 0.21929973 0.043702457 -0.14238313 0.19161353
0.0026223045 0.12943944 0.16832119 -0.011056935 0.3709901 -0.073501796 -0.4092589 0.059043467
-0.43373188 -0.22289059 0.12714429 -0.35612118 0.26552576 0.4295014 0.07625578 -0.072827905
-0.106464975 0.42275423 0.0037214851 -0.17684644 -0.030500352 0.1199799 -0.45234707 -0.09243773
-0.049398467 -0.084041126 0.32866138 0.22475493 -0.07517472 -0.049479056 -0.05013252 0.09132679
-0.13359855 -0.09210295 -0.1329505 0.33557725 -0.039902624 -0.19536994 -0.28738773 -0.022317141
0.227808 0.23155187 -0.29507345 0.13064776 -0.16215529 0.17152642 -0.15955488 0.041550416
-0.034759793 0.1057788 -0.09746887 0.053597435 -0.17353396 0.0533402 -0.023473535 0.08255133
-0.18763994 -0.085690394 0.14983536 -0.46703416 0.16548777 0.26910973 -0.121730626 0.031968065
-0.049180422 -0.19624485 0.14745909 0.2878438 -0.20792888 -0.049799006 -0.280984 -0.06286564
-0.10457934 0.09556556 -0.0928345 -0.20504542 0.116472796 -0.30763757 -0.1616473 -0.050043035
0.24704602 -0.33769706 0.16928683 -0.017425865 -0.058124132 -0.020900534 -0.12231529 -0.03671283
0.045155782 0.2695546 -0.16356851 0.09003956 0.27853334 -0.26235187 -0.29361552 -0.101962894
0.1495369 -0.17404695 -0.13342723 0.32450342 0.079814784 0.1251425 0.18748355 0.16242343
0.11160279 -0.02137831 0.03307467 0.06534114 0.1728288 0.030880062 -0.23721035 0.20855378
-0.11353147 -0.16634706 0.20209864 0.11313699 -0.07590424 0.0016089373 0.06540264 0.2904602
-0.008419295 0.22275868 0.025601225 0.18628193 0.019348986 -0.049875494 -0.37357488 -0.23234344
0.100775346 -0.048208393 0.019841097 0.123006836 -0.21801339 -0.18220216 0.18560629 0.023170747
0.059961583 -0.4536459 0.14412852 0.34799588 0.13177042 -0.26478982 -0.12337834 0.26742545
0.09409839 -0.3642301 -0.6241729 -0.3470065 0.17454724 -0.14193864 -0.034669273 0.33425316
-0.09391777 0.03569428 0.1294008 0.16782694 -0.04539274 -0.1963016 -0.21198443 -0.14309351
0.324864 0.10530484 -0.15556735 0.09272957 0.0098615745 0.03880988 -0.051517792 0.016855836
0.15968715 -0.34222832 0.06890449 -0.22495644 -0.08038052 -0.19401743 -0.053453527 0.04889975
0.16551058 -0.48811874 -0.099943206 -0.03343281 -0.101619 0.06528296 -0.06734324 0.2736835
0.23165144 -0.14816363 0.1368135 -0.08217794 -0.08646311 -0.1336481 0.08033928 0.10463334
-0.12737304 -0.16205506 -0.07825388 0.17127259 -0.07168998 -0.08049173 0.1655773 0.091514334
-0.032301676 0.21076095 -0.07585515 -0.10486797 -0.24191232 0.25561202 -0.09172497 0.27091604

critic_net.2.bias f4 [64]
00000000: 753e 50bd 6277 36bd 687e 193d dc1a db3c
00000010: 33bb 2b3d cc87 43bc 25aa 1a3d 2dbd 83bd
00000020: 82ee 3dbd bc13 603d d1b9 3ebd a499 03bd
00000030: 79a9 1abd 1e3a 4bbd 9a50 0ebd db40 273d
00000040: fe05 4d3d cd88 403d 0c00 243d d780 f23c
00000050: 68d3 713d 9304 41bd 31d4 4f3d 817e 4d3d
00000060: e1d8 89bd 0251 3f3d 6960 363d fada 4d3d
00000070: 5f77 1fbd a6f3 36bd 90b9 6d3d ff2c 333d
00000080: d2fd 1fbd 3a18 1ebd 839d 11bd b785 4b3d
00000090: 58cd dabc 2189 12bd d035 1cbd dd17 163d
000000a0: 5afd 1d3d 6c06 5d3d 7c30 56bd 1329 06bd
000000b0: 7031 29bd 51ac 09bd e6cc 14bd 85c1 12bd
000000c0: 050f 75bd 49cd 1ebd ff6f 81bd 5700 b93c
000000d0: 886c 3ebd f74e 343d 8584 8a3d add6 6e3d
000000e0: 88d7 37bd 0769 5c3d 1b3e fabc 43ee 00bd
000000f0: 16a4 353d 34f7 1c3d a297 6fbd ad3f 1d3d
-0.050840814 -0.044547446 0.037474066 0.026746206 0.041926574 -0.011934232 0.03775992 -0.06432567
-0.046370037 0.05470632 -0.046563927 -0.032128945 -0.037759278 -0.04961597 -0.034744836 0.040833335
0.050054543 0.047005463 0.040039107 0.029602451 0.059039503 -0.047123503 0.05073947 0.05016947
-0.067308195 0.046708114 0.044525538 0.05025766 -0.0389322 -0.044665955 0.058038294 0.043744083
-0.03906042 -0.038597323 -0.035550606 0.049688067 -0.026709244 -0.035775308 -0.038137257 0.03664385
0.038571693 0.053961203 -0.052292332 -0.032754015 -0.041306913 -0.0336116 -0.03632822 -0.035829086
-0.059828777 -0.038769994 -0.0632019 0.02258317 -0.046490222 0.04402062 0.06763557 0.0583102
-0.04488328 0.0538111 -0.030547192 -0.031477224 0.044345938 0.03832169 -0.058494218 0.038390804

critic_head.weight f4 [1, 64]
00000000: 8a73 793e f7e3 533d 7e4b 01be adbc 1fbe
00000010: ed8f 14be 9ee1 8b3d 31c1 36be 4413 fd3d
00000020: bbdc 663e aa86 9bbe 8053 d63d 8a8b c03d
00000030: 862d 783e a2e9 793e 0f2e 743e 814e cbbc
00000040: 61c1 83be d0aa a6bd 04e3 2dbe 00ce 9ebe
00000050: 66d4 14be 3f6d 0c3e 86f2 c6bd 0481 09be
00000060: 58c9 fe3d 8340 23be fae7 9cbd 6472 cabe
00000070: acbb d03d 52e7 5b3e 4332 b7bd 08f9 06be
00000080: 2c0c 4f3e 7331 243e 37dc 033e bd9b b3bd
00000090: f2f8 0c3e 6ce3 783e 9ef9 5a3d 8eff debd
000000a0: 0b46 a1bd 6254 1bbe 7107 1d3e 50cb 2c3e
000000b0: a886 c13e 5411 7d3e d10e ff3d be5a 4d3d
000000c0: 2f30 f43d 3494 cc3d 87a2 893d 43fe 26be
000000d0: c219 2b3e 57a6 9dbe 0e3d 44be 4778 0cbe
000000e0: 6c0b dd3e f2fc 26be fc06 563d 1a60 6c3e
000000f0: 8bed a4be 0f68 8abe 28c6 9c3e 669e 73be
0.24360481 0.051731076 -0.12626454 -0.15599318 -0.14508028 0.068301424 -0.17847134 0.1235719
0.2254514 -0.30376178 0.10465145 0.09401615 0.24236116 0.2440553 0.23845695 -0.024817707
-0.25733474 -0.08138049 -0.16981131 -0.3101654 -0.14534149 0.13713549 -0.097142264 -0.13428122
0.12440747 -0.15942578 -0.076614335 -0.39540398 0.101920456 0.2147496 -0.089451335 -0.13180935
0.20219487 0.16034488 0.12876974 -0.08769939 0.1376684 0.24305505 0.05346071 -0.10888587
-0.07874688 -0.15168908 0.1533487 0.16874433 0.37798047 0.24713641 0.12453998 0.050135367
0.11923253 0.09989205 0.06720453 -0.1630793 0.16709045 -0.3079097 -0.19163916 -0.13717757
0.43172777 -0.16307428 0.052252755 0.23083535 -0.3221248 -0.27032515 0.3061993 -0.23790893

exp_avg f4 [64, 8]
00000000: 0f6d aa38 11c3 b838 9695 a938 6222 2a39
00000010: b3eb 0f39 cb44 2f38 a7c9 a9b7 8f34 6839
00000020: f8ce eab8 dc18 f4b8 1e8e edb8 7f2f a5b8
00000030: 2864 38b8 fe97 e9b7 fc83 80b8 905b 19b9
00000040: 9302 ccb7 391c d8b7 a07c dbb7 e0db 6737
00000050: 717a 5d37 40f7 acb6 c4e5 91b8 2428 e5b6
00000060: 0ffb ef37 dc1f d437 9311 f837 f5bc 9ab8
00000070: 5c85 ecb8 819b e0b7 e84c 5d39 89fc 9ab8
00000080: 7399 4138 007a 6a38 942f 4038 037c 5539
00000090: 3f17 7639 bc17 9538 1e8e 70b9 754a 8e39
000000a0: 2448 9cb9 4a7f a4b9 3184 9eb9 6c46 6cb9
000000b0: fac1 48b9 dde5 e6b8 f88a 34b9 279b e4b9
000000c0: c976 2db9 338e 34b9 2615 32b9 1fbe adb8
000000d0: 7519 70b8 1446 24b8 b692 9db9 a83b 59b9
000000e0: 0fea 78b8 4659 82b8 e31f 78b8 4285 98b8
000000f0: 7c33 4ab8 2eb5 57b7 a5ac c3b8 f5bb 03b9
00000100: e507 3838 26f0 3938 6773 3f38 3c39 a0b7
00000110: 2704 02b8 dfd1 a135 6f91 2639 3b89 3737
00000120: 055e 3239 8412 3939 fc34 3739 1a84 9f38
00000130: 2263 1e38 01a7 0b38 b0ae 7b39 08ac 5b39
00000140: 2fb9 5d39 ea3a 6339 d463 6239 d8d8 6538
00000150: 9ca8 1fb7 e7ad 0d38 c116 bb39 be9a 4839
00000160: 9cc9 d8b8 c415 ebb8 b037 ddb8 b252 12b9
00000170: 3828 23b9 7007 89b8 44d7 a1b7 0dfc 65b9
00000180: 7742 6739 8f15 6d39 3bd8 6c39 0754 7738
00000190: 38d3 1bb6 f6d4 e337 1181 c439 d627 6539
000001a0: c119 dcb7 55a2 f0b7 eeca d9b7 ebfa 6cb8
000001b0: cf83 82b8 05e1 c2b7 45e4 46b8 d0da 9fb8
000001c0: 4e9e 4839 bf89 4c39 797a 4c39 5739 4f38
000001d0: 7fa2 a0b7 9aea 9b37 6a5b aa39 5df8 3539
000001e0: ea20 0fb8 bf2f 23b8 52b2 11b8 18ff aeb8
000001f0: 7caa c8b8 94c5 04b8 278d d1b7 76fb 02b9
00000200: be58 a439 f8ed aa39 11b6 a739 19c6 3639
00000210: c210 e438 ed67 9b38 a787 c839 facc d339
00000220: 0f32 9fb9 25c7 a5b9 4bcc a1b9 895a 3bb9
00000230: 0183 fdb8 7215 acb8 96e3 82b9 e8f4 ceb9
00000240: 5b1b 80b9 e7b0 88b9 9ba4 81b9 ab69 97b9
00000250: 744d 92b9 73a7 fab8 9ec6 09b8 340a f7b9
00000260: cd6a 3bb9 44e6 3fb9 28b9 3eb9 6acc 4bb8
00000270: dc8e 1637 5446 b5b7 6043 a9b9 959b 3bb9
00000280: d12e 0c39 c446 1239 8293 0c39 e2b5 fc38
00000290: 5005 b638 cd98 4238 2dba ef38 ac77 5239
000002a0: 3434 5039 d1ef 5739 a1b0 5439 4399 d638
000002b0: 4b7b 7438 f39e 3338 c428 9839 a09d 8039
000002c0: 0f1d ebb8 b8fb f5b8 a52c f1b8 f749 7cb8
000002d0: 87af 54b8 037a 0cb8 e78f fab8 ee85 19b9
000002e0: cd12 4b38 dff5 6238 4387 4f38 398d 9b38
000002f0: 44d4 b838 8679 2938 72e4 e4b7 f4d7 e538
00000300: 8f9f f2b8 54a5 05b9 90d2 f7b8 b7de 36b9
00000310: 4309 4cb9 fdea a2b8 c274 5c36 9c4e 8fb9
00000320: 238b b5b8 a93e bdb8 74a6 b6b8 908a 8db8
00000330: 51ba 68b8 958c f0b7 0ddc 7ab8 3586 0fb9
00000340: 8243 fdb9 6e1c 06ba d04b 00ba 9482 ecb9
00000350: 6716 dcb9 e329 58b9 dd2c 3fb9 b273 52ba
00000360: 5cdf 9439 ddab 9d39 b9bd 9439 e880 c439
00000370: 8902 a939 d6b8 1039 51d1 2439 adaf 123a
00000380: f46b f737 b045 0338 df8d 0338 6ea1 6837
00000390: 7b98 0a37 9e48 b036 ab3f a738 8de6 2b38
000003a0: 448c 8c39 8d2c 9139 bd82 8f39 518c e738
000003b0: dcc6 1e38 41f1 6338 1a64 9639 5108 9b39
000003c0: f769 33b8 1a32 30b8 78b3 30b8 96dc 8db7
000003d0: 8698 9a33 e7a1 c0b5 644b 15b9 bd22 77b8
000003e0: 0002 97b8 6df5 aab8 2a43 9cb8 b6b4 02b9
000003f0: 0c06 30b9 09da 9cb8 662c 8338 c5cf 41b9
8.1265454e-05 8.810138e-05 8.0864105e-05 0.00016225272 0.00013725348 4.178732e-05 -2.0240272e-05 0.00022144824
-0.000111965404 -0.00011639457 -0.00011327512 -7.87666e-05 -4.3962296e-05 -2.7846541e-05 -6.1280996e-05 -0.00014625327
-2.4319894e-05 -2.5762349e-05 -2.6164867e-05 1.3819867e-05 1.3201135e-05 -5.154783e-06 -6.956936e-05 -6.829405e-06
2.8607928e-05 2.5287205e-05 2.9572087e-05 -7.378488e-05 -0.00011278197 -2.6775293e-05 0.00021104852 -7.3903306e-05
4.6157696e-05 5.590357e-05 4.5820678e-05 0.00020359461 0.00023469048 7.1092945e-05 -0.00022941126 0.00027139825
-0.00029808388 -0.00031375355 -0.000302346 -0.00022532948 -0.00019145748 -0.0001101007 -0.00017217908 -0.00043603146
-0.00016542817 -0.00017219111 -0.00016983281 -8.284696e-05 -5.7244168e-05 -3.9165912e-05 -0.00030054682 -0.00020716956
-5.934579e-05 -6.2155115e-05 -5.9157504e-05 -7.272746e-05 -4.82085e-05 -1.2857183e-05 -9.330482e-05 -0.00012563153
4.387637e-05 4.4331093e-05 4.5645425e-05 -1.9100138e-05 -3.0998282e-05 1.2056515e-06 0.00015885172 1.0939601e-05
0.00017010428 0.00017649872 0.00017471978 7.606317e-05 3.776246e-05 3.3295717e-05 0.00024002302 0.00020949554
0.00021145189 0.00021670354 0.00021590228 5.4799806e-05 -9.516396e-06 3.377898e-05 0.00035684372 0.00019131132
-0.00010337235 -0.000112097274 -0.00010548474 -0.00013954451 -0.00015559874 -6.5340544e-05 -1.9292936e-05 -0.00021933038
0.00022054637 0.00022610113 0.00022587266 5.8967646e-05 -2.3219745e-06 2.7159676e-05 0.00037480195 0.00021853982
-2.6238036e-05 -2.8685821e-05 -2.5962912e-05 -5.650047e-05 -6.223434e-05 -2.3231385e-05 -4.741947e-05 -7.622468e-05
0.0001913246 0.0001950627 0.0001950058 4.9406048e-05 -1.9149154e-05 1.8586685e-05 0.00032493036 0.00017354028
-3.412451e-05 -3.8906695e-05 -3.4736768e-05 -8.3444815e-05 -9.568498e-05 -3.165526e-05 -2.498047e-05 -0.00012491443
0.00031346636 0.00032602227 0.00031988372 0.0001743067 0.000108750086 7.410334e-05 0.00038248042 0.00040397776
-0.0003036414 -0.00031619627 -0.00030860523 -0.00017867437 -0.000120883815 -8.2055936e-05 -0.00024965097 -0.0003947385
-0.00024434444 -0.00026071744 -0.00024727438 -0.00028879693 -0.00027904997 -0.00011952119 -3.2848322e-05 -0.00047119113
-0.00017873496 -0.0001830096 -0.00018188788 -4.8589347e-05 8.973959e-06 -2.160963e-05 -0.0003228439 -0.00017891669
0.00013368881 0.00013950007 0.00013406391 0.00012050175 8.679426e-05 4.639551e-05 0.00011431086 0.00020071742
0.00019855873 0.00020593336 0.00020283695 0.000102328624 5.828896e-05 4.282496e-05 0.00029022072 0.00024531502
-0.00011211086 -0.00011729397 -0.00011500091 -6.0150367e-05 -5.070821e-05 -3.3492233e-05 -0.00011947733 -0.0001464111
4.841648e-05 5.4111584e-05 4.9478618e-05 7.417281e-05 8.813341e-05 4.0405917e-05 -2.7286096e-05 0.00010959795
-0.00011569179 -0.00012745458 -0.00011817098 -0.0001743984 -0.00019458406 -7.768532e-05 3.2850517e-06 -0.00027333654
-8.656669e-05 -9.023894e-05 -8.7094406e-05 -6.749213e-05 -5.548663e-05 -2.8675693e-05 -5.9809583e-05 -0.00013687539
-0.00048306218 -0.00051159307 -0.00048941094 -0.00045110716 -0.0004197836 -0.00020614969 -0.00018231892 -0.0008028104
0.00028395175 0.00030073422 0.00028370114 0.00037480076 0.0003223608 0.00013801767 0.00015718235 0.0005595636
2.9494964e-05 3.1297735e-05 3.136496e-05 1.3865863e-05 8.260943e-06 5.2536625e-06 7.9750396e-05 4.0984294e-05
0.00026807387 0.00027689748 0.00027372493 0.00011041074 3.7855338e-05 5.4345703e-05 0.0002868481 0.000295701
-4.2775613e-05 -4.200833e-05 -4.2128813e-05 -1.6911228e-05 7.198928e-08 -1.4352235e-06 -0.00014237833 -5.892174e-05
-7.2006136e-05 -8.151946e-05 -7.45117e-05 -0.00012465086 -0.0001678692 -7.479272e-05 6.2548366e-05 -0.00018483314

exp_avg_sq f4 [64, 8]
00000000: deb4 2a37 6cbc 2937 c0ad 2937 329f 4436
00000010: 66c1 1734 ee14 4b34 1ae8 2938 f2c6 c037
00000020: 19b3 2136 8d28 2036 64ca 2036 ae58 8735
00000030: ab80 3033 1c99 fc33 394f bb36 e790 b336
00000040: b787 cb34 eb88 cd34 8bfa cf34 e7a9 d634
00000050: 263d 1832 6146 2f32 d59d 0935 e5f0 6135
00000060: eabf d036 66ef cf36 afe0 cf36 d2ca 0236
00000070: 1a27 b133 7e0a a533 2ed7 e637 fa44 6a37
00000080: c9b4 de37 8263 dd37 406a dd37 f7e9 1537
00000090: 5617 cd34 6770 0e35 ee04 df38 c7f4 7538
000000a0: 1be8 3b38 857e 3a38 1018 3b38 336c 9c37
000000b0: d020 3d35 f9e5 ee35 f32b 0139 7fa8 d438
000000c0: 1122 1b36 8696 1836 9126 1936 c901 9635
000000d0: 2331 1733 189d 2c34 174a bd36 dc5c a436
000000e0: 85d8 b335 ab1a b335 e3fb b235 d399 ed34
000000f0: df18 bf32 7c4f 9732 b4ef 9a36 068b 4f36
00000100: 6fff ba34 fbf4 bb34 c562 bd34 f9ff 8d34
00000110: ea0d f231 76da 3232 703d 6f35 9e67 4f35
00000120: ffcd 5836 0dd0 5736 745d 5936 2037 0036
00000130: ea30 7333 6fa2 1e34 f6c7 c636 6122 ea36
00000140: 90f6 2d36 d197 2c36 f49d 2e36 8a7c e835
00000150: 414b 4833 593e 5634 28e7 2036 6594 b536
00000160: c8fb c337 1fd9 c237 8d41 c337 7b98 1437
00000170: 1c4b b334 e2c7 3c35 c77f b038 cf7e 5c38
00000180: f248 db35 25b3 d935 504f dc35 c42e 9235
00000190: a7f0 da32 7c6f fb33 17ca 2036 b624 5e36
000001a0: 3bb5 6b36 1470 6a36 7dc1 6a36 00a0 9b35
000001b0: 1124 4b33 4d34 c333 c656 8437 68e1 0537
000001c0: dc73 9335 2b99 9235 bd51 9335 ce90 db34
000001d0: dcf7 7932 b113 1433 a389 b436 3b20 1d36
000001e0: f7f9 0737 8066 0737 b17e 0737 1848 4836
000001f0: 84a9 0434 2150 1d34 5c27 0838 09eb 9a37
00000200: 073f 8837 3f31 8737 3fd1 8737 6815 fd36
00000210: 88a6 8b34 4eee 4835 54f6 2138 86d2 1738
00000220: 347d a437 6bf3 a237 1da4 a337 37ec 1437
00000230: adb0 aa34 24fb 8035 3640 3f38 bf44 3838
00000240: c695 5d38 1af4 5b38 174f 5c38 11bb 9c37
00000250: d1c9 4a35 51a9 df35 afcb 4039 3187 f938
00000260: dca2 0a36 4ab2 0a36 f616 0c36 97af bb35
00000270: 8f64 3133 7338 d133 a3f7 2836 5300 9836
00000280: 106b b236 5c79 b036 a8e3 b036 3d42 e735
00000290: 77c5 9b33 ef69 8334 967c 9437 f47c 4737
000002a0: c661 a036 302a 9f36 8508 a036 15bb 1636
000002b0: f490 9c33 0c74 7a34 ce59 3d37 9eff 3137
000002c0: d990 6136 c7d1 5f36 39d3 6036 608d e135
000002d0: d978 5d33 3ec0 2634 2e1e 0e37 5384 f836
000002e0: b544 df36 a414 de36 8886 de36 7236 2b36
000002f0: 9e62 db33 ba38 4634 8480 bf37 a399 7d37
00000300: 4315 0938 6953 0838 1c86 0838 6bb7 5537
00000310: ccc5 0835 7e6a 6335 e1bd f338 8ea1 9b38
00000320: d57f 4a36 eaed 4836 3177 4936 bb90 a735
00000330: 0448 5133 33d1 f033 40a7 0d37 f223 e636
00000340: 207d 2339 4a2f 2239 f18c 2239 6810 7c38
00000350: 2bc6 1d36 b92a bf36 7eb4 013a 43b8 b839
00000360: 47d0 8638 48a3 8538 b6c5 8538 b97d a937
00000370: f450 7135 d3b7 0d36 3e8c 8039 c4e1 1639
00000380: e28f 2a35 b1f7 2a35 140a 2c35 bb78 ec34
00000390: 72ef 5a32 7465 8a32 afc3 bf35 82c6 bb35
000003a0: 2f5e ea36 13ba e836 11a8 ea36 6401 8636
000003b0: 8653 fd33 c7a7 de34 f055 3037 1fd2 7837
000003c0: 5291 a135 6803 a235 aabd a235 c684 6035
000003d0: 590b f532 d492 b732 89d5 4f36 8938 4036
000003e0: bba3 fb37 7b37 fa37 b1d1 fa37 570a 5037
000003f0: f798 f334 02ea 7435 69cf dc38 d2d5 8e38
1.0174901e-05 1.0117055e-05 1.0113639e-05 2.929894e-06 1.4133329e-07 1.8913462e-07 4.05089e-05 2.2980825e-05
2.4095118e-06 2.3865462e-06 2.3959665e-06 1.0084093e-06 4.1095216e-08 1.1762515e-07 5.582257e-06 5.3514846e-06
3.7910442e-07 3.8283846e-07 3.873905e-07 3.9984226e-07 8.861468e-09 1.0202343e-08 5.1266153e-07 8.416958e-07
6.221225e-06 6.1969504e-06 6.1952373e-06 1.9489567e-06 8.249317e-08 7.68532e-08 2.7518337e-05 1.3963547e-05
2.6548647e-05 2.639159e-05 2.639473e-05 8.935566e-06 3.8201205e-07 5.306269e-07 0.00010634387 5.864052e-05
4.480044e-05 4.4463686e-05 4.4606684e-05 1.8647033e-05 7.0455735e-07 1.7799313e-06 0.00012318771 0.000101403326
2.311663e-06 2.2737381e-06 2.2821225e-06 1.117639e-06 3.5202117e-08 1.6075899e-07 5.641264e-06 4.898391e-06
1.3399555e-06 1.3344301e-06 1.3335342e-06 4.4256612e-07 2.2246637e-08 1.7614859e-08 4.6174628e-06 3.0926326e-06
3.4831052e-07 3.500971e-07 3.5275858e-07 2.644954e-07 7.044709e-09 1.0410636e-08 8.912384e-07 7.726429e-07
3.2306414e-06 3.2158598e-06 3.2389917e-06 1.9105573e-06 5.6622333e-08 1.477399e-07 5.9241383e-06 6.9777457e-06
2.5922527e-06 2.5718366e-06 2.6019961e-06 1.7321593e-06 4.663457e-08 1.9952985e-07 2.3976409e-06 5.4114957e-06
2.3363056e-05 2.3227707e-05 2.3276336e-05 8.85699e-06 3.3395997e-07 7.0326325e-07 8.4161344e-05 5.2570187e-05
1.6338001e-06 1.6219898e-06 1.641436e-06 1.0891458e-06 2.5487976e-08 1.1708377e-07 2.395949e-06 3.3101946e-06
3.5123219e-06 3.4933955e-06 3.4981342e-06 1.1594966e-06 4.7297423e-08 9.0899086e-08 1.5776033e-05 7.979899e-06
1.0986073e-06 1.0922425e-06 1.0976142e-06 4.0897288e-07 1.4550064e-08 3.4476844e-08 5.380441e-06 2.3413584e-06
8.1048265e-06 8.070492e-06 8.076125e-06 2.9844286e-06 1.2355127e-07 1.4650915e-07 3.2461583e-05 1.8467677e-05
1.6241813e-05 1.6116186e-05 1.6190692e-05 7.5424796e-06 2.6011935e-07 7.4852585e-07 3.8614802e-05 3.619727e-05
1.9608626e-05 1.9425255e-05 1.9507535e-05 8.8764855e-06 3.1793516e-07 9.609835e-07 4.559775e-05 4.3933043e-05
5.2829993e-05 5.2441006e-05 5.2525746e-05 1.8683759e-05 7.5544546e-07 1.6664072e-06 0.00018386425 0.000118984266
2.06584e-06 2.066738e-06 2.087499e-06 1.3983689e-06 4.130248e-08 9.742589e-08 2.5178094e-06 4.5299907e-06
5.317277e-06 5.259337e-06 5.2717114e-06 1.7230119e-06 7.2536686e-08 2.4477728e-07 1.770099e-05 1.1890417e-05
4.779754e-06 4.7434805e-06 4.7693634e-06 2.2460638e-06 7.290683e-08 2.3325282e-07 1.1286187e-05 1.0609538e-05
3.3611925e-06 3.3351696e-06 3.3501549e-06 1.6804952e-06 5.1565483e-08 1.5529892e-07 8.470886e-06 7.4063805e-06
6.6539164e-06 6.6185185e-06 6.631777e-06 2.5512677e-06 1.02159206e-07 1.8460824e-07 2.2828819e-05 1.51157465e-05
3.2683147e-05 3.250261e-05 3.2549826e-05 1.2738495e-05 5.095178e-07 8.4719056e-07 0.00011622511 7.421068e-05
3.0174754e-06 2.9940807e-06 3.0020713e-06 1.2484592e-06 4.8727102e-08 1.1213924e-07 8.443196e-06 6.8587187e-06
0.00015591504 0.0001546714 0.00015502029 6.009676e-05 2.3510172e-06 5.697217e-06 0.0004947855 0.000352325
6.4284126e-05 6.372348e-05 6.378761e-05 2.0204914e-05 8.98973e-07 2.1117637e-06 0.0002451855 0.00014389219
6.353931e-07 6.3690374e-07 6.408966e-07 4.4046268e-07 1.2743714e-08 1.611145e-08 1.428756e-06 1.3990359e-06
6.984708e-06 6.9358007e-06 6.993309e-06 3.993673e-06 1.17964234e-07 4.1472796e-07 1.0510426e-05 1.48308745e-05
1.2037729e-06 1.2070932e-06 1.212514e-06 8.3639713e-07 2.8526914e-08 2.1370774e-08 3.0969697e-06 2.8643137e-06
2.9997775e-05 2.9828157e-05 2.9899968e-05 1.2400174e-05 4.5373574e-07 9.123761e-07 0.000105290506 6.810915e-05

exp_avg f4 [64]
00000000: 2ee4 3e3a 96f2 e0b9 70cc cab7 84ca cbb9
00000010: aaf4 8d3a 166f c7ba 32e8 2aba 0b80 acb9
00000020: df83 b833 ba1c 183a 4dd3 f939 da30 6cba
00000030: 722d 0a3a bba5 a3b9 06ad c439 b5f8 00ba
00000040: 1764 9e3a eeec a0ba ee98 e0ba 7068 cab9
00000050: c339 293a 5c92 3a3a 8b54 00ba 9258 013a
00000060: f452 92ba 6b4e e1b9 2f32 3ebb ceaa fe3a
00000070: fef0 0739 0406 4f3a 351b a4b8 6808 6eba
00000080: 8bcb 7fbb 9617 b0ba a095 55ba 697f 37ba
00000090: 8b18 83b9 f577 c4b8 f759 a53a 118e 423a
000000a0: 375b 30ba a75e bdb9 71c9 993a 6d45 2eb8
000000b0: de4b 6638 b4d9 0d38 2de0 9c38 d4a7 493a
000000c0: 3385 b2b9 53e8 033b 6305 b73a d51d 293b
000000d0: be21 6db9 cd0a 2cba 3590 53ba 1006 baba
000000e0: 5774 663a c7fa d639 0ece 5cba 71e5 05ba
000000f0: 62e6 b13a 8487 a339 daf4 2bba aeda c339
0.0007281926 -0.0004290535 -2.4175475e-05 -0.00038870063 0.0010830362 -0.0015215601 -0.0006519585 -0.00032901796
8.592155e-08 0.00058026204 0.00047650412 -0.0009009965 0.0005271054 -0.00031213262 0.00037512946 -0.0004919873
0.0012084272 -0.0012277642 -0.001713542 -0.00038606254 0.00064554455 0.0007117146 -0.00048954104 0.00049341575
-0.0011163638 -0.0004297377 -0.002902161 0.0019429566 0.0001296438 0.000789732 -7.825197e-05 -0.0009080232
-0.0039031233 -0.0013434764 -0.0008147601 -0.00069998816 -0.00025004553 -9.368352e-05 0.0012615313 0.0007421682
-0.0006727459 -0.0003611941 0.0011733008 -4.154949e-05 5.490693e-05 3.381977e-05 7.480416e-05 0.000769255
-0.00034050047 0.002012749 0.0013963397 0.0025805135 -0.00022614651 -0.0006562889 -0.00080705 -0.0014192481
0.00087911397 0.00041004104 -0.00084230385 -0.0005107737 0.0013572688 0.0003119075 -0.0006559618 0.00037356227
