results/stability_test/models/checkpoint_20.pt (torch, 143587 bytes, 30 tensors)

actor_net.0.weight f4 [64, 8]
000000 44 25 14 bd 72 a4 d6 bd 72 05 9f 3e 97 34 c7 3e
       -0.03616835 -0.10480584 0.31058842 0.3890731
000010 5d 7b b0 be 6b 8e bf 3e 34 05 57 3e 11 76 53 3c
       -0.3446912 0.37413344 0.20998079 0.012906567
000020 b7 04 17 3d 07 28 03 3e f2 1e f3 bd a2 85 82 bd
       0.03686973 0.12808238 -0.11871137 -0.06373145
000030 df 3d 2f bd ff 01 10 3b 5e ac 50 3e 10 b2 b6 bd
       -0.042783614 0.0021973846 0.20378253 -0.089206815
000040 a4 7c a0 3d 7c 09 5f be 0c 3e d8 3d b5 37 ca 3d
       0.07836273 -0.21780962 0.105587095 0.098739065
000050 5e 91 87 3c c4 ca 0a be f4 ea 32 3e d8 25 02 be
       0.016548809 -0.13553911 0.1747244 -0.12709749
000060 75 4b da bb 0c 9e 14 be 57 ec 45 bd f9 80 12 3e
       -0.006661827 -0.14513415 -0.048321094 0.14307012
000070 c8 3c d7 3e 2b f3 2f be 32 1f 42 be 81 01 20 be
       0.4203856 -0.17182605 -0.18957213 -0.15625574
000080 28 64 ac 3e dc 60 43 3e 18 e0 23 be 78 25 0f 3e
       0.33670163 0.19079918 -0.16003454 0.13979137
000090 ec 73 3f be 9a e9 c5 3d a1 1d ab be 60 5a 03 3f
       -0.18696564 0.096636966 -0.33421043 0.51309776
0000a0 14 de 67 bd 4f de 41 be d4 c0 61 bd 6d e8 5e be
       -0.056608275 -0.1893246 -0.055115536 -0.21768351
0000b0 5e e0 53 3e 38 03 c8 3c 2c 45 36 3e 43 22 2c 3d
       0.20691058 0.024415597 0.17799824 0.042024862
0000c0 b5 db 85 3e 4d 44 76 be fd 3f a2 3e d4 c7 51 be
       0.26144186 -0.24049492 0.31689444 -0.20486385
0000d0 6d 1a 8a be 4a 5f a9 3d f1 64 a4 bc c3 4f 1a bc
       -0.26973286 0.08270128 -0.020067664 -0.009418431
0000e0 de bb bd be 0c 66 6c 3d 73 42 a2 be f1 65 5e be
       -0.37057394 0.057714507 -0.31691322 -0.21718575
0000f0 a5 f0 fc 3e 77 4e 4c 3e 61 74 02 bd a4 83 49 be
       0.49402347 0.19951807 -0.03184927 -0.19679123
000100 43 60 6b 3e ee 69 ff bd 88 a3 30 bc 13 21 9a be
       0.2298594 -0.12471376 -0.010781176 -0.3010336
000110 cc 2a d1 3c 2f 96 4d 3d e1 d3 b9 be 87 73 27 3d
       0.025533102 0.050192054 -0.36294463 0.04088166
000120 d0 51 9c be cb b6 f6 bd ee 9f f3 3c 89 f0 82 3e
       -0.30531168 -0.12046584 0.029739346 0.2557414
000130 c5 6e 2b bc f1 6d d9 bd d9 9a 83 be 81 b2 5a be
       -0.010463421 -0.10616673 -0.25704077 -0.21357156
000140 8b 16 cc bd a5 9a d2 bd fb 3a de bd 02 05 ea 3c
       -0.09965237 -0.10283402 -0.108510934 0.028566841
000150 7c 28 a3 bd f7 64 c0 3c 14 58 0e bf 01 50 43 bd
       -0.07966706 0.023485644 -0.55603147 -0.04768372
000160 25 13 16 3d ec d1 05 be fb 2a f9 bd 15 d1 68 be
       0.03663935 -0.1306836 -0.12166401 -0.22736008
000170 5a 12 2e 3e e6 d3 15 3c cf 29 7d 3c b9 f2 07 3e
       0.16999188 0.009144759 0.0154518625 0.13276185
000180 10 2d e3 bd 82 e3 a8 bd b9 66 8b bd a6 ef aa 3e
       -0.11092579 -0.08246519 -0.06806702 0.33385962
000190 33 2d 77 3e d9 3a ce 3c b6 d4 1f be 2a 8f 0f bd
       0.24138336 0.025174545 -0.15608487 -0.03504864
0001a0 83 66 b8 be 42 a1 c0 bd 47 fa 14 be 0d 22 8a be
       -0.3601571 -0.094057575 -0.14548598 -0.26979104
0001b0 ac 87 99 3e 9b c7 41 3d ff 37 a5 bc 01 ef 25 3e
       0.29986322 0.0473095 -0.020168303 0.16204454
0001c0 f2 21 aa 3d 21 14 f4 be 37 75 81 be a5 fe 81 3e
       0.08307256 -0.47671607 -0.2528474 0.2538959
0001d0 57 09 14 3e 02 4f 1e 3b 78 39 e1 bb 9b 36 4f 3c
       0.14456688 0.002415598 -0.006873306 0.012647296
0001e0 61 24 51 bd 64 d3 4b be fe 38 c4 be 78 f0 08 be
       -0.051060084 -0.19904858 -0.38324732 -0.13372982
0001f0 eb 1c d7 3d 14 a6 87 be 7d 6c b2 3d 93 ba e8 bd
       0.105035625 -0.26493895 0.08712099 -0.11363711
000200 c4 aa 97 be 2b 27 28 bd 62 ff 30 3d a3 0f a4 3e
       -0.2962247 -0.04105298 0.043212302 0.3204318
000210 c3 44 e1 bd f6 c9 70 bc 5c 42 30 be c2 ea 9c bc
       -0.109994434 -0.014696589 -0.17212814 -0.01915491
000220 1f 68 f5 3c 48 3d cb 3d 81 d5 9c bd 59 31 60 be
       0.029956875 0.09923798 -0.0765791 -0.21893825
000230 50 c4 96 3d cb 8b 96 3d 48 43 81 3e 82 a4 32 be
       0.073616624 0.07350882 0.25246644 -0.17445567
000240 9a fe a5 3d a6 1e e6 bd c7 b8 64 3d 98 9f 9c be
       0.08105202 -0.112363145 0.05584028 -0.3059051
000250 c3 93 c2 3e 5a 52 40 be 5a f2 4c bd 5e 1a da bd
       0.38003358 -0.18781415 -0.050035812 -0.106495604
000260 ed 55 ab 3e dc 80 11 be 48 9d 99 be a8 35 9b bc
       0.33463994 -0.14209312 -0.3000281 -0.018946484
000270 0a c0 e1 3d 50 df c7 3d 77 c9 e0 3e 3a c9 d0 3c
       0.11022957 0.0975939 0.43903705 0.025486577
000280 34 11 88 3c 0d 33 74 3c 3a 1d 9b 3c 2d d8 08 3f
       0.016609766 0.01490475 0.018934835 0.5345486
000290 f5 66 c8 3d fa 75 94 be 38 93 fa 3d 02 e6 04 be
       0.097852625 -0.2899626 0.12235111 -0.12978366
0002a0 95 0c 69 3d e8 09 9a be 08 d6 cd bd 88 3d af 3d
       0.056896765 -0.30085683 -0.10050589 0.08556658
0002b0 2d 24 d2 bd 56 7c 16 be d3 c6 58 bd e0 68 e4 bc
       -0.10260806 -0.14695868 -0.05292399 -0.02788204
0002c0 47 22 22 be 78 0d 57 bd 15 35 d0 3e f8 2e 82 bd
       -0.15833388 -0.05250308 0.40665498 -0.06356615
0002d0 ec 2c 4c bc f9 36 d2 bd 1b 7b 00 3e aa 67 ba 3d
       -0.012461882 -0.102643915 0.12546961 0.091018036
0002e0 d1 f5 5a be 3f 18 3f 3e 76 18 ac 3d 12 8c 01 be
       -0.21382834 0.18661593 0.08403103 -0.12651089
0002f0 66 58 93 be 39 7e 5e be d8 ae b5 bd af 5c 90 3d
       -0.2877838 -0.21727838 -0.088712394 0.07048928
000300 e9 dd c9 3d cf 73 c8 3d f0 2e f1 be 71 eb a3 3d
       0.09856779 0.09787714 -0.47106123 0.08003891
000310 16 82 85 3e 51 bc 3f bd 08 5a 68 3e b6 ee 60 be
       0.2607581 -0.046810452 0.22690594 -0.21966061
000320 69 2d ff bd 75 9e 0b be 65 36 3e be 6a c5 33 be
       -0.12459833 -0.13634665 -0.18575437 -0.17555776
000330 f9 87 ac bc 91 c7 51 be 68 db 12 3e b6 82 cf bd
       -0.02106093 -0.20486285 0.1434151 -0.10132353
000340 51 e9 2a 3e ab c2 1c bd 2f 14 10 be ad c3 5b be
       0.16690566 -0.038271587 -0.140702 -0.21461363
000350 33 f3 bd 3e 8b 84 53 bd 9e 51 45 3e 88 a8 2e be
       0.3709961 -0.051640075 0.19269416 -0.17056477
000360 4e c3 2c bd 2b 17 48 bc 14 f0 9d 3d c5 4f fd 3e
       -0.042178445 -0.012212555 0.07711807 0.49474922
000370 88 14 ca be 2f b8 f7 be b0 3e 21 bd 50 c8 33 3e
       -0.3946879 -0.48382708 -0.039366424 0.17556882
000380 1a 3e 1b bc b8 e0 54 3e f3 3b 59 be 6b f0 e1 bb
       -0.009475255 0.20788848 -0.21214275 -0.006895115
000390 a7 9d 1a be a7 50 16 3e 71 f4 47 be 6f b8 45 be
       -0.15099202 0.14679204 -0.19526841 -0.19308637
0003a0 3a 88 2e 3d 02 cb 24 be 23 f6 49 bd 01 ba b7 3d
       0.042610385 -0.16093066 -0.049307 0.08971024
0003b0 35 30 c9 be 42 ff 45 bd c1 74 03 bf f4 64 b5 bd
       -0.39294592 -0.048339136 -0.5135003 -0.08857146
0003c0 b7 63 19 3e 2b ed 68 3d bc 28 d8 3e 72 e5 ac bc
       0.14979444 0.056866806 0.42218578 -0.021105502
0003d0 1e cc 12 bd 40 5e 31 be 18 eb 84 be a5 9c 3c bc
       -0.035839193 -0.1732111 -0.25960612 -0.011511956
0003e0 d6 6e c8 be 1f dd 3b be 7f 8c d7 3d 27 02 6e bd
       -0.3914706 -0.1834607 0.105248444 -0.05810752
0003f0 61 75 9a 3e 84 c7 3b 3e 06 2e d2 3d 3f c1 95 3d
       0.30167678 0.18337828 0.102626845 0.073122494

actor_net.0.bias f4 [64]
000000 bf 81 b2 3c 91 91 cd 3c e5 86 4e 3d 77 ad 09 3d
       0.021790383 0.025093826 0.050421614 0.033612695
000010 ad 58 86 bd 66 58 66 3d 68 1b 31 bd ff e4 48 bc
       -0.06559882 0.056236647 -0.043239027 -0.012261628
000020 48 2b 64 bd 36 d7 67 bd c0 df 7c bd 6c fb 56 3b
       -0.05570534 -0.056601726 -0.061736822 0.0032803668
000030 54 32 81 3c b8 ec c6 bc fd 8a 0d 3d c9 cf 49 3d
       0.015771069 -0.024282798 0.034556378 0.049270425
000040 8d e3 b8 bc de fa 71 3c b4 71 96 3b 27 d2 6a 3d
       -0.022569442 0.014769284 0.004591191 0.057329323
000050 ee 95 be 3c ba 53 85 bd 8f 42 4f 3d bc 4c 3e bd
       0.023264851 -0.0651011 0.050600585 -0.0464599
000060 35 89 4f 3d 36 e5 6a 3c 52 b2 54 3d 03 d0 5c bb
       0.05066796 0.014336875 0.051927872 -0.003369332
000070 60 a6 72 bd 40 d5 69 bd 5f c5 44 bd 92 63 4a 3d
       -0.0592407 -0.057088137 -0.04803979 0.049411364
000080 2e 18 4f 3d 14 c1 72 3c 9a b0 3c 3d c1 af 4b 3d
       0.05056017 0.014816541 0.046066858 0.04972816
000090 95 a5 3a 3d 5a ac 23 3c bc d0 62 bd af e3 83 bd
       0.045568068 0.009989822 -0.055374846 -0.064399116
0000a0 38 70 8c 3d ff e5 80 3d 59 27 47 bd 1e 3d 23 3d
       0.068573415 0.06293868 -0.04862151 0.039853208
0000b0 be 9e 2f 3c f5 a2 3a 3d ea fb 17 3d ac b0 61 bd
       0.010718999 0.045565564 0.03710548 -0.055100128
0000c0 41 bd 67 3d 0d 9e 5e bd 3d fc 5d bd 1a cc 60 bd
       0.05657697 -0.054349948 -0.05419563 -0.054882146
0000d0 62 bd 47 3d 2c a3 43 3d 7e f6 7a 3d a2 41 01 3d
       0.048764594 0.047763035 0.06127023 0.031556733
0000e0 a6 8b 90 bd 95 4d ff bd 6b 66 b9 3c 1c 42 0f bd
       -0.07057886 -0.124659695 0.022631845 -0.034975156
0000f0 cd d9 51 bd 57 81 1d bd 68 c7 52 3d 8f 4f de bd
       -0.0512331 -0.038453426 0.0514597 -0.10855018

actor_net.2.weight f4 [64, 64]
000000 7b 4b 01 3e 57 66 87 bd fa e7 a6 be 5a 9c 14 3d
       0.1262645 -0.06611317 -0.3259886 0.03628192
000010 69 64 a4 3e 05 d0 e7 be 80 75 0e be 3d ed de 3d
       0.32107857 -0.45275894 -0.1391201 0.10885093
000020 59 cb 6d 3e d4 81 62 3c 7c c9 ba bc 48 82 4b be
       0.23222102 0.013824899 -0.022801153 -0.19873917
000030 33 34 16 be 48 e2 f1 bc de b8 94 be 32 30 dd 3d
       -0.1466835 -0.029526845 -0.29047292 0.10800208
000040 0a 50 89 3e e9 9e 61 be 0c d2 c7 bd d4 93 52 be
       0.26818877 -0.22033276 -0.0975686 -0.20564204
000050 e0 48 ef 3d a4 11 8c 3e a9 fc 0a 3e 12 6a 3c 3e
       0.11683822 0.2735721 0.13572945 0.18399838
000060 2f 3e 0f 3d cf 42 99 be 6c 77 69 be 45 be 6a be
       0.034971412 -0.29933783 -0.22799462 -0.22924145
000070 22 20 02 be 2e 77 8c 3e d3 d1 5c 3e 28 11 26 3e
       -0.1270757 0.27434677 0.21564417 0.16217482
000080 a7 85 91 be a4 54 fa bc 8f 4c 60 3c e9 e9 32 be
       -0.2842228 -0.030557938 0.013690128 -0.17472042
000090 ee 7e 39 3e 3f 2f cc be 32 34 c7 bc 38 6e 2a be
       0.18114826 -0.39879796 -0.02431688 -0.16643608
0000a0 30 be ca be 39 a6 0a 3d 44 53 44 be e9 f3 5f be
       -0.39598227 0.03384993 -0.19172388 -0.21870388
0000b0 24 ac 15 be f8 85 3f 3e ee ba 3f 3c d3 35 ca bd
       -0.14616448 0.18703449 0.011702282 -0.098735474
0000c0 74 bb 40 3e f6 62 69 3e 3e 04 81 3d cc c0 a7 3d
       0.18821508 0.22791657 0.06299637 0.0819107
0000d0 06 da 25 3e 56 1d aa 3e 8d 51 f8 bd 0d 80 b7 bd
       0.1619645 0.33225507 -0.121249296 -0.089599706
0000e0 a7 0e 2d 3e 9c 63 1c 3e 9e cd 1c bd 40 20 8f bd
       0.1690012 0.15272373 -0.03828203 -0.06988573
0000f0 76 ad af 3c cb cd b4 3d 0e 1e b0 3d 6f a4 71 3d
       0.021445017 0.088283144 0.085994825 0.058994707
000100 29 b7 91 3d 09 66 5a 3e 3c 20 69 be cd 01 c4 3e
       0.07115013 0.21327986 -0.22766203 0.38282624
000110 86 94 3a 3e 28 0a bb be 96 2d ec 3d 5a bd c8 bd
       0.1822072 -0.36531186 0.11532132 -0.09801741
000120 4c f3 58 3e f9 0b 6b 3e 09 46 e2 3d 86 4d ae 3e
       0.2118656 0.22953786 0.110485144 0.3404352
000130 aa 26 b4 3c bd 07 21 be e4 d1 4a 3e fe cd 40 be
       0.021991093 -0.15725608 0.1980663 -0.1882858
000140 1f 47 b4 3e b5 a6 83 be 56 ca 51 3e 76 ec 8e be
       0.3521051 -0.25713125 0.20487341 -0.2791478
000150 ab 62 18 3e 84 99 f5 3c 91 ee 5d 3c 36 02 8f 3e
       0.14881389 0.029980429 0.013545648 0.27931374
000160 ed 68 4f be a7 0d 30 be 0f 2c 17 bd 9f 10 f3 3d
       -0.2025487 -0.17192708 -0.036907252 0.118684046
000170 29 6a 5c 3d 72 06 9e be 67 c0 29 be 6f b8 67 bd
       0.05381218 -0.30864292 -0.16577302 -0.056572374
000180 ba b6 56 be fb 9c 3a bd 48 36 a4 be 4b 9d a2 be
       -0.20968142 -0.045559864 -0.32072663 -0.3176063
000190 88 00 86 3d 80 42 10 3e 55 85 5c 3e 28 87 75 3e
       0.0654307 0.14087868 0.21535237 0.2397734
0001a0 ef 84 1f bd b5 95 c1 3d b8 7e ae 3e 98 79 35 bc
       -0.038945135 0.094523825 0.34081054 -0.0110763535
0001b0 70 0b 67 bd 07 24 5e 3e 30 dd 82 be 94 ff ce bd
       -0.056407392 0.21693431 -0.25559378 -0.101073414
0001c0 0f 8a 54 3e 91 b0 e6 3c 25 e1 ac 3e d2 44 c1 3e
       0.2075579 0.028160365 0.33765522 0.37747818
0001d0 4f 11 38 bd a0 ae f3 bd a3 72 ab be b0 ef 6f be
       -0.04493838 -0.118985415 -0.33485898 -0.23431277
0001e0 13 74 88 3d 1b d0 ad bd 70 e6 d9 bc 82 cb 3c 3e
       0.066627644 -0.084869586 -0.026599139 0.18437007
0001f0 05 ca 12 3e 5f b7 b8 3e 0f 83 93 be 6f 8b 05 3e
       0.14334877 0.360774 -0.28810927 0.13041471
000200 dd d9 a7 3c b0 6d dd 3d d7 1e f6 3d 10 1a fe bc
       0.020489627 0.10811937 0.12017601 -0.031018287
000210 fd 32 46 3e 5d bc c1 bd 36 20 68 3e 48 9e fe bd
       0.19355388 -0.094597556 0.22668537 -0.124325335
000220 e2 7c 9d 3e 0d d9 13 3e 05 9e e4 bd 0d d4 03 bd
       0.3075934 0.14438267 -0.11162952 -0.03218465
000230 0f a0 a9 bd 36 5b 94 3d 6e 1b 8c bd 83 64 12 be
       -0.08282482 0.072439596 -0.06841169 -0.14296155
000240 9f 83 19 3e 61 31 8d bd 00 fa 11 be 65 68 09 bd
       0.14991616 -0.06894184 -0.14255524 -0.033546824
000250 7c e7 77 be f9 25 b3 3d ba 0c 35 be be 5a de 3e
       -0.24209398 0.08747477 -0.17680636 0.43428606
000260 b5 70 62 3e 7e e2 53 3e aa 59 9f be ca 27 e8 3d
       0.22113307 0.20691869 -0.31123096 0.11335714
000270 74 e4 d7 3d a1 bf 29 3e 35 79 4b 3d 21 f9 be be
       0.10541621 0.16577007 0.04967614 -0.37299445
000280 82 7e 9c be cb 2a 08 3e 39 68 3c 3c 0b e6 7e 3e
       -0.30565268 0.13297574 0.011499458 0.24892442
000290 12 a0 4b 3e e5 fd ce bd 1a 3b 84 3e 70 4e 1f 3e
       0.1988528 -0.1010702 0.2582634 0.15557265
0002a0 0b 8d 53 3e de 42 85 3d 2d 9e 97 be 07 f6 96 3e
       0.20659272 0.065068945 -0.29612866 0.2948458
0002b0 75 c6 a2 3e 60 5e df 3d 1f 93 98 3e db 2f a8 bc
       0.31792036 0.109066725 0.29799744 -0.020530632
0002c0 18 0b 41 be ee 9c cd 3d 10 75 a4 3c 71 ef 9a 3d
       -0.18851888 0.100396976 0.020075351 0.07565201
0002d0 8e 8e 3b 3d 66 b3 63 3e 57 26 5a 3c b1 a2 6d bd
       0.045790248 0.22236404 0.013314805 -0.058016483
0002e0 9a b1 f8 3c 3e 22 95 bd 59 3c 8d 3d af bf 62 3e
       0.030358125 -0.07281922 0.06896276 0.22143434
0002f0 72 b2 e9 3e 21 85 d2 3d 05 59 38 be fa b4 94 3e
       0.45643955 0.102792986 -0.18002708 0.29044324
000300 f0 c6 24 be dc 35 9c bd fe 88 12 be 5d 2d 2a be
       -0.16091514 -0.0762746 -0.14310071 -0.16618867
000310 c0 63 7c 3d 4a 9d 9b bd 9b fd 4c 3d 5a fe 66 bd
       0.061618567 -0.0759836 0.050046545 -0.056394912
000320 8a b7 69 be 6a 3c f5 3d a3 c2 a8 3d 73 e2 eb bb
       -0.22823921 0.11974414 0.08240249 -0.0071986257
000330 38 5b c8 3d ce eb 3e 3d 03 db 90 3c 7f 5a 8b be
       0.097830236 0.0466116 0.017682558 -0.2721748
000340 1d 88 59 3e cc 75 62 3e d0 92 56 be 9e 8a 8f be
       0.2124333 0.22115248 -0.20954442 -0.28035444
000350 c0 9b 9c be 9a e8 37 bd 67 4f a0 3e cd 72 c5 bb
       -0.30587578 -0.04489956 0.3131058 -0.006025648
000360 1d d2 3b 3d ad 89 7e be 2c 1e bd be 7e 81 b6 bd
       0.045854677 -0.24857207 -0.36937082 -0.089114174
000370 d7 42 35 3e b3 da 5a be e1 c5 1a 3e f5 f4 ca bd
       0.17701279 -0.2137249 0.15114547 -0.09910003
000380 45 91 58 3e f9 05 50 be 07 b1 72 3c e7 c4 62 bd
       0.21149166 -0.20314778 0.014812714 -0.055363562
000390 03 3c 88 3e f4 d1 01 bd 3d 03 69 be 53 48 24 3e
       0.26608285 -0.031694368 -0.22755142 0.16043214
0003a0 1a 93 da be 34 4b 84 bd 01 32 3d 3e 08 87 3e 3d
       -0.42690355 -0.06459656 0.18476106 0.046515495
0003b0 83 34 83 3e 39 87 8f bd c3 44 d2 bd 3b 15 61 3e
       0.25626 -0.070082135 -0.102670215 0.21980755
0003c0 7a a9 9a be ac 3a 47 bd 00 a5 96 3e cd 47 17 bd
       -0.30207425 -0.04863994 0.2942276 -0.03693371
0003d0 78 c3 19 be 31 eb da bd 20 0b 82 bd 70 a9 ba 3d
       -0.15015972 -0.106893905 -0.06349778 0.09114349
0003e0 72 8d 89 3e 63 1e 27 3e 98 a1 fd 3d 25 95 81 3b
       0.26865727 0.16320185 0.12384337 0.003954547
0003f0 9d 72 03 bd 26 60 02 3b fe a6 26 be 52 c3 ba 3e
       -0.032091726 0.0019893735 -0.1627464 0.36477143

actor_net.2.bias f4 [64]
000000 03 01 4f bd 46 e0 53 bd 04 88 41 bd 18 d5 82 bd
       -0.050538074 -0.051727556 -0.047248855 -0.06388301
000010 3b 56 5e bc c3 c8 d5 bc 3c c0 4f 3d b4 0d 23 bd
       -0.013570364 -0.026096707 0.05072044 -0.03980799
000020 1b eb 3f bd c3 5d 2f 3d e6 17 43 3d 38 fe 36 bd
       -0.046855073 0.042814028 0.047630213 -0.044676036
000030 31 cf 18 3d b6 6f 3c bd 9e 04 38 bd 2e d0 27 bd
       0.037306968 -0.046004973 -0.04492628 -0.04097002
000040 ad 12 84 3d c5 04 05 bb 2e 44 26 bd 86 36 4f 3d
       0.064488746 -0.0020297032 -0.040592365 0.050589107
000050 f5 2e 58 bd 11 de ed 3b e1 4f 66 3d bd 4e 27 bd
       -0.052779157 0.0072591384 0.056228522 -0.040846575
000060 42 23 21 3d dc d1 a6 3c 3f a8 2b 3d c3 0d 23 3d
       0.039340265 0.02036374 0.0419085 0.039808046
000070 2c 61 99 bd 43 25 17 3d 70 ff ac bc e9 65 16 3d
       -0.07489237 0.03690077 -0.021117896 0.036718283
000080 0e dc 36 3d e2 5e 67 3d f7 fa 81 bd 32 29 2c bd
       0.044643454 0.05648697 -0.06346696 -0.042031474
000090 2f 58 5e bc 4e 22 22 3d fc 42 3e bd c7 a3 25 bd
       -0.013570829 0.039583497 -0.0464506 -0.040439393
0000a0 72 02 02 bd 6b 95 c0 3c 30 d2 13 3d b9 a5 3e bd
       -0.031740613 0.023508748 0.036089122 -0.046544764
0000b0 5f 53 92 bd 75 7c 18 3d 3d 0d 92 bd e8 cd 98 bd
       -0.07144808 0.037228066 -0.07131431 -0.074611485
0000c0 98 10 90 bd 40 e8 39 3d c8 50 0e 3d f9 64 d0 3c
       -0.07034415 0.045387506 0.034745008 0.025438773
0000d0 a2 32 55 bd 52 05 3d bd e3 fd 67 3d 81 94 46 bd
       -0.05205024 -0.046147652 0.05663861 -0.048481468
0000e0 99 ee 85 bd 98 fc 38 bd 83 fd 98 3c 6b 2f 51 3d
       -0.065396495 -0.045162767 0.018675571 0.051070612
0000f0 f4 68 2a bd 46 62 74 bd a1 7d 79 3d 3c 62 1c bd
       -0.041603997 -0.059664033 0.060910825 -0.03817962

actor_mean.weight f4 [1, 64]
000000 1a d5 2d 3d c7 7e 71 3d 5f 0a 3d 3d 24 7d c4 3c
       0.042439558 0.058958795 0.04615247 0.023985453
000010 9b 10 ab bc 42 94 d2 3c f4 d8 04 bd dc f7 36 3d
       -0.020881942 0.02570546 -0.032433465 0.04466997
000020 e4 00 04 3d 86 5b 14 bd 51 af 09 bd 5e dc 05 3d
       0.032227412 -0.036220096 -0.03361446 0.03268086
000030 7f ca e6 bc e2 01 11 3d 6e 86 11 3c 74 dc 16 3d
       -0.02817273 0.035402186 0.008882148 0.036831334
000040 c1 09 e4 bc e2 6b 88 3d 1d bd 0f 3d 92 69 f5 bc
       -0.027836682 0.06661202 0.03509246 -0.029957566
000050 5b 12 2f 3c 5b 9c 98 bc 61 81 c8 bc 9e 9e 93 3d
       0.010685529 -0.018629244 -0.024475755 0.07207988
000060 4f bd 0a bd 71 7f 23 bd 7b 6b 94 bd de 74 80 bd
       -0.033871945 -0.03991646 -0.07247063 -0.06272291
000070 d7 9a 57 3c d6 ea 3c bd e7 f3 0b 3d 6b 62 3d bd
       0.013159475 -0.046122395 0.03416815 -0.046236437
000080 91 fa cf bc 4c 6f e4 bb a1 1f 46 3d 68 51 4a 3d
       -0.025388034 -0.0069712754 0.048370007 0.04939404
000090 ce 8a db 3d 85 2a 21 bd 6d a2 e9 3c cd ae 84 3d
       0.10719834 -0.03934719 0.028519833 0.06478653
0000a0 c2 95 92 3c f4 7a 56 3c 19 8d 9a bd ed a2 3e 3d
       0.017893676 0.013090838 -0.075464435 0.046542097
0000b0 bb 4c bf 3c 72 53 11 bd e4 62 9c 3c 3e e7 ab 3c
       0.023352018 -0.03547997 0.019090123 0.020984288
0000c0 48 77 b8 3c 77 11 4b bd aa 5f cc bb ec b2 14 bc
       0.022517815 -0.049577203 -0.00623699 -0.009075861
0000d0 a4 e2 6f 3d 82 05 cc 3c 31 0d ea bc df 03 a4 3c
       0.05856575 0.02490497 -0.028570743 0.020021377
0000e0 3c f8 64 3c f9 b0 11 3d 9b 0e 71 bd 96 b2 d5 bc
       0.013975199 0.035569165 -0.05885182 -0.026086133
0000f0 f9 50 16 3d f5 68 0a 3c 1e c0 a4 bc 80 f9 58 3d
       0.036698315 0.008447875 -0.02011114 0.052972317

critic_net.0.weight f4 [64, 8]
000000 f9 83 d9 3d 51 49 5f bc b8 21 a9 bd 43 67 b7 bd
       0.10620875 -0.01362832 -0.082583845 -0.089552425
000010 2c 65 2f 3e fd 27 14 3e 5f a7 fb 3d 6a cf bb bd
       0.17128438 0.1446838 0.12287783 -0.091704205
000020 69 12 64 bd 6a 04 d3 be 29 b4 ad 3d 1b fc 1a 3e
       -0.05568162 -0.41214305 0.084816284 0.15135233
000030 42 5b 92 be 19 b2 22 be ca 16 f3 3c 88 43 05 bf
       -0.2858525 -0.15888251 0.029673953 -0.5205617
000040 16 06 47 3d 3f 4a f3 bd d9 c7 95 3e d4 dd be 3c
       0.04858979 -0.11879396 0.29254034 0.023299135
000050 bc 0a 04 3d 61 8c ee 3b 4d fe f4 bd 1e 85 0a 3e
       0.0322368 0.007279918 -0.119625665 0.13527343
000060 c4 5b d4 3d 53 fb ca 3d ae 8e 8c 3e 81 2e db bd
       0.103690654 0.099112175 0.27452606 -0.10702229
000070 e4 9f 87 be cf c3 9e 3e a7 c7 65 3e 08 30 a9 be
       -0.26489174 0.31008765 0.22439443 -0.33044457
000080 e7 b2 5d 3d c0 72 29 3d 52 e4 e6 bd 73 ce d3 bd
       0.054125693 0.0413692 -0.112740174 -0.103421114
000090 d7 6d 92 3d b5 07 40 bd f4 4a 3e 3e 04 8e a0 3e
       0.071498565 -0.04688235 0.1858328 0.3135835
0000a0 22 1a 9b 3e 90 a5 6c 3d bb 5f 21 bd a4 42 0f be
       0.30293375 0.05777508 -0.039397936 -0.13990265
0000b0 d7 4a f2 be 69 68 4f bd 58 3b 3f be d3 e0 f4 bd
       -0.47322723 -0.050636683 -0.18674982 -0.11956944
0000c0 64 a3 71 bd 29 51 24 3c 2b bd 0a 3d 81 47 b4 3d
       -0.058993712 0.010029116 0.03387181 0.08802701
0000d0 be 11 51 3e a7 71 28 be 5b 75 c5 3a cc ca 08 be
       0.20416924 -0.16449605 0.0015064882 -0.13358611
0000e0 cf a9 e3 3d 23 55 f1 bd ef a9 04 3d 7d 72 ac be
       0.11116373 -0.11783817 0.032388624 -0.33681098
0000f0 f7 f4 14 be 8c a5 7d bc f8 d1 7b 3d 3c 74 8c bd
       -0.14546572 -0.015481364 0.06147954 -0.068581074
000100 00 ea 89 3e b3 b7 1e 3d 2f 9d b6 3b 54 d4 fc 3d
       0.2693634 0.038749408 0.005572937 0.12345186
000110 80 49 1e be d7 e4 e3 3d ac b4 a7 3e 61 50 b4 3e
       -0.15457726 0.11127632 0.3275503 0.35217574
000120 52 93 e7 bd 6b 6a 86 3e 7c 63 2a be 24 0b e2 bd
       -0.11307396 0.26253065 -0.16639513 -0.11037281
000130 fd ec f2 bd 14 b4 7b 3e e5 42 84 be 44 cf ce bc
       -0.11861608 0.24580413 -0.25832286 -0.025245316
000140 6f 47 4b 3d 7b 67 97 be e7 15 13 be 39 11 91 be
       0.04962867 -0.29571137 -0.14363824 -0.28333452
000150 1d 56 c5 be 67 88 a5 bc f8 ab 86 be 38 42 ef bd
       -0.38542262 -0.020206643 -0.26303077 -0.11682552
000160 e3 4d 16 be a9 e3 79 bd db 7a be be 48 ee 4c be
       -0.14678149 -0.06100813 -0.37203106 -0.20012772
000170 71 8a 96 3e 06 cb de 3d 6e fb fe 3d e3 24 c7 3d
       0.29402497 0.108785674 0.124503 0.097238325
000180 02 74 80 3d 99 cf 51 3e da e8 ce bd 54 14 c0 3c
       0.06272127 0.20489348 -0.10103007 0.023447193
000190 2a 1e a8 be 93 4e b9 3d f2 7d 3e 3c ad d0 b0 3d
       -0.32835513 0.0904819 0.011626707 0.08633552
0001a0 55 39 16 bd f5 a9 2f 3e 7d 99 6f 3e c5 5e 05 bd
       -0.03667577 0.17154677 0.23398395 -0.032561082
0001b0 81 b0 2c be 64 f6 17 bd 86 02 64 3e eb 86 d9 3c
       -0.16864206 -0.03710021 0.22266588 0.026553592
0001c0 b3 76 5e 3d 68 e5 94 3d 8c d1 a5 bc a3 aa a1 3e
       0.05431242 0.07270318 -0.020241521 0.31575498
0001d0 f1 13 32 be 2c a9 fe 3d c1 f3 21 be 6c 8d 73 bd
       -0.1739042 0.12434611 -0.15815641 -0.059461042
0001e0 75 8a ab 3d 8d 85 1b 3e 1c 4b 0b bd c7 56 ad be
       0.08376018 0.15187664 -0.034007177 -0.33855268
0001f0 69 be 5a be 35 49 38 3d 6a db 22 3d 63 1e 49 be
       -0.21361698 0.04499169 0.03976003 -0.19640498
000200 03 b9 69 3e 1f 66 d0 be 51 a0 01 be ee 59 99 3c
       0.22824483 -0.40702912 -0.12658812 0.01871964
000210 89 80 e2 3e 67 a3 a8 bc 32 dd c0 3d 13 b9 0a bd
       0.4423869 -0.020585729 0.0941719 -0.033867907
000220 cd ce 6f bc 1e 93 ce be d3 3d 90 be ed 49 06 3e
       -0.0146367075 -0.40346617 -0.28172168 0.13114138
000230 56 02 d0 3e 1f 87 1d be 51 99 83 3c 98 b7 a4 bc
       0.40626782 -0.15383576 0.016064318 -0.020107076
000240 99 67 9c bd 09 3f ae bd 27 67 06 3b 82 c6 1a 3d
       -0.07636947 -0.08508117 0.002050826 0.037786968
000250 5c 99 ed be 5a 02 68 be 58 1a ab 3d 8e 50 aa bc
       -0.46406066 -0.22657147 0.08354634 -0.020790365
000260 09 a1 0e 3e f5 41 3e be 96 a5 a5 be 07 fc a8 3d
       0.13928618 -0.18579848 -0.32352895 0.082511954
000270 b4 84 cd bc 4f d5 a9 bc 73 09 f9 bd b0 55 45 bd
       -0.025087692 -0.020731596 -0.121600054 -0.04817742
000280 d8 6d 6a be e5 d1 12 be c7 e2 54 bb ef 7e ba be
       -0.22893465 -0.14337881 -0.0032483803 -0.36424968
000290 54 3f c8 be 74 5d 55 ba 82 aa 01 3d a0 44 8f 3d
       -0.39110816 -0.0008139231 0.03165675 0.06995511
0002a0 f6 94 b6 be d6 79 86 3e 6a e0 10 bd 49 7c 93 3d
       -0.35660523 0.26264828 -0.035370268 0.0720144
0002b0 ef a0 c4 3e f3 2a 9a be 1d 2c 8e bd 35 0b ca 3d
       0.38404033 -0.30110893 -0.06942008 0.09865419
0002c0 14 b7 6f be d0 01 99 bc a3 ad b1 be 38 d7 5b bd
       -0.23409683 -0.018677622 -0.34702787 -0.053672045
0002d0 9f 8e 42 3e 7d e6 d7 bd 07 1a 4d bc 3c 4c 9c 3e
       0.18999718 -0.10542009 -0.012518412 0.30526912
0002e0 13 eb 46 3e 5e e6 8c be d4 21 87 3e 87 26 af be
       0.19425611 -0.27519506 0.26392996 -0.34209082
0002f0 3f 08 5f 3e eb 1a 8b be aa 92 8b be 43 c4 3c be
       0.2178049 -0.27168974 -0.27260333 -0.18434243
000300 0d 04 e5 bd 91 bf 5c 3d 47 e0 66 be 50 8f c9 3d
       -0.11182413 0.05389363 -0.22546493 0.09841788
000310 5d d9 8a 3e d8 1a c2 3d f2 b1 49 3d 28 0b 44 be
       0.2711896 0.09477776 0.049241967 -0.19144881
000320 06 60 08 3e 0b 68 31 3e da 55 1e 3e 5d b8 94 bc
       0.1331788 0.17324845 0.15462437 -0.018154318
000330 3e 7a 7e 3e 3c ad 35 be 97 1e 03 bf 9b 84 e6 bd
       0.24851319 -0.17741865 -0.5121855 -0.11255761
000340 b2 29 86 3e 92 5b ff bd de 98 ba 3d 15 d4 51 3e
       0.26203686 -0.124686375 0.09111188 0.20491059
000350 ef 70 66 3e d7 86 f1 3d 9a b4 d0 bc b6 f5 0d be
       0.22504018 0.11793297 -0.025476743 -0.13863263
000360 ce ce eb 3d 2f 75 92 3e bb 22 6c 3e 62 01 ba bd
       0.11514054 0.2860503 0.23060124 -0.09082295
000370 4f 6e 82 be e5 e7 19 3d bc bf a0 be 86 9a b8 3d
       -0.25474784 0.037574667 -0.31396282 0.09013848
000380 6e ef a5 be 77 af 12 3e e4 08 6c 3e df 36 34 3e
       -0.32409233 0.14324747 0.23050267 0.17599057
000390 77 6c 41 be ff 1c 87 3d 8f 7b d0 3e 5e a9 9d be
       -0.18889032 0.065973274 0.40719268 -0.3079328
0003a0 29 09 6b 3e dc ed ea bd d4 66 93 3d 13 20 39 3e
       0.22952713 -0.11471149 0.07197347 0.18078642
0003b0 c1 f9 c6 bd c4 9e e6 3d 8b f1 f0 bd 2e 66 0d 3e
       -0.097156055 0.11260751 -0.11764821 0.1380851
0003c0 6b 5d 33 bc e0 20 0a 3e 67 49 25 be 7e ea 23 be
       -0.010947566 0.13489103 -0.16141282 -0.1600742
0003d0 34 75 f5 3e d6 c8 eb bc 62 e2 3d be 20 72 2e be
       0.4794098 -0.02878229 -0.1854339 -0.17035723
0003e0 b1 df 91 bd 46 c4 6c 3e 95 b7 74 3d d6 14 75 be
       -0.07122744 0.23121747 0.05974539 -0.2393373
0003f0 37 0b af 3d 0f ce 15 bd 04 01 62 3e 88 2c cb bd
       0.08547061 -0.036573466 0.220707 -0.09920603

critic_net.0.bias f4 [64]
000000 76 9a 04 3d d3 c7 55 bd ba a8 a3 3c 89 27 96 bd
       0.032373868 -0.05219252 0.019977916 -0.073317595
000010 54 81 36 3d df 8e 84 bd 26 48 40 3d 62 4a 33 bd
       0.04455693 -0.06472563 0.046943806 -0.04377211
000020 0f 98 9e bd 51 fc 63 3c c5 74 a0 bd 5b de cd 3b
       -0.077438466 0.013915137 -0.07834772 0.0062826104
000030 42 b8 60 bd a4 61 54 bd 9a 43 14 3d 0e b9 42 bd
       -0.054863222 -0.05185093 0.036197282 -0.047539763
000040 40 01 4b 3d a8 c8 70 3d 75 26 7d bd 1a e0 3b 3d
       0.04956174 0.05878511 -0.061804254 0.045868017
000050 8a f0 65 bd c2 ae b4 3c 28 93 4f 3d 6f 54 2e 3d
       -0.0561376 0.022055987 0.05067745 0.04256099
000060 24 2d 37 3d ba 93 d0 3d a6 db 1c 3d b7 e4 a5 bb
       0.044720784 0.101844266 0.03829541 -0.0050626653
000070 b0 ea 78 bc 84 a9 45 bd 6b 8c 84 3d e3 66 a4 3a
       -0.015192673 -0.048257366 0.06472095 0.001254287
000080 69 c7 37 bd 9e ee 8a bd 54 bb 8c bd 96 67 d6 bc
       -0.044867907 -0.06783794 -0.068716675 -0.02617244
000090 4c 97 0c bc 48 5a 1b bc 06 83 7e bd 7a 91 71 3d
       -0.008580994 -0.009481974 -0.062136672 0.058976628
0000a0 10 61 52 bd 57 7e 62 3b ed 5d 28 bd 44 3f 6a 3d
       -0.051362097 0.0034560168 -0.0411052 0.05718924
0000b0 e3 6a 80 3d e9 87 58 bd 43 bf 63 3c 9f 4c 3e bd
       0.06270387 -0.05286399 0.013900581 -0.04645979
0000c0 1f be 44 3d 01 69 81 3d c4 9a 6a bd ae 49 06 3d
       0.048032876 0.06318856 -0.057276502 0.03278511
0000d0 9e c9 3b bd 7e 67 90 3c 57 87 89 3d 55 cc 43 3d
       -0.045846574 0.017627474 0.06715267 0.047802288
0000e0 91 28 80 3d 67 ba 5e 3d f4 92 a6 b9 8f 16 8e 3d
       0.062577374 0.054376986 -0.00031771476 0.069378965
0000f0 7d 67 6c bd f1 ae 07 3d a4 53 43 bd 55 fd 07 3d
       -0.05771588 0.03312582 -0.047687188 0.03320058

critic_net.2.weight f4 [64, 64]
000000 42 16 a9 3d f1 03 d7 bc f9 c3 d5 bd b5 ad b6 bc
       0.082561985 -0.026246997 -0.104377694 -0.022299627
000010 f2 69 96 3e fe 22 b1 3d 35 d0 15 3c 2b 22 74 bb
       0.29377705 0.08649252 0.009143879 -0.003725181
000020 34 9c 47 3e 04 43 2f be c9 ec 04 bd 5e 75 69 3c
       0.1949318 -0.17115408 -0.03245238 0.014249174
000030 e2 ec 9e bd 32 af 36 bd f5 28 46 be c8 8d 9b 3e
       -0.077600256 -0.044600673 -0.19351561 0.30381608
000040 58 35 de be 83 0a 50 3d 51 a7 4e bd 00 62 b8 bc
       -0.43400073 0.050791275 -0.050452534 -0.022507668
000050 6f 52 42 be 9e cc 56 bd 24 6b 9c bb 1e b9 5d 3e
       -0.18976758 -0.052441232 -0.0047735143 0.21652648
000060 24 3c 47 3d 8a 80 12 3e ce 2f 1c bd d2 71 04 3d
       0.04864134 0.14306846 -0.038131528 0.03233511
000070 df 7f cc bc 3c f8 af 3d 2c 3e cf bc a1 c6 d0 3e
       -0.024963317 0.08592269 -0.0252982 0.40776542
000080 fe 2e dd 3d d0 9d d9 3e ea 91 57 bc 8b b3 19 3e
       0.10799979 0.42503214 -0.013157347 0.15009896
000090 82 e8 58 be c9 49 43 3e ba 41 6f 3e 94 25 e5 bd
       -0.21182445 0.19071116 0.23364916 -0.11188808
0000a0 c0 cf 49 3e 27 30 21 3e 83 cd a9 3e 18 53 26 3e
       0.19708157 0.15741025 0.33164605 0.16242635
0000b0 a0 f5 61 3e a7 3e 18 3c e9 ea bf bd 35 c6 2c 3e
       0.22066355 0.009292281 -0.093709774 0.16872485
0000c0 fa 8b 5a 3c 72 4d 11 3e a6 50 26 3e 8b 9d 22 bc
       0.013339037 0.141897 0.16241702 -0.0099252565
0000d0 ca 41 b4 3e b5 d2 b9 bd 4e 52 b3 be 44 39 8b 3d
       0.35206443 -0.09073392 -0.3502373 0.06798032
0000e0 ca a7 d3 be df 30 64 be 52 29 eb 3d e1 6c a2 be
       -0.4133895 -0.22284268 0.114824906 -0.31723693
0000f0 bf 1c 76 3e 88 f2 cc 3e 20 1b 9b 3d 49 20 44 bd
       0.24034403 0.40028787 0.07573533 -0.047882352
000100 2d 33 d2 bd c0 42 d8 3e 46 07 07 3c 31 dd 3e be
       -0.10263667 0.42238426 0.00824148 -0.18639065
000110 e3 70 1a bd 17 1d f3 3d 29 6a d1 be 24 b6 cc bd
       -0.037705313 0.11870783 -0.40901306 -0.09995678
000120 95 f6 6b bd 3f 82 9a bd e9 29 a8 3e 0a dc 63 3e
       -0.057608206 -0.07544374 0.32844475 0.22251907
000130 d9 09 c4 bd 76 ca 6a bd c2 34 23 bd cf 5a b4 3d
       -0.09572191 -0.057321988 -0.039845236 0.08806383
000140 bf 1d ee bd e1 d4 b3 bd eb db 20 be d8 c1 ac 3e
       -0.11626767 -0.08780838 -0.15708892 0.3374164
000150 0e 77 4a bd ef 82 29 be cf 77 9a be 67 d0 fa bb
       -0.049429946 -0.16553853 -0.30169532 -0.007654238
000160 38 4e 73 3e 1a 22 88 3e 1f 62 8d be b7 4b 0b 3e
       0.23760307 0.26588517 -0.27613923 0.13603102
000170 4e 6c 38 be c5 f9 2d 3e ba 06 12 be b1 18 14 3d
       -0.18010065 0.16989811 -0.14260378 0.03615636
000180 66 77 57 bd 18 e6 a3 3d 60 83 e3 bd a7 b2 56 3d
       -0.0526041 0.08002871 -0.11109042 0.05241647
000190 ab d9 5b be 11 2a 7d 3d 86 7d 51 bd 21 3b b0 3d
       -0.21469752 0.061807696 -0.0511451 0.08605028
0001a0 28 9b 3e be a0 ae ae bd 8a 68 18 3e 43 54 ed be
       -0.18613875 -0.08529401 0.14883628 -0.4635335
0001b0 d4 7d 2e 3e 25 33 80 3e ce 9b b3 bd a4 bd 78 3c
       0.17040187 0.2503902 -0.08769952 0.015181933
0001c0 49 c3 2c bd 54 f2 40 be f0 d7 10 3e 3a a8 96 3e
       -0.042178426 -0.18842441 0.14144874 0.29425222
0001d0 5d 49 5b be a2 a8 77 bd a7 10 6e be 64 30 66 bd
       -0.21414705 -0.060463555 -0.2324854 -0.056198493
0001e0 dd 0d b4 bd 80 0b c3 3d 74 b1 d7 bd 87 4f 2d be
       -0.08791707 0.09523678 -0.105318934 -0.16924869
0001f0 b8 2f cc 3d 89 ae a6 be a4 88 28 be 20 12 d3 bc
       0.09970039 -0.32555035 -0.16458374 -0.025765479
000200 e6 8d 67 3e 77 81 ac be 83 5f 33 3e 6e 1b ba bc
       0.22612724 -0.33692524 0.17516904 -0.022718158
000210 a6 2b 69 bd c6 a6 14 bc cc 20 2a be f7 cb 11 bd
       -0.056926392 -0.009072965 -0.16614074 -0.035594907
000220 98 ee 49 3d d1 63 8b 3e b4 76 24 be e3 7e a1 3d
       0.049299806 0.2722459 -0.16060907 0.0788553
000230 25 f3 98 3e c7 d5 85 be c6 67 90 be b4 03 cf bd
       0.29873005 -0.26139662 -0.28204173 -0.10108128
000240 b0 f7 db 3d ce bc 38 be 73 8e ea bd 0d e3 a7 3e
       0.10740602 -0.18040773 -0.11452951 0.32790413
000250 49 7c b2 3d 94 3d d8 3d d3 28 48 3e 7c b9 20 3e
       0.08715112 0.1055862 0.19546823 0.15695757
000260 f7 45 c7 3d 44 03 17 bd 11 a4 9a 3c 13 22 a8 3d
       0.097301416 -0.03686835 0.018877061 0.08209624
000270 08 9d 32 3e 61 3b 3a 3d c5 d3 7b be f4 0c 4d 3e
       0.17442715 0.045466784 -0.24592502 0.20024472
000280 50 ae b9 bd 8c 02 1c be 45 02 55 3e f9 37 e7 3d
       -0.090664506 -0.15235347 0.20801647 0.11289973
000290 9a 2d 68 bd fd 9a 86 3c cd fd bc 3d be d2 92 3e
       -0.056684114 0.016431326 0.09228096 0.2867641
0002a0 03 da 3d bb 88 74 5e 3e c3 1f db 3c b6 36 33 3e
       -0.0028969056 0.2172414 0.026748544 0.1750134
0002b0 e7 3c 37 3c d7 8e 27 bd 5f 85 c5 be 32 4d 66 be
       0.011183954 -0.040907707 -0.38578317 -0.22490385
0002c0 f3 3c c1 3d 66 b5 3b bd 2f 20 c9 3c 25 47 d3 3d
       0.09435453 -0.045827292 0.02455148 0.10316304
0002d0 ff c3 68 be f4 1e 3a be 14 db 01 3e 94 bf 1a 3c
       -0.22731017 -0.1817587 0.12681228 0.00944509
0002e0 83 13 66 3d 17 0d ea be 31 2d 18 3e 25 da a7 3e
       0.05617095 -0.45713112 0.14860989 0.3278362
0002f0 4c dc 0a 3e 47 dd 7d be e1 ee e9 bd b4 57 76 3e
       0.13560599 -0.24791442 -0.11422516 0.24056894
000300 c5 18 97 3d 3f a7 bc be 78 14 1d bf a3 50 b2 be
       0.07377771 -0.3684635 -0.6135936 -0.34827146
000310 16 4b 39 3e ea c8 08 be 1d f9 ae bd 92 73 a9 3e
       0.1809505 -0.13357893 -0.08543608 0.33095986
000320 21 04 ac bd b4 61 0e 3d 0b 39 02 3e 9d a3 19 3e
       -0.08399225 0.034761146 0.12717073 0.1500382
000330 b3 fa 85 bc 6d 0b 42 be 40 58 4b be 0f 41 16 be
       -0.016354894 -0.18949671 -0.19857883 -0.14673255
000340 67 3b 8c 3e f1 ec bc 3d 05 ca 0d be 13 25 ba 3d
       0.2738907 0.092248805 -0.13846596 0.090891026
000350 9d 99 4f 3c a9 cd 68 3c c0 75 4a bd 30 d9 9c 3b
       0.012670902 0.014209189 -0.0494287 0.004786633
000360 dd 6f 0e 3e 5a 1e ba be 34 91 6d 3d d0 d6 51 be
       0.1390986 -0.3635128 0.057999805 -0.204921
000370 f2 be 96 bd 1d b8 31 be ee fc 8d bd 88 00 36 3d
       -0.07360639 -0.1735539 -0.06933008 0.0444341
000380 da f8 47 3e 74 5b ee be da 42 b4 bd fb 4a e3 bc
       0.19528523 -0.46554148 -0.088018134 -0.027745714
000390 82 08 9c bd ea ad ac 3d 8a a9 01 bd 84 d0 8c 3e
       -0.0761881 0.08431609 -0.031655826 0.27502835
0003a0 6e a2 6e 3e f0 b9 17 be 37 2b 14 3e 6b ed c7 bd
       0.2330415 -0.14817023 0.1446961 -0.09762081
0003b0 91 be cd bd aa 09 ef bd 9a fc 7c 3d 52 23 f4 3d
       -0.10046113 -0.11671765 0.061764337 0.11920799
0003c0 d5 23 05 be 82 96 28 be e8 6b a1 bd be 0e 1c 3e
       -0.1300195 -0.16463664 -0.078819096 0.15239999
0003d0 2d 0b ab bd b1 fa 96 bd 5f 7a d4 3d b9 91 a5 3d
       -0.08351741 -0.07372034 0.10374903 0.08084435
0003e0 7b 23 28 bd 5f 42 59 3e 04 87 86 bd 47 d0 03 be
       -0.04104946 0.21216725 -0.06568721 -0.1287242
0003f0 5e 9c 75 be 7f 8c 8f 3e d8 1c b2 bd 33 e4 70 3e
       -0.2398543 0.28036878 -0.08696908 0.23524551

critic_net.2.bias f4 [64]
000000 4a a4 39 bd 91 09 2a bd 60 1f 0c 3d 52 3d e6 3c
       -0.045322694 -0.04151303 0.03420961 0.028105412
000010 5f cc 12 3d 8d cf 38 bb 6f 0e 08 3d e1 79 6e bd
       0.035839435 -0.0028199882 0.03321689 -0.0582217
000020 7c f9 1f bd 2c ff 44 3d eb 11 2e bd 4d 89 01 bd
       -0.039056286 0.048094913 -0.042497557 -0.03162508
000030 9b 02 05 bd d2 2c 2f bd df 43 0c bd a3 67 e6 3c
       -0.032473188 -0.042767353 -0.034244414 0.02812559
000040 a3 2c 43 3d ba b6 3e 3d 10 4e 10 3d 28 a8 ef 3c
       0.04764999 0.04656098 0.035230696 0.029254988
000050 74 32 4c 3d 9a 1f 2c bd 06 82 30 3d 27 57 2a 3d
       0.049852803 -0.042022325 0.04309275 0.04158702
000060 5b 95 81 bd 01 f3 1e 3d 7e f8 13 3d c3 f6 2d 3d
       -0.063273154 0.038805965 0.036125652 0.04247166
000070 0a 9f 0c bd e9 8a 20 bd ab 51 41 3d 55 10 14 3d
       -0.03433136 -0.039194975 0.047197025 0.036148388
000080 84 6b 07 bd 82 08 04 bd 4d 2c fe bc 00 b3 31 3d
       -0.03306152 -0.032234676 -0.031026984 0.0433836
000090 93 f8 fe bc 80 10 fa bc 03 dc 08 bd e6 fd 0b 3d
       -0.031124389 -0.030525446 -0.033412945 0.034177683
0000a0 93 44 21 3d de 7e 3d 3d 76 f1 2e bd c9 20 cd bc
       0.039372038 0.046263568 -0.042710744 -0.025040047
0000b0 28 ec 27 bd 50 8c f7 bc d8 bd 00 bd 3e 8f 26 bd
       -0.0409967 -0.030218273 -0.03143105 -0.04066395
0000c0 d4 28 50 bd 87 3d 0a bd 8f 81 60 bd c1 9a e7 3c
       -0.050820187 -0.033750083 -0.054811057 0.028272035
0000d0 92 42 2e bd 32 b6 1c 3d e3 19 6f 3d 15 d5 58 3d
       -0.042543955 0.038259692 0.058374297 0.052937586
0000e0 d1 c4 23 bd 9d 30 45 3d 79 16 1c bd dc 8f f4 bc
       -0.03998262 0.048142064 -0.03810737 -0.029853754
0000f0 47 ff 19 3d 2e 4e 14 3d d9 a1 5a bd 83 d3 0c 3d
       0.037596967 0.03620737 -0.053377006 0.0343814

critic_head.weight f4 [1, 64]
000000 c3 32 63 3e 9e e7 4a 3d 9c c7 f6 bd 99 62 07 be
       0.22187333 0.049537294 -0.12049791 -0.13221206
000010 0e cf df bd e4 76 cf 3c a4 5c 30 be ce a0 f6 3d
       -0.109281644 0.025325246 -0.1722284 0.1204239
000020 41 45 33 3e 87 d5 91 be 5c 3c c6 3d 72 ac b6 3d
       0.17506887 -0.2848322 0.096794814 0.0891961
000030 96 f9 70 3e a5 1e 3d 3e 59 7b 3a 3e 26 b7 67 bc
       0.2353271 0.18468721 0.18211116 -0.014142787
000040 42 a5 57 be 6b 87 98 bd ed e7 29 be 78 19 82 be
       -0.21059135 -0.07447704 -0.16592379 -0.25410056
000050 33 14 dd bd af e6 ec 3d cc a0 a9 bd 2f 21 f0 bd
       -0.10794868 0.11567437 -0.08282623 -0.11725079
000060 83 9c f6 3d 39 9c 11 be 01 77 6e bd 12 be bc be
       0.12041571 -0.1421975 -0.05821896 -0.36863762
000070 0d 4c d2 3d cc bf 26 3e b5 71 4a bd 5e 72 f2 bd
       0.10268412 0.16284102 -0.049424846 -0.1183822
000080 ee 36 26 3e 12 81 03 3e 4e 79 e9 3d f4 78 7d bd
       0.16231892 0.12842205 0.1140009 -0.061882928
000090 7f 17 f2 3d 48 31 54 3e 44 a4 32 3d 19 69 91 bd
       0.11820888 0.20721924 0.043613687 -0.07100124
0000a0 9d 58 48 bd eb 0a d6 bd dc 4b fb 3d bc 82 ab 3d
       -0.048912633 -0.10451301 0.122703284 0.08374545
0000b0 9e 7b a9 3e 28 2f 49 3e 25 f1 d0 3d c8 27 bb 3c
       0.33102125 0.19646895 0.10202245 0.022846118
0000c0 e7 82 c6 3d c4 65 86 3d cb a1 50 3d 1f d8 10 be
       0.096929364 0.06562379 0.050935548 -0.14144944
0000d0 6b 77 28 3e 4f 6a 7c be 8f fd 41 be 6c 89 c3 bd
       0.16451804 -0.24649929 -0.18944381 -0.095476955
0000e0 c7 bf c5 3e 96 06 25 be e5 4c 26 3d 43 cb 43 3e
       0.38622877 -0.16115794 0.040600676 0.19120507
0000f0 67 4a 8c be f4 71 77 be da 33 8f 3e 21 4d 41 be
       -0.27400514 -0.24164563 0.27969247 -0.18877079

exp_avg f4 [64, 8]
000000 5c 5c c8 39 9a 11 cd 39 67 f6 d1 39 24 81 c3 38
       0.00038215786 0.0003911376 0.0004004717 9.322379e-05
000010 89 31 7f 39 a6 95 27 b7 98 3f 2e 3a 1f dd 96 3a
       0.00024337148 -9.988818e-06 0.00066470494 0.0011509991
000020 1a 57 c1 b9 34 4f c7 b9 ae 9f cb b9 08 b5 49 b8
       -0.00036876724 -0.0003801525 -0.00038838148 -4.8090733e-05
000030 04 12 04 b9 42 f6 78 37 56 c6 b4 b9 c2 2b 79 ba
       -0.00012595212 1.4839288e-05 -0.00034480047 -0.00095051166
000040 b0 97 4e b9 34 4b 56 b9 e3 f4 5a b9 bb 57 c2 37
       -0.00019702199 -0.00020436646 -0.00020881328 2.3167455e-05
000050 1a 71 03 b8 02 c2 0d 37 0b 10 27 b9 d7 32 fa b9
       -3.1338168e-05 8.449426e-06 -0.00015932338 -0.00047721594
000060 30 9a 96 b9 b0 80 99 b9 76 56 9d b9 a4 32 bf b8
       -0.00028725108 -0.00029278314 -0.00030009792 -9.117022e-05
000070 70 95 73 b9 b0 4c f8 36 be 83 f1 b9 20 a8 76 ba
       -0.00023229956 7.3999036e-06 -0.00046065258 -0.0009409208
000080 da 5e 0b 3a 37 fa 0f 3a 48 d7 14 3a 7e ca ba 37
       0.0005316563 0.0005492302 0.00056778314 2.226722e-05
000090 b1 9b d6 39 24 7a ce b7 ed 92 47 3a 7a ff f2 3a
       0.0004093326 -2.461399e-05 0.0007613141 0.0018539273
0000a0 ba 34 99 ba 6f e3 9d ba 56 c1 a1 ba 8c d0 d5 b8
       -0.0011688687 -0.001204593 -0.0012340944 -0.00010195476
0000b0 4d a5 eb b9 0d 79 58 38 bf a7 9f ba 41 c8 4e bb
       -0.00044945852 5.161115e-05 -0.001218073 -0.0031552466
0000c0 56 d6 07 36 ff 80 19 36 4f 5c 22 36 c0 bf ee 37
       2.0241328e-06 2.2873862e-06 2.4193612e-06 2.8461101e-05
0000d0 fb 9e 55 38 6a d7 13 b3 7c 9f a9 b7 44 f2 cd 38
       5.093122e-05 -3.4422023e-08 -2.0220636e-05 9.820287e-05
0000e0 db c7 48 b9 b1 07 4e b9 17 25 53 b9 ff d6 7a b7
       -0.00019147938 -0.00019648556 -0.00020136345 -1.4951219e-05
0000f0 f0 4a c8 b8 c9 81 c2 36 eb 06 a0 b9 a0 c4 13 ba
       -9.550701e-05 5.7967595e-06 -0.00030522732 -0.00056369044
000100 74 0b 47 39 67 46 4e 39 66 43 52 39 30 b9 37 b7
       0.00018982386 0.00019671918 0.00020052269 -1.0950767e-05
000110 98 21 19 36 5c e2 1f b7 e6 5e ff 38 1a 6e cf 39
       2.281833e-06 -9.529842e-06 0.00012177024 0.0003956415
000120 38 96 8a 39 d3 94 8f 39 d6 d8 93 39 a4 d1 55 b8
       0.00026433333 0.00027385968 0.0002819958 -5.09784e-05
000130 3d 4c 72 38 cb 76 61 b7 a3 f6 37 39 df 1f 33 3a
       5.77683e-05 -1.3438704e-05 0.0001754412 0.0006833057
000140 ad 45 d5 39 0f 54 dd 39 40 4f e2 39 f0 2c c8 b7
       0.00040678438 0.00042215033 0.00043165125 -2.3862784e-05
000150 48 cf 0f 38 36 90 c4 b7 d0 c1 a8 39 f9 5c 6f 3a
       3.4286903e-05 -2.3432174e-05 0.0003218786 0.00091309805
000160 d1 27 42 ba 02 74 47 ba bf 63 4c ba 4b fb d6 b8
       -0.0007406446 -0.0007608534 -0.0007796846 -0.00010251122
000170 44 98 b3 b9 ab ab f3 37 85 c6 85 ba 9d 23 06 bb
       -0.00034254987 2.9047796e-05 -0.0010206258 -0.0020468005
000180 d0 cc 28 39 80 fb 2e 39 88 3a 33 39 4c 07 41 b8
       0.00016098027 0.00016687624 0.00017092575 -4.602158e-05
000190 2b c1 65 b8 6f 36 09 b7 d8 a6 fd b5 75 12 87 39
       -5.4777756e-05 -8.17851e-06 -1.8898527e-06 0.00025762958
0001a0 28 0e b8 b9 cb 36 bc b9 83 7d c0 b9 b2 6e 94 b8
       -0.00035105762 -0.00035898978 -0.00036714607 -7.0778086e-05
0001b0 bb 98 20 b9 fa 01 49 37 b5 5a 3a ba 1a be 6f ba
       -0.00015315686 1.1980994e-05 -0.00071088533 -0.0009145454
0001c0 02 fb 0f b9 a0 86 11 b9 9e ab 14 b9 88 88 65 b8
       -0.0001373105 -0.0001387843 -0.00014178312 -5.472501e-05
0001d0 4b 73 23 b9 cf e0 14 36 a8 4a da b9 32 62 07 ba
       -0.00015587841 2.2184574e-06 -0.00041635823 -0.00051644736
0001e0 66 39 f9 b9 a1 6c ff b9 2f f6 02 ba 07 99 51 b8
       -0.00047535746 -0.00048718325 -0.00049957907 -4.9972e-05
0001f0 5d 17 84 b9 90 31 79 37 c0 14 4e ba 0e 65 b5 ba
       -0.0002519441 1.4853096e-05 -0.00078613684 -0.0013839321
000200 2d 10 2e 3a e0 31 33 3a 4e 89 37 3a 54 38 eb 37
       0.00066399836 0.000683574 0.0007001356 2.8040413e-05
000210 19 70 57 39 1a 5f e6 b7 af 17 41 3a 4c 15 df 3a
       0.00020545757 -2.7462422e-05 0.0007365895 0.0017019897
000220 f8 10 4f ba b2 96 55 ba 1a 93 5a ba 6d d2 5e b8
       -0.0007898952 -0.00081477605 -0.000833796 -5.31249e-05
000230 29 3f 87 b9 6f 18 15 38 8b 33 3d ba a1 d3 06 bb
       -0.00025796265 3.5547124e-05 -0.00072174583 -0.0020572918
000240 be 06 82 ba 95 98 85 ba 74 cb 88 ba 9d c0 2e b9
       -0.0009920222 -0.0010192568 -0.001043661 -0.00016665687
000250 b4 9e 04 ba 6d 70 1b 38 03 36 ac ba 3d 85 39 bb
       -0.0005059049 3.7059584e-05 -0.0013138655 -0.0028308176
000260 2c 8d ea b9 dd 5c f2 b9 fb 93 f7 b9 65 83 b7 36
       -0.0004473714 -0.00046227025 -0.00047221765 5.4691213e-06
000270 46 dd 83 b8 9b c2 a5 37 51 6c ad b9 88 ec 88 ba
       -6.287782e-05 1.9760153e-05 -0.00033077833 -0.0010446468
000280 ff 99 9c 39 0d 81 a0 39 ff 0e a4 39 73 8d 97 38
       0.00029869375 0.00030613728 0.0003129169 7.226588e-05
000290 eb a5 fb 38 87 f4 43 b7 d3 d0 0b 3a f1 51 49 3a
       0.00011999517 -1.1679839e-05 0.00053335464 0.0007679752
0002a0 7e c5 c9 39 c4 06 cf 39 cd 75 d3 39 fc e3 3a 38
       0.0003848485 0.00039487157 0.00040332825 4.4558183e-05
0002b0 21 9c cb 38 c0 c5 66 b7 b7 e8 08 3a 06 3c 6e 3a
       9.7088756e-05 -1.3755111e-05 0.00052226655 0.00090879237
0002c0 9a 29 8a b9 a5 42 8e b9 ad fd 91 b9 ad df 96 b6
       -0.00026352407 -0.00027134005 -0.00027845558 -4.4963876e-06
0002d0 79 c5 ad b8 5f 93 39 37 3b 7c 80 b9 2f fc 31 ba
       -8.286065e-05 1.1061172e-05 -0.0002450662 -0.00067895924
0002e0 ed ce e9 39 65 02 f1 39 f5 17 f7 39 5a db 32 38
       0.00044595395 0.00045968886 0.0004712936 4.2642794e-05
0002f0 6b e2 58 39 5d a4 94 b7 97 0b 10 3a 25 ae a5 3a
       0.00020683713 -1.7719512e-05 0.0005494891 0.00126404
000300 d7 13 80 ba 00 c1 83 ba b5 1a 87 ba 9a 78 c3 b8
       -0.0009771538 -0.0010052025 -0.0010307642 -9.3207884e-05
000310 56 4f fb b9 07 3a 1e 38 36 3c b3 ba fc af 37 bb
       -0.0004793356 3.7724178e-05 -0.001367456 -0.002802848
000320 60 fe 9c b9 48 c3 a1 b9 b9 ab a5 b9 95 97 ad b7
       -0.00029944163 -0.0003085381 -0.00031599196 -2.0693793e-05
000330 62 09 f2 b8 5e 2b 58 37 e5 a1 a9 b9 3c a0 56 ba
       -0.00011541207 1.28847005e-05 -0.00032354813 -0.0008187329
000340 0e 8a 02 bb 85 47 06 bb cf 8b 09 bb c6 d1 84 b9
       -0.0019918713 -0.0020489406 -0.0020987873 -0.00025333295
000350 fb e7 69 ba 5d 54 af 38 c1 6d 29 bb 27 c6 b4 bb
       -0.00089228124 8.360364e-05 -0.0025852772 -0.0055167857
000360 4a d7 98 3a 4c e9 9c 3a 66 a5 a0 3a 9f ae 77 39
       0.0011660841 0.0011971383 0.0012256324 0.00023620807
000370 55 b0 1a 3a f2 56 28 b8 8a cd f8 3a d4 6e 56 3b
       0.00059009093 -4.0135295e-05 0.0018982154 0.0032719867
000380 be ac 1c 39 f5 6c 22 39 5a af 27 39 13 0d cb b7
       0.00014941671 0.00015490114 0.00015991685 -2.4205574e-05
000390 b5 ae 48 38 cc 82 00 b7 06 4b d3 38 52 9f d5 39
       4.7846424e-05 -7.659848e-06 0.00010075238 0.0004074523
0003a0 5f 15 0b 3a c4 63 10 3a 89 e8 13 3a e4 7e 86 b7
       0.0005305614 0.00055080303 0.00056422554 -1.6033133e-05
0003b0 46 55 f3 38 5a 25 f4 b7 8d 3a b1 39 bc a0 ad 3a
       0.00011603026 -2.910446e-05 0.00033803695 0.0013246755
0003c0 eb 7e c3 39 eb 17 ca 39 cd f7 ce 39 e1 34 85 37
       0.0003728786 0.00038546263 0.00039476008 1.587946e-05
0003d0 ec 37 2a 39 86 e6 8c b7 64 19 92 39 c3 5c 8a 3a
       0.00016233296 -1.6796646e-05 0.00027866208 0.001055621
0003e0 cf 94 7b ba 65 8e 81 ba de b5 84 ba 22 06 c3 b8
       -0.00095970643 -0.0009884356 -0.0010125001 -9.299467e-05
0003f0 1b 8e e5 b9 90 d3 2d 38 a2 4c 9c ba fa 6d 2f bb
       -0.0004378416 4.1443447e-05 -0.0011924694 -0.0026768432
