results/stability_test/models/final_model.pt (torch, 160879 bytes, 30 tensors)

actor_net.0.weight f4 [64, 8]
00000000: f60a 26bd 99af e4bd 0ea7 9a3e e2bf d23e
00000010: d209 bbbe 026b b23e 328c 5a3e 7309 973c
00000020: fea9 5d3d b090 173e e774 c6bd 1c32 8bbd
00000030: 89d3 90bd 3ea8 e43c 472f 3d3e 25f7 c1bd
00000040: 3f2d b23d e876 54be cefc ef3d c10a c43d
00000050: 5b88 0fbd 839d f1bd 9176 193e bb67 12be
00000060: fdc0 4abb 14cf 0ebe 0cc7 28bd 1251 f93d
00000070: ef25 ef3e af83 17be 79f7 47be 0270 20be
00000080: 49c3 ab3e eea3 3f3e f560 29be c601 263e
00000090: 7454 4dbe 611c 943d 7066 a6be c7a8 053f
000000a0: dc85 42bd e29d 35be 00a6 28bd 1087 70be
000000b0: dfbd 3f3e 1190 433d ecf3 253e c445 023d
000000c0: 2bc7 8f3e dd4a 5fbe 7fd0 ae3e 9cc4 53be
000000d0: 38cc bbbe b45a e53d 2d01 bfbc 0a48 92bc
000000e0: 1c8a c1be 7ca5 573d b004 a4be b2b2 7fbe
000000f0: d02e fc3e c724 633e b029 19bd 1d2f 5cbe
00000100: 3c19 693e aa46 02be 97c9 60bc ee83 99be
00000110: 096d b23d 8880 0d3d 14b7 b0be 48f0 663d
00000120: 6025 a0be 964a 06be 1ac9 893c fc4d 8b3e
00000130: 7dd6 1b3d 88ff 03be 9f06 62be 8af3 47be
00000140: d3ea eebd fa7b fbbd dd9b 05be 2dd2 0c3d
00000150: bcb4 0bbc 7ebd 5f3b 3c9d 03bf 3dcd 04bd
00000160: a9b4 443d b9e9 eebd 07b7 d8bd e388 79be
00000170: 3187 303e 4115 063d fd79 213c ea48 043e
00000180: d76e 05be a73b d7bd 0858 bebd d5a2 ad3e
00000190: c72d ba3e 5a47 a3ba 00a0 ebbd fef5 5cbc
000001a0: a792 b1be 7b8a a0bd e64a 03be c9df 91be
000001b0: 52b7 a13e 48ea 8f3d 498d 52bc 1acd 273e
000001c0: f102 943d ef47 fabe 2c15 88be 31ed 783e
000001d0: 45bc 843e 6b54 e9bc c52f 893c a998 cd3c
000001e0: 86b8 4abd 40e5 47be eb71 c1be 6231 1fbe
000001f0: 2b8a e33d d0cb 77be b2fa ac3d b3a6 fbbd
00000200: 808a 9dbe b42c 64bd 71e9 d73c 0c85 ac3e
00000210: fa60 9abd 1425 21bd f922 1bbe 3857 ecbb
00000220: 31f0 2c3d eca4 ea3d 6117 72bd 903e 6ebe
00000230: 87e0 223d d73e c93d bb63 6b3e 9b72 3ebe
00000240: 9247 bd3d 9800 c9bd d977 933d 1653 a5be
00000250: 5c29 c43e 32eb 26be ea3c 6dbd c664 e2bd
00000260: 07aa af3e 475a 06be b327 93be 56b1 ecbc
00000270: 0702 3e3d 5bee f03d 20eb cf3e b298 c33b
00000280: 0e6c e7ba e9c0 d6bb 36e4 97bb 6db7 0c3f
00000290: 9387 db3d 6e45 a1be 0807 f93d 3685 04be
000002a0: 1a75 153d 7133 a6be dc90 01be b5fa c63d
000002b0: 0042 8cbd 1a5f 30be 4d76 2bbd a754 c1bc
000002c0: ddec 14be cc35 15bd ac88 d93e 824a a0bd
000002d0: a3ad 33bd 0f16 a0bd 5197 d53d 210f a73d
000002e0: 47cc 63be 2d9d 333e 9b90 913d eb41 e3bd
000002f0: 70f7 92be 6395 76be e941 a3bd 715a 9d3d
00000300: ca5c d53d cc13 d93d c025 ecbe 4d1e 803d
00000310: 14c2 843e e697 bfbc a135 603e 10a6 69be
00000320: c1eb edbd 4313 00be c697 30be f93d 45be
00000330: 2860 2abd 20c3 38be 7500 043e 2a1f e7bd
00000340: 11d2 343e f936 d3bc 394d 01be d180 6dbe
00000350: 7e6c b93e b8d5 e1bc 8527 3a3e 7553 36be
00000360: 001f 5dbd 62a9 dabc 5807 793d a4d6 023f
00000370: 0f6a cdbe 8080 02bf 8bcf 1abd 2260 363e
00000380: 3a59 74bb 3786 583e 1e33 57be 4f86 3c3c
00000390: 3cff fdbd 9ccb 063e 6d01 2dbe 7f92 2fbe
000003a0: 73fc c63c 75ad 3abe 28f5 94bd 6394 c43d
000003b0: 1330 b2be 414b 8fbd a29c f5be 090f a3bd
000003c0: 4cf7 183e aec6 653d 457c d73e 7d3c 8ebc
000003d0: 1525 40bd 16af 42be e013 75be 837a 9bbb
000003e0: a6b4 c3be 2adb 2fbe 2724 f33d 088c 94bd
000003f0: bbc4 9a3e e9a9 523e 7cf5 c23d 3eec 8a3d
-0.040537797 -0.11166305 0.30205578 0.4116202 -0.3653093 0.34847265 0.21342543 0.018437123
0.054117195 0.14801288 -0.09690266 -0.06796667 -0.07071597 0.027912255 0.18475066 -0.09470967
0.08700036 -0.20748484 0.117181405 0.09572364 -0.035042148 -0.11797621 0.14986636 -0.14297383
-0.0030937784 -0.13946182 -0.04120545 0.12173666 0.4670863 -0.14796327 -0.19527997 -0.15667728
0.33547428 0.18714878 -0.16540892 0.16211614 -0.20051748 0.07231975 -0.3250003 0.5221066
-0.04749094 -0.17736009 -0.041173935 -0.23489022 0.18724774 0.047744814 0.1620633 0.031804815
0.2808164 -0.21805902 0.34143445 -0.2068047 -0.36679244 0.11198941 -0.02331599 -0.017856617
-0.37800682 0.052648053 -0.32034826 -0.2497051 0.49254465 0.22181998 -0.037393272 -0.21502347
0.22763532 -0.12722269 -0.013719938 -0.29983467 0.08712203 0.034546405 -0.34514678 0.056381494
-0.31278515 -0.1311439 0.016819526 0.27207935 0.03804635 -0.12890446 -0.22072838 -0.19526497
-0.11665883 -0.12279506 -0.13047738 0.034380127 -0.008526977 0.0034140046 -0.51411796 -0.032422293
0.048023853 -0.11665673 -0.10581785 -0.24368624 0.17239071 0.032735113 0.009855744 0.1291844
-0.13030563 -0.10509425 -0.092941344 0.33913293 0.3636305 -0.0012457178 -0.11505127 -0.0134863835
-0.346822 -0.07838913 -0.1282154 -0.28491047 0.31585175 0.070271075 -0.012851068 0.16386834
0.072271235 -0.48883006 -0.26578653 0.24309231 0.25924888 -0.028482636 0.016746411 0.025097208
-0.04949238 -0.19521046 -0.37782225 -0.15546182 0.11110338 -0.24198842 0.08446254 -0.12287655
-0.3076973 -0.055706695 0.02635643 0.33695257 -0.07538028 -0.039342 -0.1515006 -0.0072125457
0.042221252 0.114572376 -0.059104327 -0.23266053 0.039764907 0.09826439 0.22987263 -0.18598406
0.092421666 -0.098145664 0.072005935 -0.32289952 0.38312805 -0.16300657 -0.05791942 -0.11054377
0.34309408 -0.13120376 -0.28741226 -0.028893154 0.046388652 0.11764213 0.40609074 0.0059691304
-0.0017656104 -0.0065537584 -0.004635359 0.54967386 0.10719218 -0.31498283 0.12159544 -0.12941441
0.03648863 -0.32461122 -0.12652916 0.09715787 -0.06848526 -0.17223778 -0.041860867 -0.023599936
-0.14543481 -0.036428258 0.42487085 -0.07826711 -0.043866765 -0.07816707 0.10429252 0.081571825
-0.22245894 0.17540427 0.071076594 -0.11096557 -0.28704405 -0.24080424 -0.07971556 0.07683266
0.10418089 0.10599479 -0.4612255 0.062557794 0.2592932 -0.02338786 0.21895458 -0.22817254
-0.11617232 -0.12507348 -0.17245397 -0.19261922 -0.041595608 -0.18043184 0.128908 -0.11285241
0.17658259 -0.025783049 -0.12627114 -0.23193671 0.36215585 -0.02756773 0.18179138 -0.17805274
-0.053984642 -0.026692096 0.06079802 0.51108766 -0.4011998 -0.50977325 -0.037795585 0.1781011
-0.0037284628 0.21144949 -0.21015593 0.011506631 -0.12402198 0.13163608 -0.16895075 -0.17145728
0.024290299 -0.18230231 -0.07273322 0.09598615 -0.34802303 -0.069967754 -0.47971064 -0.07961852
0.14938086 0.05609768 0.42086998 -0.017362827 -0.046910364 -0.19012102 -0.23933363 -0.004744829
-0.3822376 -0.17173448 0.1187213 -0.07253271 0.30228218 0.20572628 0.09519479 0.06783341

actor_net.0.bias f4 [64]
00000000: 4a59 d13c 3e9e de3c 535a 413d f998 063d
00000010: 61ee 6fbd e3b0 533d dde8 4bbd 3e7d debc
00000020: e013 54bd 8d70 3fbd 6a28 72bd b555 5e3b
00000030: c73c b53c bf55 a6bc eae9 203d f9b2 2e3d
00000040: 64b1 90bc 1a73 333c 46e5 8b3b 8c5b 4c3d
00000050: 48bf a23c 2de4 8abd 32a9 403d dae7 34bd
00000060: 2380 3c3d 9582 1a3c f9ec 483d 8471 82bb
00000070: b074 31bd 79d6 6cbd c7f6 41bd 8aac 443d
00000080: fda9 493d 6c61 8c3c 32c5 1f3d 729b 433d
00000090: 06f8 393d feb7 ff3b 5778 59bd 2744 73bd
000000a0: 62e9 953d c8bd 7c3d b0d6 3cbd 7fc2 a83c
000000b0: 3576 833c b78a 9f3d 8046 d13c 41e7 51bd
000000c0: f37c 803d c397 4ebd cb9e 48bd d76d 4ebd
000000d0: 1f8e f33c 1c7a 443d 85bf 733d 3bde f53c
000000e0: e601 9abd eae9 08be 91e5 be3c fb10 24bd
000000f0: 7cf2 4dbd 6a3b e0bc 6439 423d aa9f ccbd
0.025555272 0.027175065 0.04720528 0.03286073 -0.058576945 0.051682364 -0.049782623 -0.02715933
-0.051776767 -0.046738196 -0.059120573 0.0033925597 0.022123707 -0.020304559 0.039285578 0.04265115
-0.017662711 0.010952735 0.004269275 0.049891993 0.0198666 -0.06781802 0.047036357 -0.044166423
0.04602064 0.009430547 0.04905412 -0.0039808173 -0.043324172 -0.057821725 -0.047354486 0.04801611
0.04923438 0.017136298 0.03900642 0.047755666 0.04540255 0.007803916 -0.05309328 -0.059391167
0.07319905 0.061704427 -0.04610318 0.020600555 0.016047576 0.0779013 0.025546312 -0.05124593
0.06273832 -0.0504377 -0.04897956 -0.05039772 0.029730855 0.047968015 0.05950882 0.030013194
-0.07519893 -0.13370481 0.023302825 -0.040055256 -0.05028008 -0.02737208 0.047418013 -0.09991391

actor_net.2.weight f4 [64, 64]
00000000: 2fa3 043e 6c24 64bd 7420 9dbe 4a03 123d
00000010: 0c69 a13e f7e5 d4be 1d61 52be d9c7 e53d
00000020: fa10 5b3e 281c 4c3c 9d81 fdbc 1cab 30be
00000030: 3bf5 06be 516a 69bc fe06 83be 9a5a fa3d
00000040: 759a 8b3e fa98 5ebe 637a debd a449 3bbe
00000050: 97d1 073e 54e3 903e 91dc 093e 6d78 233e
00000060: 522b 943d 2e98 92be 5206 5cbe 5fd3 5fbe
00000070: 0869 0ebe cc27 863e 09d2 283e 5c6f 583e
00000080: cef3 92be 8273 cebd c78e 9c3a 5fb6 1ebe
00000090: e695 633e b5fe cabe a614 0bbd 64ba 31be
000000a0: ac06 c3be be30 d03c 9416 49be 0a30 5abe
000000b0: 3cad 09be 411f 453e e6d9 153c c840 c7bd
000000c0: 2b80 473e 55f5 653e 06d0 443d 31d5 d63d
000000d0: 7fb6 1a3e b24a b13e edf0 c2bd 9bf6 b4bd
000000e0: 8c64 233e de24 1a3e 9f3e 53bd 94d4 dfbd
000000f0: 7055 843c 07e4 7d3d b4e6 de3d 9886 7c3d
00000100: 55e7 aa3d b359 693e 9e94 4ebe 3498 c03e
00000110: b943 463e b482 a3be 7654 043d ae8b d8bd
00000120: 4a7e 373e 24c2 5b3e 76a0 b23d ac19 c13e
00000130: 2167 2d3d 0956 14be 0ce5 6d3e a306 3dbe
00000140: dec9 b13e fd3c 89be f036 3d3e f5a5 73be
00000150: 5ba9 323e 0c4a df3c 9c55 cd3c c02a 6e3e
00000160: d579 34be 10eb 2fbe 2625 cebc b707 103e
00000170: 8faf c23c 7054 adbe 70b2 54be 0e61 daba
00000180: 573b 50be 1dfd 16be 0637 a4be 2d08 9cbe
00000190: 9fd8 113e 7f65 193e 41be 4c3e db04 5c3e
000001a0: 0c99 74bb b33f cd3d 27de a33e 5468 413c
000001b0: eab9 dabc 12ba 723e 0c1f 79be 840c fabd
000001c0: 7482 6f3e 129f 6f3c 8533 a13e be47 d93e
000001d0: ced9 46bd 378d a6bd 2ed3 93be cc7d 5cbe
000001e0: 8327 253d 3771 d1bd 406f 70bd 6af8 113e
000001f0: 875c 053e 1bec a53e e634 7abe 630a f53d
00000200: a9e2 e63c b1f7 eb3d 3152 093e db5e 0fbd
00000210: 56f4 453e 234d a6bd 4a80 383e 967b 01be
00000220: 5f6a 953e b685 113e 9011 f7bd 3209 e8bc
00000230: e6eb 98bd 0cd9 993d b6ae 3ebd 0caa 0bbe
00000240: c469 1e3e cbd4 8fbd 229d 23be f632 88bc
00000250: 058d 65be 2b50 bf3d 7902 35be 47a2 d73e
00000260: b959 7a3e d1d7 593e 1b78 a0be 6a13 073e
00000270: aacc c63d 98d4 1e3e 47c0 833c 6f2d b4be
00000280: eaca abbe 6e34 b03d eb16 df3a d15a 853e
00000290: 4a09 613e 1bb0 cfbd ceae 7f3e 62d1 1a3e
000002a0: a63c 5f3e 57fb 723d b8d5 97be 84d4 9a3e
000002b0: d386 a63e 01c7 ee3d cef2 983e 9da4 64bc
000002c0: b870 3dbe a349 cc3d b69e 363c 9378 be3d
000002d0: 9b5a 243d 96a9 6a3e ee7b dc3c d320 83bd
000002e0: d22f ac3c baab 9dbd cc36 6e3d 57c0 4c3e
000002f0: c66b e93e c3db b33d 7958 2cbe 5e69 943e
00000300: 49ce 2abe dd6d 6cbd a08f eebd 6750 25be
00000310: 2034 173d 4ec4 b3bc 2a25 a3bc ebf7 1fbd
00000320: be34 7ebe 3f0d 013e ed1b 9d3d cd0f fb3c
00000330: 29c7 e63d 8a98 9c3d 2801 893d c221 77be
00000340: f967 603e 6cf1 783e e121 55be 83fe 7fbe
00000350: 8531 98be 6e01 bcbc a456 9b3e fc0b e9bc
00000360: 9247 d53d 2557 5fbe 991e acbe 167e bebd
00000370: 03a6 2d3e 0bd4 66be 534a a83d 2dc5 00bd
00000380: 6b80 6a3e 554b 91be a598 10bc 30c4 91bc
00000390: b7c3 9e3e f409 13bd 3d3d 77be 0ee2 223e
000003a0: 7776 d5be 59cc b0bd 9c89 393e e4ad 1c3d
000003b0: 2017 883e 3469 9dbd 6e6c f5bd 0ef5 6e3e
000003c0: 1f58 9cbe 98ec 69bd d548 883e e601 04bd
000003d0: c2eb 2dbe f82e ccbd 7023 c8bc ebef bc3d
000003e0: cd2a 873e ab37 313e 95c4 f63d aad7 4bbd
000003f0: 8f00 37bd 5185 23bd d8a1 06be 1977 c23e
0.12952875 -0.055698797 -0.30688822 0.035647668 0.31525457 -0.415817 -0.20544858 0.112197585
0.21393195 0.012457885 -0.030945593 -0.17252773 -0.13179485 -0.014246539 -0.25591272 0.12224312
0.2726628 -0.21738043 -0.10863187 -0.1828981 0.13263546 0.28298438 0.13463046 0.15963908
0.07234825 -0.2863173 -0.21486786 -0.21857975 -0.13907254 0.26202238 0.16486372 0.2113623
-0.28701633 -0.10080625 0.0011944406 -0.15499257 0.2222515 -0.3964745 -0.03395524 -0.17356259
-0.38091028 0.025413867 -0.19637519 -0.21307388 -0.1344499 0.19250204 0.009146189 -0.09729153
0.19482486 0.22456868 0.04804995 0.10489882 0.15108679 0.346273 -0.09518609 -0.08836099
0.15956324 0.15053126 -0.051573392 -0.10929218 0.016154021 0.061985042 0.10883847 0.061651796
0.08344904 0.22788124 -0.2017388 0.37616122 0.19361772 -0.31935656 0.03230711 -0.10573517
0.17919269 0.21460778 0.08722012 0.377149 0.04233468 -0.14485945 0.23231906 -0.18459563
0.34724325 -0.26804343 0.18477988 -0.23793776 0.17447416 0.027256988 0.025065236 0.23258495
-0.176246 -0.17179513 -0.025164198 0.14065443 0.023765353 -0.33853483 -0.20771194 -0.0016661005
-0.20335136 -0.14744993 -0.3207323 -0.30474988 0.1424279 0.14980124 0.19994451 0.21486227
-0.0037322668 0.10021915 0.32005426 0.011804659 -0.026699979 0.23703793 -0.2432825 -0.122094184
0.23389608 0.014625328 0.3148462 0.42437547 -0.04854756 -0.08132403 -0.28872055 -0.21532363
0.040320884 -0.10226672 -0.058699846 0.14254919 0.13023578 0.32406697 -0.24434242 0.11964872
0.028184252 0.11521853 0.1341026 -0.03500257 0.19331488 -0.081201814 0.18017688 -0.126448
0.29182717 0.14211163 -0.12063897 -0.028324697 -0.07466869 0.075121015 -0.046553336 -0.13639086
0.15470034 -0.07023009 -0.1597791 -0.016625863 -0.22417076 0.09341463 -0.17676724 0.42115995
0.24448289 0.21273734 -0.31341633 0.13191 0.09707005 0.15510786 0.016082896 -0.35190913
-0.3355325 0.0860375 0.001702038 0.2604585 0.219762 -0.10141011 0.24969026 0.15118936
0.2180048 0.059321728 -0.29655242 0.30240262 0.32524738 0.11659051 0.29872745 -0.0139552625
-0.1850003 0.099749826 0.011146238 0.093003415 0.04012547 0.22916254 0.026914563 -0.06402745
0.021018896 -0.0769877 0.058157727 0.19995247 0.45590037 0.087821506 -0.16830625 0.2898664
-0.16680254 -0.05772196 -0.11648488 -0.16143952 0.036914945 -0.021944191 -0.019915182 -0.039054792
-0.24824807 0.12602709 0.07671342 0.030647183 0.112684555 0.07646282 0.06689674 -0.24133971
0.21914662 0.24310845 -0.20813705 -0.24999432 -0.2972528 -0.0229499 0.3033954 -0.028448097
0.104140416 -0.21810587 -0.33617094 -0.09301393 0.1695786 -0.22541825 0.08217301 -0.03143804
0.2290055 -0.28377786 -0.008825456 -0.017793745 0.31008694 -0.035898164 -0.24144454 0.15906546
-0.41691944 -0.08632726 0.181189 0.038251773 0.26580143 -0.076860815 -0.11983572 0.23335668
-0.3053598 -0.0571104 0.26618066 -0.032228373 -0.16984466 -0.09969896 -0.02443096 0.09225448
0.26399842 0.17306392 0.12049214 -0.04976622 -0.044678267 -0.039922062 -0.13147676 0.3798149

actor_net.2.bias f4 [64]
00000000: ffb9 47bd 91cd 0dbd e100 32bd 0b1b 98bd
00000010: df2a 1fbc 1b9e cabc b664 5b3d 4f0b 31bd
00000020: 385e 34bd 574d 1d3d 9035 783d 9862 5cbd
00000030: 00a2 f33c 8e44 3cbd 140a 4bbd 667c 0bbd
00000040: c726 af3d ffbb b6bb eb00 28bd 4c10 533d
00000050: d26f 3dbd a8de eb3b 7d22 903d 4acb 0cbd
00000060: 859d 603d 0173 973c 532c 0f3d 3a5e 253d
00000070: cc95 9ebd e973 103d 8f8d 5cbc 7185 193d
00000080: c54b 483d 27c5 6a3d 84a1 64bd 42f7 37bd
00000090: 16f2 88bc 6846 2e3d 853a 37bd 640b 02bd
000000a0: f694 1bbd ef45 6d3c 3e94 e23c 36b6 30bd
000000b0: eaf8 9cbd 18b1 0f3d b8a8 7dbd 417f abbd
000000c0: 3cb3 80bd 699e 313d e01f 153d 356a cc3c
000000d0: 2231 3dbd 0084 51bd f03b 883d d1b4 4dbd
000000e0: 6d45 81bd ece1 33bd d1a9 833c 01b1 533d
000000f0: c68a 28bd 4227 6cbd a528 7e3d 4825 0fbd
-0.048761364 -0.03461987 -0.04345787 -0.07427033 -0.009714811 -0.024733594 0.053562842 -0.043223675
-0.044035167 0.038403835 0.060597956 -0.053804964 0.029740334 -0.045963816 -0.049570158 -0.034054182
0.08552318 -0.00557661 -0.0410165 0.051529214 -0.04624922 0.0071981736 0.07037828 -0.03437356
0.054837722 0.018487455 0.03495438 0.040373065 -0.07743415 0.03526679 -0.013461485 0.037480775
0.048900384 0.057316925 -0.055818096 -0.044913538 -0.016716998 0.042547613 -0.044733543 -0.031749144
-0.037983857 0.0144820055 0.027658578 -0.04314252 -0.07664664 0.035081 -0.06192848 -0.08373881
-0.06284186 0.043363962 0.03640735 0.024952987 -0.046189435 -0.051151276 0.06652057 -0.050221268
-0.0631207 -0.043916628 0.016072186 0.051682476 -0.04114797 -0.057654627 0.06205048 -0.034947664

actor_mean.weight f4 [1, 64]
00000000: bd4e 103d e76d 693d 74ad 3a3d e438 d73c
00000010: fd17 ddbc 4ab6 153d 5e4b f6bc 26ef 673d
00000020: 9f97 183d 7716 31bd 4bf9 ddbc eec7 033d
00000030: c7fb d2bc a007 0a3d acc3 383c ff5c 363d
00000040: ef4e f9bc 455d bf3d 5590 0a3d 9dbf 0bbd
00000050: 739d a43c 7b10 38bd 1586 a8bc 743d 8d3d
00000060: 9234 04bd d13a 3bbd 0e1f 98bd b94a 88bd
00000070: 4f41 933c afcd 7dbd c439 3f3d c68d 5fbd
00000080: 82d0 eebc 5730 46bc 1e3d 393d 8b2e 653d
00000090: ca03 123e 8dc3 42bc a530 ec3c 56e7 663d
000000a0: 4d6b 2e3d 7289 df3c cb2b a9bd 0f3e 2f3d
000000b0: 5657 e03c cf69 25bd 155e d33c 5a99 ca3c
000000c0: 0606 ea3c 4bf5 5dbd aa4a b23b a63a 26bc
000000d0: af60 723d 091a e33c 1644 e2bc 5bb2 a73c
000000e0: 8f63 a93c 4450 253d eb1d 8fbd 12c1 02bd
000000f0: 56f8 343d 4ac4 833c 7d93 ccbc 7003 613d
0.03523134 0.056989577 0.045575574 0.026272245 -0.026988978 0.036550798 -0.030065235 0.056624554
0.037253972 -0.043234315 -0.027096411 0.03217309 -0.025754822 0.033698678 0.011277121 0.04452228
-0.030433146 0.093439616 0.033829052 -0.034118284 0.020094609 -0.044937592 -0.020571748 0.06896487
-0.032276697 -0.04571039 -0.07427798 -0.06654877 0.017975478 -0.061963733 0.04668595 -0.054578565
-0.029152159 -0.012096486 0.0452243 0.05595259 0.14259258 -0.011887443 0.02883179 0.056372963
0.0425828 0.027287219 -0.08260306 0.042783793 0.027385395 -0.04038411 0.025801698 0.024731327
0.028567325 -0.054189008 0.0054410296 -0.010145819 0.059174236 0.027722375 -0.027620357 0.020470789
0.020677356 0.04035975 -0.06988128 -0.031922407 0.044182144 0.016084809 -0.024972672 0.05493492

critic_net.0.weight f4 [64, 8]
00000000: 8b7a d33d 8495 63bc a9aa a6bd 3510 c5bd
00000010: 6164 923e 5dda 0e3e 06e8 033e d5be d4bd
00000020: 0dc3 75bd 0971 d6be c14d 9d3d cb61 1a3e
00000030: 3db6 c1be 25d3 21be 5c9b af3c e904 04bf
00000040: df66 a33d c5ab b6bd 9c8b a43e 5372 863d
00000050: fada 83bd 7755 ce3c 7020 2bbe 0706 293e
00000060: 1c45 cf3d cb49 c13d 6e80 893e 7494 d4bd
00000070: 3d32 b8be 0858 a03e 5028 6e3e 4b99 a6be
00000080: 7998 4a3d 9bb3 203d 3e5a e8bd 18d2 e0bd
00000090: c1b4 1a3e 6ae7 4ebd 1fb2 383e 710e 993e
000000a0: 8430 9b3e c76e 613d 101e 33bd 3e0f 0cbe
000000b0: c476 17bf c3e6 3dbd 1fb8 34be 96aa ddbd
000000c0: 0bfd 62bd 4db1 863c 3151 2b3d 073a ae3d
000000d0: b26d aa3e 17b5 2dbe c87c 8e3c e0ec 0fbe
000000e0: b3c9 e53d 8855 f2bd a83a ff3c 549f a6be
000000f0: dde4 66be 2424 80bc 861f 833d e15f 84bd
00000100: 1b73 813e f096 9b3c 5e78 83bc af63 e83d
00000110: 5829 89be 5f61 ee3d 16f7 ac3e 8a22 b33e
00000120: a0fb 23bd 5d7d ab3e a21b c1bd 8117 febc
00000130: 107b 7fbe c0f1 8e3e c987 94be eef4 1d3d
00000140: fc28 423d a5e9 99be 2795 19be 02a7 90be
00000150: e2ed fabe 8bb8 9dbc 75ab 71be 5c8f debd
00000160: 1fbd 1bbe 7bbc 82bd 5143 bfbe 987d 5abe
00000170: 717d d93e 5eac d23d defe 103e b14b ad3d
00000180: 97ad 753d d04e 4c3e 9dd7 dcbd 4fba dd3c
00000190: 7c07 e4be 6e03 c33d f149 743b 521c be3d
000001a0: 16f2 1fbd 8195 2a3e 2c0a 693e 15a6 f7bc
000001b0: d8ea 85be 4c8a 05bd e948 683e e8b5 0a3d
000001c0: 0cae 7c3d 5af6 9f3d cd77 82bc 5049 a53e
000001d0: 6124 62be e23f 033e 908a 3cbe 3444 3cbd
000001e0: 921f a13d 76cf 133e 0b6d 2fbd 9708 adbe
000001f0: 7e60 9fbe e26b 493d 7280 dd3c e9a0 44be
00000200: 941e 6b3e 7161 cebe 3351 f8bd 448a 693c
00000210: 7266 0e3f 4b29 cebc 9e82 d33d 6221 2abd
00000220: 2b2b 34bc ca64 cbbe e353 8cbe 59aa 033e
00000230: b048 033f 2905 23be c5ba e73c 9d02 d2bc
00000240: 83f8 a1bd 622d b9bd 6c20 9abb 678a 273d
00000250: 2592 15bf 82d5 64be 96bc 9e3d 8c80 65bc
00000260: aab9 113e 80ba 38be 8635 a2be 1acd a53d
00000270: ee0c 703d 2a89 cbbc 96fb ecbd c2d5 5cbd
00000280: 7450 6bbe d842 16be 0b3c 01bc 0c22 b7be
00000290: e56d 04bf 499f 6a3b e5a6 ae3c 66c6 9d3d
000002a0: de83 b5be f8ee 883e ca50 eebc 1590 8a3d
000002b0: 48df 013f 5bcf 9cbe ebe2 6fbd df84 ba3d
000002c0: 3de5 6cbe 1d67 5ebc 5669 aebe 9590 66bd
000002d0: 0fe0 923e 6d61 e0bd bd73 bbbb 586d 993e
000002e0: 76cc 4a3e b3ad 89be f411 8b3e 0448 afbe
000002f0: 53c8 a13e bbe1 8cbe 359a 91be 2d07 42be
00000300: b2fc ddbd d142 753d 6154 5fbe 5068 c43d
00000310: 2297 c23e 1b2b b83d 583a 813d 59dd 49be
00000320: 3793 0c3e 62a7 383e 3554 273e 63b0 a3bc
00000330: 2fa8 be3e c3dc 3abe 0b1f 0bbf 5111 f2bd
00000340: 3ea3 853e 0d1f fcbd 82b4 c03d 937d 4b3e
00000350: e904 ad3e 5c2b e93d efb0 b6bc 9241 18be
00000360: 3287 053e 330b 993e 5c01 783e 395e 92bd
00000370: 0293 cdbe 69d2 353d 6df2 a5be 14d4 e13d
00000380: 1777 a8be 77e5 0a3e a2b1 623e a0f3 303e
00000390: 1122 93be 3dbf 8e3d 811e db3e 9010 9bbe
000003a0: 6ce6 683e 0a5e f4bd 392f 873d d288 3e3e
000003b0: e968 52be 92d2 ef3d d21a 06be 1a34 143e
000003c0: da10 dabb e852 113e bf86 1cbe 2e49 24be
000003d0: 9cd7 173f c306 0bbd e50e 3cbe 4988 34be
000003e0: 18eb 9dbd 7425 6a3e bcbb 713d 3f5b 7bbe
000003f0: 446f 4e3e 9d5f 32bd 299b 6a3e 4176 f3bd
0.103261076 -0.013890628 -0.081380196 -0.09622232 0.28592208 0.13950486 0.12881479 -0.10387961
-0.060000468 -0.41883114 0.07680846 0.15076368 -0.3783435 -0.15803201 0.021436386 -0.5156999
0.079786055 -0.08919481 0.32137764 0.06564774 -0.06438251 0.025187237 -0.16711593 0.16506205
0.101206034 0.09437903 0.26855797 -0.10379878 -0.3597583 0.31317163 0.23257565 -0.32538828
0.049461816 0.039233785 -0.11345337 -0.10977572 0.15108015 -0.050513662 0.18036698 0.2989383
0.30310452 0.055037286 -0.04372984 -0.1367769 -0.59165597 -0.04636265 -0.17648362 -0.10823552
-0.0554171 0.016441965 0.041825477 0.085071616 0.33286816 -0.16963612 0.017393485 -0.14055204
0.11220112 -0.1183272 0.0311559 -0.32543433 -0.22548242 -0.015642233 0.06402497 -0.064636
0.2528313 0.018992871 -0.016048606 0.11347138 -0.26789355 0.11639666 0.33782262 0.3498729
-0.04003489 0.33494082 -0.09429099 -0.031017067 -0.24949288 0.27918816 -0.29009846 0.03856366
0.047402367 -0.3006107 -0.14998303 -0.28252417 -0.49009615 -0.019253036 -0.23600562 -0.108671874
-0.15208863 -0.06383606 -0.37356046 -0.21336973 0.42478517 0.10286783 0.14159724 0.084617026
0.05998 0.1995194 -0.107833125 0.027066378 -0.4453696 0.095221385 0.0037275518 0.092827454
-0.03904923 0.16658594 0.22757787 -0.030230561 -0.26155734 -0.032602593 0.22684063 0.033864886
0.06168942 0.0781066 -0.015926266 0.32282495 -0.2208419 0.12817338 -0.18412232 -0.04596348
0.0786735 0.14434609 -0.0428286 -0.33795616 -0.31128305 0.04917515 0.027038787 -0.19202007
0.22960883 -0.40308717 -0.121248625 0.0142541565 0.5562507 -0.025166174 0.103276476 -0.041535743
-0.01099662 -0.39725333 -0.2740775 0.12857951 0.5128279 -0.15919937 0.0282873 -0.025636012
-0.07908728 -0.09041859 -0.004703572 0.040903475 -0.58426124 -0.22347072 0.07750814 -0.014007699
0.14230981 -0.18039894 -0.3168146 0.08095761 0.05860608 -0.024845678 -0.11571424 -0.053914793
-0.22979909 -0.14673936 -0.0078878505 -0.35768163 -0.51730186 0.0035800508 0.021319816 0.07703857
-0.3545217 0.2674482 -0.029091258 0.06765763 0.50731325 -0.3062695 -0.058566015 0.091073744
-0.23134322 -0.013574389 -0.3406474 -0.056290228 0.28686568 -0.109560825 -0.005720584 0.29966235
0.19804558 -0.26890334 0.27162135 -0.3423463 0.31598148 -0.2751597 -0.28437963 -0.1894805
-0.108392134 0.059878174 -0.21809532 0.095902085 0.3800593 0.08992597 0.06309956 -0.19713344
0.13728033 0.18032601 0.16340716 -0.019981569 0.3723769 -0.18248276 -0.5434424 -0.11819709
0.26101106 -0.1231061 0.09409429 0.19872122 0.3379281 0.11385223 -0.022301165 -0.14868763
0.13039854 0.29891357 0.24219269 -0.07146878 -0.4015122 0.044390116 -0.3241152 0.11026779
-0.32903358 0.13564096 0.22138074 0.17280436 -0.28736928 0.069700696 0.4279671 -0.30286074
0.22744149 -0.11931999 0.06600804 0.1860688 -0.20547833 0.11710085 -0.13096169 0.14473
-0.006654841 0.14191782 -0.15285777 -0.16043541 0.5931337 -0.033941995 -0.18365057 -0.17630114
-0.07710856 0.2286585 0.059016928 -0.24546526 0.20159632 -0.043548215 0.22910751 -0.118877895

critic_net.0.bias f4 [64]
00000000: e6f0 103d 80ab 77bd a72b 2d3d 0fc1 a5bd
00000010: 0598 333d 2263 8fbd c870 673d 18bd 47bd
00000020: 12e6 c8bd 5c92 953d dbe2 afbd 3b6b 093c
00000030: d1e5 81bd 85e5 70bd e257 313d 4773 68bd
00000040: 0cd4 673d 7dbc 8a3d 0dad 8fbd 18f2 583d
00000050: 95ef 81bd daf3 f53c 921f 6e3d 33a9 533d
00000060: efcb 5a3d 1663 e73d 26c8 2f3d 9ffd 333a
00000070: 262e c7bc 705a 65bd 3ed2 983d 3b0c f938
00000080: f8e0 5dbd e0db 9ebd b809 abbd be3b 0ebd
00000090: 32e5 88bc 78a6 25bc a7b8 93bd a027 863d
000000a0: f398 6ebd 8ddd 1a3c f573 48bd 7eeb 893d
000000b0: 8c6d 973d b013 7bbd 04cf d03c 4f28 61bd
000000c0: cf24 663d 3b2a a53d e88e 7dbd c041 123d
000000d0: 098a 63bd 5e38 a63b 9d8f 9c3d 1eed 5f3d
000000e0: 8769 953d 52dd 6e3d 3107 46bc 14ac 9e3d
000000f0: 48b0 86bd 3ded f83c e6e2 50bd 229d 2a3d
0.03538599 -0.06046629 0.04227796 -0.08093464 0.04384615 -0.0700133 0.05650404 -0.04876432
-0.098095074 0.073033065 -0.08588191 0.008387382 -0.06342662 -0.058812637 0.043296702 -0.056750562
0.056598708 0.067742325 -0.07015429 0.052965254 -0.06344525 0.030023504 0.058135577 0.051675033
0.053417142 0.11298196 0.042915486 0.00068661006 -0.024313997 -0.05599445 0.074619755 0.00011875523
-0.054169625 -0.077567816 -0.08351463 -0.034724943 -0.016710851 -0.01011049 -0.07212954 0.065505266
-0.058251332 0.009452236 -0.04893871 0.0673437 0.07393941 -0.061298072 0.025489338 -0.054970082
0.056187447 0.080646954 -0.061903864 0.035707235 -0.055551562 0.0050726375 0.076445796 0.054669492
0.07295518 0.058316536 -0.0120866755 0.07747665 -0.06576592 0.030386562 -0.050997637 0.04165376

critic_net.2.weight f4 [64, 64]
00000000: 5917 a03d e9c3 90bc e4d5 fbbd aaa3 ceb8
00000010: 9e7d 983e 4114 b73d 735c 7dbd 0748 3e3c
00000020: 0dae 4d3e 0b05 40be a6f9 d8bc a6bc c93c
00000030: a23b 44bd 59ce 17bd 1152 59be 7e2c a03e
00000040: 3d3b e7be 739b 523d ef58 1fbb 6ecc adbc
00000050: fd32 2fbe 3f4c e7bd d096 433c 83e2 473e
00000060: c572 313d 827f ba3d 272a 90bd 2353 e43b
00000070: 9e15 c73b b11c a93d 398b 4dbd 2dd4 d23e
00000080: 40dc 043e e3ce f03e f294 073c 2625 173e
00000090: 291e 16be f6aa 293e 491d 8a3e 6c42 fdbd
000000a0: 1a97 4b3e 7629 1a3e 5038 ab3e 4f5b 2f3e
000000b0: 2727 633e 542d 673d 977e 1dbe f102 493e
000000c0: c56e 70bb 4f35 063e d319 343e 8654 aebc
000000d0: bdda c03e 7862 95bd fdf0 debe 4d9b 4d3d
000000e0: 215a ddbe 126f 69be 1625 013e 6413 c0be
000000f0: 54b4 8c3e 34ab e43e 8227 aa3d 21e3 a3bd
00000100: ff03 e5bd f648 d83e 8c35 5a3b 3246 37be
00000110: 792e e4bc d58a f63d 3027 f8be 1bc4 b9bd
00000120: 65d1 3dbd 9a20 b0bd 3c9f a83e 7acd 673e
00000130: 3cdb 84bd 99dc 44bd e651 55bd 46a5 b93d
00000140: 3324 10be 5efd bdbd 20e9 ffbd 95f5 ab3e
00000150: 14e9 12bd 28d9 53be 4858 8cbe fb39 e9bc
00000160: 7557 643e ccc1 613e 8dc0 9bbe 2428 053e
00000170: cbf3 23be fbe2 333e 536c 2abe ed44 213d
00000180: 8763 c9bc b47c ea3d e40c b7bd fcdf 593d
00000190: 892f 1fbe 7904 503d ed6f 3fbc 817a a63d
000001a0: 1920 43be ea8c b1bd 1579 193e 53b7 efbe
000001b0: 910d 273e c28d 8d3e 0561 07be 3ab3 1f3d
000001c0: 9452 4ebd 3eef 49be 8f8f 1a3e 65f9 8f3e
000001d0: 60f4 54be f532 3ebd 9467 99be 7f0c 88bd
000001e0: 41df dbbd 07ef c23d 17ea b5bd 2b99 64be
000001f0: e3d3 f73d d6bf 95be 89b8 22be 5a5c 79bd
00000200: ba73 823e edce acbe e8f3 2b3e bf42 6cbc
00000210: 8592 74bd 62c7 bfbc e514 b6bd a62b 1abd
00000220: 420b 2f3d 46bb 893e 3481 28be 0fd9 ba3d
00000230: b621 893e 04b6 86be 8c38 97be 07b9 cfbd
00000240: 199e 263e fd8e 30be d1cd 10be 3dc6 a53e
00000250: 11f5 9b3d 56fc 0a3e ecf7 353e 78c4 2a3e
00000260: 25f9 f03d c9bc 5dbc 19b4 293d d3cb 7f3d
00000270: 8285 303e 668b c73c 1e52 6dbe c724 593e
00000280: 0e33 01be 07b1 31be c5a1 483e 7025 e83d
00000290: 6f7d b6bd 3ce2 e7b7 f228 593d 8e5d 953e
000002a0: 2cb8 f5bb b2bc 653e a5bd cc3c 78cd 423e
000002b0: b742 b93c 6a14 69bd 6ab5 bbbe 7294 73be
000002c0: b08f d13d b47f 46bd 7022 8b3c 7c23 063e
000002d0: 2134 5dbe 4d77 3cbe 70ff 563e 0b93 e33c
000002e0: bb2b 7b3d edd2 e7be edbc 103e c584 b93e
000002f0: e8e2 033e db64 8ebe 5ddd 01be 9703 8f3e
00000300: 044a d33d 8eaa b9be 62c0 20bf 77e7 afbe
00000310: c836 303e 6bcb 13be fc31 083b e49b ab3e
00000320: 4c7e c7bd 5720 0b3d b3a3 043e d9d8 2f3e
00000330: a31e 70bd 2ea9 4abe 4644 5dbe e75b 10be
00000340: 4966 af3e 4904 df3d f0ee 25be 017b be3d
00000350: b729 fa3b ed56 4b3d f0d1 74bd 553a b53c
00000360: 28eb 2b3e f47a abbe 128c 9b3d 7239 6cbe
00000370: 0061 a4bd e584 50be 2faf 3fbd 884b 583d
00000380: 162a 1a3e 9c29 febe 09a2 dbbd 38c3 0dbd
00000390: 2cd5 ebbd 45d7 773d af2a a8bd d709 8c3e
000003a0: 24f6 6e3e ef17 17be 029c 093e a585 9cbd
000003b0: 3ca2 a6bd baae 11be 6a2e b23d ad90 c83d
000003c0: c01f 02be 59cc 25be 7800 a3bd beaf 383e
000003d0: 2e14 8abd aef9 a9bd 342a 413e 93f8 c33d
000003e0: 27d1 fdbc 0cbb 573e 8689 a2bd 59ce b7bd
000003f0: 5be7 78be ae10 753e 1eaa c1bd 6d2f 923e
0.07816953 -0.017671542 -0.12296656 -9.85333e-05 0.29783338 0.0893941 -0.061855745 0.011613852
0.20085926 -0.18751924 -0.02648623 0.024626087 -0.047908433 -0.037062023 -0.21222712 0.31283945
-0.45162383 0.05141778 -0.0024314483 -0.021215644 -0.17109294 -0.1129384 0.011937812 0.19520001
0.043322343 0.091063514 -0.0703929 0.0069679185 0.006075575 0.082574256 -0.0501816 0.41177502
0.12974644 0.47032842 0.008275257 0.14760265 -0.14659943 0.16569123 0.26975468 -0.123661846
0.1988186 0.15054879 0.334414 0.17124675 0.22182904 0.056439713 -0.15380321 0.19630028
-0.0036687118 0.13106273 0.17587976 -0.021280538 0.37666884 -0.07294172 -0.43543234 0.050196934
-0.43232825 -0.22796276 0.12611803 -0.37514794 0.2748133 0.44661868 0.08308317 -0.08002306
-0.11182403 0.42243165 0.0033296077 -0.17897871 -0.027854191 0.12038199 -0.48467398 -0.09070607
-0.046342272 -0.08599968 0.32933986 0.22636977 -0.06487128 -0.04806194 -0.052080058 0.090647265
-0.14076309 -0.092768416 -0.12495637 0.33585802 -0.035866812 -0.20688307 -0.27411103 -0.02847003
0.22298987 0.22046584 -0.30420342 0.13003594 -0.16010968 0.17567055 -0.16642885 0.039372373
-0.024583591 0.114495665 -0.089380056 0.053192124 -0.15545477 0.050785515 -0.0116844 0.081288345
-0.19055213 -0.08669455 0.14987595 -0.46819553 0.16313769 0.27647215 -0.13220604 0.038989283
-0.05037172 -0.1972017 0.15093826 0.2811996 -0.20796347 -0.046435315 -0.29961836 -0.066430084
-0.10735942 0.09518247 -0.0888254 -0.22324054 0.12100961 -0.29247922 -0.15890707 -0.06087909
0.25478917 -0.33751622 0.16792262 -0.01442021 -0.059710044 -0.023410503 -0.08890704 -0.037639283
0.042735346 0.2690069 -0.16455537 0.09123432 0.26783532 -0.26310742 -0.2953533 -0.10142713
0.16271247 -0.17242046 -0.14141013 0.32377806 0.07615102 0.13572821 0.17770356 0.1667651
0.117662705 -0.013533779 0.04143152 0.06245024 0.17238429 0.024358463 -0.23175856 0.21205436
-0.12617132 -0.17352687 0.1959296 0.11335266 -0.08910643 -2.7642694e-05 0.053017564 0.2917294
-0.0074987616 0.22435263 0.024992773 0.19023693 0.02261482 -0.056904234 -0.36661845 -0.23787096
0.10232484 -0.04846163 0.016984195 0.13099474 -0.21601917 -0.18404885 0.20995879 0.027780076
0.061321 -0.4527811 0.1413457 0.36234108 0.12879527 -0.27811322 -0.126821 0.27932426
0.10316852 -0.36262935 -0.6279355 -0.3435628 0.17208397 -0.14433067 0.0020781746 0.33517373
-0.09740886 0.03396639 0.12953071 0.17172565 -0.058622967 -0.197911 -0.21608075 -0.14097558
0.34257725 0.10889489 -0.16204429 0.09300805 0.0076343673 0.049643446 -0.059770525 0.022122541
0.16788924 -0.33492243 0.07595076 -0.23068789 -0.08026314 -0.20363195 -0.046797927 0.052806407
0.15055117 -0.4964112 -0.10724265 -0.034610003 -0.11515269 0.06050803 -0.08211266 0.27351257
0.23336083 -0.14755224 0.13438419 -0.07642678 -0.081364125 -0.14226809 0.08700259 0.0979322
-0.12707424 -0.16191234 -0.07959074 0.1803579 -0.0674213 -0.08299576 0.18863755 0.09568896
-0.03098352 0.21067446 -0.07936387 -0.089749046 -0.24307005 0.23932144 -0.094562754 0.28551808

critic_net.2.bias f4 [64]
00000000: 39b4 6abd 3de5 3bbd c1f5 1e3d 2356 db3c
00000010: 3103 333d e6e2 69bc 007e 273d 30ab 89bd
00000020: 45fa 46bd d8d1 743d 5b8c 45bd 52cb 05bd
00000030: 32df 22bd 5a47 52bd 8fdf 10bd 6580 353d
00000040: 07f5 4f3d f83d 3d3d 7e9c 2f3d 15fd f13c
00000050: b2c5 843d 1260 52bd db7f 5e3d 9257 5c3d
00000060: 5adb 8dbd 6128 4b3d b5cc 423d d536 593d
00000070: 9a60 26bd bb72 43bd fbd9 7a3d f495 3e3d
00000080: f0d6 2abd 786a 27bd 2b1e 19bd a073 533d
00000090: 7275 03bd 22b8 1bbd e240 29bd 6831 183d
000000a0: d6bb 253d 7569 653d 18db 64bd eaa1 0dbd
000000b0: e4c0 2dbd 4ac2 0fbd 8fd0 1dbd 5f9b 10bd
000000c0: 4c63 81bd 58b6 28bd 4c55 8dbd baf8 af3c
000000d0: 02a9 44bd 2be2 3a3d e3f2 913d e09e 713d
000000e0: 0ae7 47bd 4218 653d 12f9 eebc 9c1f 0abd
000000f0: 8901 3f3d ea0c 383d e1b6 83bd 281f 203d
-0.05730078 -0.045872916 0.038808588 0.026774472 0.043704215 -0.014275288 0.040891647 -0.067221045
-0.04857852 0.059770435 -0.048229557 -0.032664604 -0.039763637 -0.051337577 -0.035369452 0.0443119
0.050770786 0.046201676 0.042873852 0.029539624 0.0648302 -0.05136115 0.05432115 0.05379445
-0.069266036 0.049599055 0.047558505 0.053030808 -0.04061947 -0.047716837 0.06124304 0.046529725
-0.041708887 -0.04087302 -0.037382286 0.05162394 -0.032094426 -0.0380174 -0.041321643 0.037156492
0.040462337 0.056008775 -0.055873007 -0.03457824 -0.042420283 -0.035097398 -0.038528975 -0.035304423
-0.063177675 -0.04118952 -0.06901035 0.021480907 -0.04801274 0.045625847 0.07126405 0.058989406
-0.04880432 0.055931337 -0.0291715 -0.03372155 0.046632323 0.04493419 -0.06431366 0.039092213

critic_head.weight f4 [1, 64]
00000000: 6196 803e 4da9 5a3d a842 04be b5d2 2fbe
00000010: ec82 2abe 01a6 e13d bcbc 39be 0111 003e
00000020: 16f2 813e 2164 9fbe d61b df3d 090e ca3d
00000030: 3cb6 7f3e 76c2 913e d8fd 863e dcc5 0bbd
00000040: 26a5 8fbe aa0f afbd 7415 32be 7b89 abbe
00000050: fddb 25be 0989 163e d7bf d8bd 3d79 13be
00000060: 4340 013e 61f8 30be fd33 b4bd 9895 d5be
00000070: 6825 d13d 0ef1 753e b472 f7bd c86f 0cbe
00000080: 7dc2 673e a585 3e3e 0b84 0b3e 18cb cfbd
00000090: 5ef5 133e 3513 883e aa49 6d3d d8ad f9bd
000000a0: 41b3 b9bd b4c3 3cbe a403 2f3e 1817 5e3e
000000b0: bb6e ca3e 4c90 8a3e fe42 163e 4549 933d
000000c0: 725c 083e 112f ed3d 7c4f 983d 4277 37be
000000d0: 8e01 2d3e 265d adbe d6ab 45be 0180 22be
000000e0: 6dfb e73e 299f 28be a0d6 803d 1527 803e
000000f0: d912 b8be a1bb 8fbe a55f a33e 0318 86be
0.2511473 0.053384114 -0.12916052 -0.17170222 -0.16651505 0.11017991 -0.18138403 0.12506486
0.2538001 -0.3113108 0.10893981 0.09865958 0.2497186 0.28468674 0.26365542 -0.03412424
-0.28055686 -0.085479096 -0.17390996 -0.33503327 -0.161972 0.14700712 -0.105834655 -0.14401717
0.1262217 -0.17282249 -0.087989785 -0.41715693 0.10212213 0.24017736 -0.12082425 -0.13714516
0.22632785 0.18605669 0.13624589 -0.10146159 0.14449069 0.26577154 0.05793158 -0.12191361
-0.09067393 -0.1843403 0.17091233 0.21688497 0.39537606 0.27063215 0.14673993 0.071917094
0.13316515 0.11581243 0.074370354 -0.17916587 0.16895124 -0.3386013 -0.19303831 -0.15869142
0.4530901 -0.16466965 0.062909365 0.25029817 -0.3595188 -0.28072837 0.31908908 -0.26190194

exp_avg f4 [64, 8]
00000000: 32dc 06ba 7595 f7b9 ec05 ddb9 7576 e8b9
00000010: bd3a ebb8 1642 18b7 013e 0d3a b54a 6339
00000020: 7c68 b039 eda9 a339 39e4 9339 ad51 4539
00000030: 7212 7b38 d586 0937 b72a a7b8 d517 afb8
00000040: ac39 ae38 1ec5 ab38 8e11 a938 4a73 2b37
00000050: f97b 1937 6606 f335 a3b7 0838 cf15 c538
00000060: d2d0 ce38 782a 9738 2a90 3038 7d66 1439
00000070: e614 5238 e560 b636 9c65 f6b9 212d c8b9
00000080: abb2 72ba 61d1 5fba 75fe 49ba c8de 43ba
00000090: 8d24 4cb9 312c c1b7 d828 523a 7213 6a39
000000a0: 4a92 8f3a ad99 833a f87a 6a3a a0f0 303a
000000b0: 4460 6939 0183 0638 f3d3 27ba 3a4d 03ba
000000c0: 8981 3b3a 8a5a 2c3a 9eb8 193a 585a a939
000000d0: d7fe 0c39 1e3c c937 be44 1fb9 9e3c 9eb9
000000e0: 963e 8139 570a 7739 d35d 6939 bf55 5639
000000f0: 21d7 3038 8714 0a36 c3ff 01b9 4f2a 9738
00000100: 020f b436 9980 3c35 753c 9fb6 a11c 9838
00000110: 0d3f 2837 0b52 a3b4 7a64 25b9 4470 94b8
00000120: 8d92 17ba d2f3 0fba 8964 06ba 039f 81b9
00000130: 3bb8 b3b8 4703 5fb7 a794 38b9 3f72 18b9
00000140: c9e1 08ba 1333 04ba 952c fcb9 813c 3db9
00000150: e7ee 81b8 f427 56b7 39ac a6b9 bf31 93b9
00000160: bb15 053a c386 eb39 40c0 c639 02cd af39
00000170: 182d 0339 4942 9e37 8ae5 03ba 65bc 05ba
00000180: f893 1cba 340e 14ba 9211 09ba f360 56b9
00000190: c907 b7b8 d384 8cb7 ebf9 7cb9 1154 5db8
000001a0: 9fbd de38 a0ba b938 84fa 8c38 4bb2 f438
000001b0: 124b 1738 266f 4236 9098 89b9 ab0d 6fb9
000001c0: e734 04ba d64b fbb9 a438 eab9 1765 33b9
000001d0: 0a85 8cb8 d149 61b7 edb2 97b9 1fea 8ab8
000001e0: da62 9839 612c 8a39 4086 7339 da50 7939
000001f0: 1a2c 9138 70c3 0937 a551 beb9 d58e 36b9
00000200: 7fcd 82ba daac 73ba b05e 5dba 041f 03ba
00000210: 2f2f 36b9 6786 e2b7 ee38 b238 4b60 3d39
00000220: 5c09 813a bda3 6e3a 2a0d 573a 12f7 093a
00000230: fe28 4139 0883 ed37 2f19 bdb9 41d3 a7b9
00000240: 6cda 993a 31a7 8a3a a5cb 703a 601e 543a
00000250: 706d 8c39 1eac 1238 87da 93ba 894f 67ba
00000260: ca55 b639 bafe b139 040f ac39 9aef 0939
00000270: 25ff 2538 592f 9a36 1168 4139 b4f8 7839
00000280: a735 eeb9 6ba5 d6b9 261b bab9 6f6d afb9
00000290: 1f24 d7b8 a586 64b7 ad5b e239 73b4 b739
000002a0: 1daf 0aba b734 00ba 0455 e6b9 8a93 6fb9
000002b0: 2fac c4b8 c7bf 7cb7 6367 3038 18a2 4839
000002c0: 7056 d839 21a2 c639 2010 b139 5cb9 3d39
000002d0: 2656 a338 bba4 6637 427f a3b8 80fb 2eb9
000002e0: 2d96 95b9 fb86 87b9 41ec 6cb9 235c 73b9
000002f0: 7dac 8ab8 1dc5 cab6 01fb b939 8dcb 4939
00000300: ab72 4a3a 5eba 383a 4b61 233a 8b81 133a
00000310: 874e 3039 1b82 b937 be7e 38ba 024c d7b9
00000320: 59af a039 d140 9439 4b58 8539 c1cc 5839
00000330: 80f3 8138 0ba4 0137 da05 68b9 a118 f1b8
00000340: 673f 073b c545 f63a 9b41 d93a a2ca af3a
00000350: 994e e539 5908 8838 a6cf c4ba 1dd9 9cba
00000360: c704 b5ba 1f00 a5ba e5fc 91ba fead 8cba
00000370: 1838 9db9 8eb6 1cb8 6350 a83a d24d 413a
00000380: 2f9c 03b9 4001 00b9 66eb f6b8 a9be 31b8
00000390: 2620 76b7 8802 17b6 6433 fab8 d33f cdb8
000003a0: 6965 3fba ab05 36ba 4639 2aba 59e5 90b9
000003b0: 9dbc d4b8 54d9 9cb7 cff9 8cb9 4df6 61b9
000003c0: af5e 3239 b87e 2539 37a6 1639 2111 dd38
000003d0: f38b 0338 4fad ee36 83fa a6b8 bf85 3fb8
000003e0: f499 f239 411d d439 05c0 b039 1d82 a039
000003f0: 0406 0139 1c65 a437 467b 2dba e835 14ba
-0.0005144506 -0.00047222865 -0.00042156817 -0.00044338746 -0.00011216614 -9.075293e-06 0.00053879624 0.00021676238
0.00033647183 0.00031216387 0.00028208064 0.0001881781 5.9860242e-05 8.197229e-06 -7.971137e-05 -8.349089e-05
8.307709e-05 8.190631e-05 8.061818e-05 1.0219237e-05 9.148375e-06 1.8106773e-06 3.259595e-05 9.397754e-05
9.861741e-05 7.2081515e-05 4.2095933e-05 0.0001415256 5.0087365e-05 5.4353027e-06 -0.0004699648 -0.00038180596
-0.0009258191 -0.0008537975 -0.00077054586 -0.00074718567 -0.00019468572 -2.3027971e-05 0.00080169505 0.00022323223
0.0010953632 0.0010040306 0.00089447154 0.0006749723 0.00022256473 3.2070096e-05 -0.00064021273 -0.0005008761
0.0007152786 0.00065747707 0.0005863997 0.00032301503 0.00013446376 2.3989061e-05 -0.0001518903 -0.00030181272
0.00024651428 0.00023559608 0.00022255564 0.00020440573 4.2162024e-05 2.057555e-06 -0.00012397677 7.208122e-05
5.366165e-06 7.022259e-07 -4.7456074e-06 7.253257e-05 1.00282605e-05 -3.042081e-07 -0.00015773057 -7.078101e-05
-0.00057820306 -0.0005491349 -0.0005126675 -0.0002472327 -8.569701e-05 -1.3292599e-05 -0.00017602985 -0.0001453841
-0.0005221633 -0.0005043011 -0.00048098402 -0.00018046984 -6.1956984e-05 -1.2764696e-05 -0.00031790303 -0.0002807509
0.00050767855 0.00044923098 0.0003790874 0.00033531344 0.00012509932 1.8865934e-05 -0.00050314574 -0.00051016203
-0.0005972977 -0.00056478684 -0.00052287534 -0.00020444747 -8.72757e-05 -1.6751152e-05 -0.00024125694 -5.27688e-05
0.000106211046 8.856249e-05 6.7223824e-05 0.00011668036 3.607112e-05 2.897295e-06 -0.00026244344 -0.00022797908
-0.00050432835 -0.00047930953 -0.0004467416 -0.00017108429 -6.700501e-05 -1.3428232e-05 -0.00028934274 -6.623961e-05
0.0002906535 0.00026354476 0.00023224298 0.0002377661 6.922353e-05 8.21134e-06 -0.00036300454 -0.00017410082
-0.0009979455 -0.0009295471 -0.00084445905 -0.0005001875 -0.0001737445 -2.7003885e-05 8.4983054e-05 0.00018060317
0.0009844708 0.00091033784 0.0008203561 0.00052629516 0.00018421185 2.8313618e-05 -0.00036067652 -0.0003201012
0.0011738068 0.0010578391 0.0009185619 0.00080916844 0.00026784418 3.496941e-05 -0.0011280336 -0.00088238023
0.00034777663 0.00033949857 0.00032817584 0.00013154597 3.9576687e-05 4.5950696e-06 0.00018444682 0.00023743772
-0.00045434872 -0.00040940507 -0.00035496912 -0.00033460135 -0.00010258727 -1.3621208e-05 0.00043174383 0.00035038925
-0.0005290376 -0.00048906676 -0.0004393236 -0.00022847779 -9.37808e-05 -1.5065022e-05 4.2057956e-05 0.00019133871
0.0004126313 0.00037886298 0.00033772085 0.00018093496 7.788492e-05 1.3747423e-05 -7.796149e-05 -0.00016687624
-0.00028531384 -0.00025849775 -0.00022594725 -0.0002320861 -6.612481e-05 -6.043016e-06 0.00035472962 0.00019244682
0.00077227753 0.0007046814 0.00062324543 0.00056269084 0.00016813922 2.2114304e-05 -0.0007037929 -0.00041064626
0.00030648222 0.00028277052 0.0002543352 0.00020675642 6.196555e-05 7.727193e-06 -0.00022127424 -0.00011496363
0.0020637156 0.0018789103 0.0016575338 0.001341183 0.00043736844 6.48654e-05 -0.0015015497 -0.001196656
-0.0013810628 -0.0012588537 -0.001113799 -0.0010733006 -0.00029987167 -3.7363316e-05 0.001284134 0.0007373962
-0.00012551316 -0.00012207497 -0.000117740405 -4.2377655e-05 -1.4670228e-05 -2.2502227e-06 -0.00011930501 -9.78705e-05
-0.0007301183 -0.00069435936 -0.000649352 -0.00027636698 -0.0001014408 -1.869785e-05 -0.00026889003 -0.00021549426
0.00017010675 0.00015782833 0.00014367035 0.00010541292 3.136317e-05 7.1131285e-06 -7.962158e-05 -4.566251e-05
0.0004627254 0.00040457587 0.00033712402 0.0003061452 0.0001230464 1.9597406e-05 -0.00066177954 -0.00056537846

exp_avg_sq f4 [64, 8]
00000000: f84c 3837 4781 3837 2ccb 3837 3382 4936
00000010: ae36 fc33 9472 0334 ccdd 2238 4990 c537
00000020: a3ca 2f36 0541 3036 7af4 3036 5b7b 7635
00000030: e703 0733 20a6 9033 9f11 bf36 6cf0 ba36
00000040: c552 3e34 a261 4034 f653 4234 9bcd 2934
00000050: 593e 6f31 67d9 7431 fb54 a234 7ece cb34
00000060: ecc1 b536 3ed3 b536 250e b636 842f d035
00000070: f550 7133 b694 4733 37ec bd37 38a2 4237
00000080: b0f2 f437 ac2d f537 849f f537 315a 1337
00000090: 1c93 a634 95cf af34 fb35 e038 1d17 8138
000000a0: 6814 3d38 a073 3d38 2938 3e38 d746 8937
000000b0: 24bc 1035 2bb4 8a35 d066 f038 5c52 cc38
000000c0: 63ad 1137 5286 1237 9227 1337 b626 6236
000000d0: b46b be33 ebf0 4534 524f a737 a12a 9937
000000e0: bb41 a135 b84f a135 1472 a135 c7f2 bc34
000000f0: fb61 8132 7f40 2032 549a 8236 9527 3036
00000100: 0a2a 8f34 90b7 8f34 b264 9034 d2f8 0734
00000110: 263b 6f31 47cb 6f31 2196 8835 d404 1835
00000120: 572a 8536 41e9 8536 3bc0 8636 e4c0 fa35
00000130: 2556 5733 beaf c533 76c1 e736 195b 0837
00000140: 2a1a 1f36 afce 1f36 4e46 2136 caf5 a435
00000150: aa9c 0833 14fa ef33 56f4 0436 08ff 9d36
00000160: 2d26 af37 b261 af37 8ce8 af37 aabd f336
00000170: 389e 8034 e00c d134 e5a0 9138 18e8 3b38
00000180: c33a 5836 30f8 5936 2b8d 5b36 5a5b d835
00000190: 1557 1f33 e2db d433 8b7e 8236 460e dd36
000001a0: 7cc5 3936 35d0 3936 553d 3a36 e1d0 6735
000001b0: b711 0433 b8d4 4233 41b1 3f37 df15 ca36
000001c0: deef fd35 7af2 ff35 4bca 0036 010c 5b35
000001d0: 1034 a832 1740 4933 c36d 5a36 01a9 8336
000001e0: 599d ce36 2fad ce36 db06 cf36 9ac2 0736
000001f0: 2f46 a033 9834 a633 b17d bf37 0d12 6137
00000200: 814e af37 2900 b037 f4de b037 3cd6 0b37
00000210: 6569 8434 7d9d 0235 53ce 3b38 fe59 3a38
00000220: 5c92 c937 db2a ca37 6414 cb37 4ac9 1837
00000230: 7429 9834 7e7b 2335 e1df 5a38 25a6 5838
00000240: 2e71 8738 8fc0 8738 bd30 8838 9f0c af37
00000250: a7f9 3935 d758 9535 cc8b 5139 2812 1139
00000260: 8f35 aa35 d244 ab35 1dc8 ac35 d9a9 3d35
00000270: ec5b af32 a779 3933 6fab c535 b3bb 3136
00000280: d3cb 0937 4b30 0a37 99c4 0a37 f58f 2a36
00000290: 1883 b633 9736 3c34 74d0 c137 1a2d 9337
000002a0: 0b41 e536 1c63 e636 aaa3 e736 97a9 3836
000002b0: 83fe a533 30fb 2734 c69b 7137 c721 7337
000002c0: efd0 9736 0e6a 9836 9f1d 9936 458d fa35
000002d0: 4638 5b33 c9da e633 f170 3037 6ec3 1f37
000002e0: d206 c436 3d5d c436 aaf3 c436 4242 0136
000002f0: d913 9233 b21b ca33 1d4e 9e37 7502 5437
00000300: 1f5b f537 ffa7 f537 d53a f637 ea7f 2637
00000310: 1059 ba34 1c0d f934 6dff c838 a521 8538
00000320: 9832 4d36 7584 4d36 473e 4e36 d69d 9135
00000330: e8cf 1c33 d006 8c33 3616 0837 393f df36
00000340: 035d 3439 3eb4 3439 b855 3539 07e7 7738
00000350: 9e02 0336 d6fc 6c36 9de8 ff39 3f82 c239
00000360: db70 a138 d6a7 a138 2219 a238 1253 be37
00000370: 6f1e 5a35 a6fd b535 930a 8639 ac46 2c39
00000380: 57b7 a934 855e aa34 ed4f ab34 abf5 5d34
00000390: 995f c531 021d df31 3168 3a35 f85c 3435
000003a0: 53e1 ee36 8c00 f036 23bd f136 9d60 5936
000003b0: bf71 bd33 841f 8134 0f69 2537 b15a 6f37
000003c0: 0509 3835 8dae 3835 7ea7 3935 ad67 c834
000003d0: 5526 4532 8a7a 6d32 3e7f f035 b1e1 d035
000003e0: 71bc c937 dde3 c937 da83 ca37 a854 1237
000003f0: 22d5 9b34 9e56 fd34 af9b a738 57cd 5a38
1.0985175e-05 1.0997354e-05 1.1014559e-05 3.002712e-06 1.17446106e-07 1.2242009e-07 3.8830374e-05 2.3551418e-05
2.6194982e-06 2.626389e-06 2.6368348e-06 9.182165e-07 3.1435686e-08 6.7357405e-08 5.694295e-06 5.5712208e-06
1.772524e-07 1.7916912e-07 1.8098203e-07 1.581415e-07 3.4814518e-09 3.5630252e-09 3.0236683e-07 3.796194e-07
5.416796e-06 5.418812e-06 5.4256693e-06 1.5511037e-06 5.6185815e-08 4.646855e-08 2.2640552e-05 1.1601071e-05
2.9200077e-05 2.9227544e-05 2.9280556e-05 8.782882e-06 3.1026946e-07 3.2747326e-07 0.00010691207 6.1555045e-05
4.5080116e-05 4.5168796e-05 4.5351833e-05 1.636466e-05 5.391796e-07 1.0334237e-06 0.00011463242 9.742819e-05
8.683043e-06 8.733552e-06 8.771096e-06 3.3699157e-06 8.8671555e-08 1.84347e-07 1.9944888e-05 1.8258872e-05
1.2014565e-06 1.2018636e-06 1.2028636e-06 3.5194373e-07 1.5062133e-08 9.3278905e-09 3.892268e-06 2.6249083e-06
2.6666413e-07 2.6769385e-07 2.6895356e-07 1.2663375e-07 3.48127e-09 3.4894627e-09 1.0176483e-06 5.663144e-07
3.968638e-06 3.990863e-06 4.0158898e-06 1.868259e-06 5.0136936e-08 9.205495e-08 6.9068583e-06 8.127442e-06
2.3708076e-06 2.3813152e-06 2.4031792e-06 1.2290486e-06 3.1807453e-08 1.1174794e-07 1.9811755e-06 4.708654e-06
2.0879403e-05 2.0907119e-05 2.0969914e-05 7.264044e-06 2.3956977e-07 3.893865e-07 6.944108e-05 4.480043e-05
3.2220712e-06 3.2479984e-06 3.2715714e-06 1.6119841e-06 3.7099273e-08 9.912016e-08 3.8890335e-06 6.587975e-06
2.76821e-06 2.768834e-06 2.775186e-06 8.6358165e-07 3.0749757e-08 4.536261e-08 1.1425757e-05 6.0226153e-06
1.891978e-06 1.906955e-06 1.9191236e-06 8.1601326e-07 1.958145e-08 4.685725e-08 3.254842e-06 3.923779e-06
6.157596e-06 6.1594396e-06 6.169879e-06 2.022984e-06 7.463347e-08 7.739544e-08 2.2827504e-05 1.3415248e-05
2.0898182e-05 2.098091e-05 2.1084656e-05 8.334926e-06 2.46636e-07 4.865795e-07 4.477643e-05 4.4429667e-05
2.4029221e-05 2.4100233e-05 2.420898e-05 9.106772e-06 2.8342367e-07 6.0901937e-07 5.2183754e-05 5.1653147e-05
6.458383e-05 6.4731685e-05 6.4940636e-05 2.0867503e-05 6.928116e-07 1.1127221e-06 0.00019983872 0.00013835041
1.2681575e-06 1.2760522e-06 1.2873239e-06 7.065515e-07 2.0414483e-08 4.318431e-08 1.4727538e-06 2.648431e-06
8.213293e-06 8.236685e-06 8.271215e-06 2.5415768e-06 8.498881e-08 1.7528724e-07 2.3104461e-05 1.7544768e-05
6.832304e-06 6.866072e-06 6.9033895e-06 2.751685e-06 7.729707e-08 1.5644468e-07 1.4400988e-05 1.4491793e-05
4.5244738e-06 4.5422994e-06 4.5632037e-06 1.8667566e-06 5.104109e-08 1.07500064e-07 1.0516714e-05 9.5226405e-06
5.842049e-06 5.8521096e-06 5.8696214e-06 1.9261065e-06 6.802265e-08 9.411396e-08 1.8871442e-05 1.2636757e-05
2.9248708e-05 2.9284505e-05 2.9352881e-05 9.924153e-06 3.471e-07 4.6389403e-07 9.58432e-05 6.348201e-05
3.057683e-06 3.062448e-06 3.0732642e-06 1.0849278e-06 3.651067e-08 6.520497e-08 8.111403e-06 6.653278e-06
0.00017200787 0.00017233283 0.00017293438 5.910455e-05 1.9522045e-06 3.531391e-06 0.000488107 0.00037099604
7.698099e-05 7.70834e-05 7.729443e-05 2.2688448e-05 8.1255615e-07 1.3559372e-06 0.0002556635 0.00016429526
3.16121e-07 3.173374e-07 3.1909386e-07 2.0671602e-07 5.744323e-09 6.493452e-09 6.944202e-07 6.719051e-07
7.119184e-06 7.152621e-06 7.204378e-06 3.2391756e-06 8.8216886e-08 2.4051053e-07 9.859227e-06 1.4266626e-05
6.8558467e-07 6.8799346e-07 6.9161604e-07 3.7328337e-07 1.1475625e-08 1.3823078e-08 1.7918426e-06 1.5562892e-06
2.4048817e-05 2.4067174e-05 2.4141675e-05 8.721989e-06 2.9026074e-07 4.7187945e-07 7.992179e-05 5.2166488e-05

exp_avg f4 [64]
00000000: dcdd bcba c3da 643a 7125 3339 3ca2 f739
00000010: 00f5 26bb 5b49 433b f53a f83a ca2f 1e3a
00000020: 363e 9938 16fa b3ba 86f7 94ba 151d ca3a
00000030: 9419 b9ba ba5b ca39 222f 98ba d152 5d3a
00000040: 6476 26bb 3d13 293b acb1 5e3b 00fd 403a
00000050: 5d84 abba bfbe b3ba 65f8 8f3a 9626 59ba
00000060: 52d2 0d3b f9f7 573a 2f4c bc3b c993 7ebb
00000070: 80db 8eb9 3693 dfba c414 e639 ddfe be3a
00000080: 193e f93b eb14 4b3b d134 d93a 942f b13a
00000090: df32 2439 b0e1 95b8 2710 19bb 3304 d5ba
000000a0: 45fd b63a d186 443a 64cc 24bb a9d4 c1b8
000000b0: 9b80 dab8 63ab 0cb9 84e5 9db8 67a0 cfba
000000c0: 0643 5b3a 2ed5 84bb 7817 3bbb 1c07 b3bb
000000d0: bce7 1d3a 54ce a43a d2ef c53a b147 393b
000000e0: eaef 04bb 98a6 71ba 0a2f ed3a 79a3 913a
000000f0: be00 31bb d5e4 31ba 44bb a43a cfc5 4bba
-0.0014409381 0.0008730108 0.00017084718 0.00047232385 -0.0025475621 0.0029798362 0.0018938469 0.0006034343
7.307196e-05 -0.0013731148 -0.0011365272 0.0015420044 -0.0014122003 0.00038596784 -0.0011610726 0.00084428216
-0.0025400156 0.002579882 0.0033980412 0.00073619187 -0.0013085712 -0.0013713463 0.0010984062 -0.0008283643
0.0021640253 0.000823855 0.0057463865 -0.003884541 -0.0002724789 -0.0017057422 0.0004388449 0.0014571805
0.0076062796 0.003098781 0.0016571527 0.0013518208 0.0001565921 -7.146911e-05 -0.0023355575 -0.0016251862
0.0013960978 0.0007496896 -0.002514624 -9.242568e-05 -0.00010419005 -0.00013415287 -7.529094e-05 -0.001584065
0.0008364174 -0.0040537333 -0.0028547924 -0.005463494 0.0006023606 0.0012573698 0.0015101379 0.0028271491
-0.0020284601 -0.0009218245 0.0018095684 0.0011111341 -0.00270085 -0.0006786113 0.0012568017 -0.0007773311
