results/long_stable_training/models/checkpoint_60.pt (torch, 167587 bytes, 30 tensors)

actor_net.0.weight f4 [64, 8]
0	0xbd323a97	-0.043512907
1	0xbded2a76	-0.115803644
2	0x3e984f5f	0.29748055
3	0x3ed856e1	0.42253783
4	0xbea33732	-0.31878048
5	0x3eb19ea7	0.34691355
6	0x3e55b577	0.20870005
7	0x3c95ae36	0.018271547
8	0x3d76a3ee	0.06021493
9	0x3e1f7058	0.155702
10	0xbdb57b30	-0.08861387
11	0xbd9688ed	-0.07350335
12	0xbe072539	-0.13197793
13	0x3cf33587	0.02968861
14	0x3e377f83	0.17919736
15	0xbdc44c70	-0.09584892
16	0x3dae533f	0.08511972
17	0xbe579a9d	-0.21055074
18	0x3de882eb	0.113530956
19	0x3dce19cc	0.10063514
20	0x3a6d4176	0.0009050587
21	0xbdf0559c	-0.11735079
22	0x3e156046	0.14587507
23	0xbe145d20	-0.1448865
24	0x3ba2c373	0.004967147
25	0xbe05dee9	-0.13073315
26	0xbd03f557	-0.032216396
27	0x3df55200	0.11978531
28	0x3ee57f61	0.44823745
29	0xbe1596d7	-0.14608322
30	0xbe3e4965	-0.18582685
31	0xbe18a2dd	-0.14905877
32	0x3eaa715f	0.3328962
33	0x3e3bceae	0.18340561
34	0xbe2daeb6	-0.16961178
35	0x3e3146de	0.1731219
36	0xbe1eb48f	-0.15498565
37	0x3d91ca21	0.07118631
38	0xbea9585a	-0.3307522
39	0x3f05a9c1	0.5221215
40	0xbd32b492	-0.043629237
41	0xbe3057c6	-0.17220983
42	0xbd116e90	-0.03550583
43	0xbe7782d8	-0.24171007
44	0x3e0c42e9	0.13697399
45	0x3d4917be	0.049094908
46	0x3e252b70	0.16129851
47	0x3cfcb037	0.030845745
48	0x3e92c793	0.28667888
49	0xbe575284	-0.21027571
50	0x3eb333ea	0.35000545
51	0xbe5b875a	-0.21438351
52	0xbee3c740	-0.44487953
53	0x3de70343	0.11279919
54	0xbccd509f	-0.025062857
55	0xbc9d7e21	-0.019225182
56	0xbec4b337	-0.3841798
57	0x3d419e04	0.047269836
58	0xbea6a014	-0.32544005
59	0xbe89ee9e	-0.26939863
60	0x3ee8e8f3	0.45490226
61	0x3e6502e9	0.22364391
62	0xbd09d256	-0.033647858
63	0xbe630b87	-0.22172366
64	0x3e74c9ef	0.23905157
65	0xbdea86e1	-0.11451507
66	0xba049194	-0.0005057093
67	0xbe9bcdbe	-0.30430406
68	0x3d52e5b3	0.05148859
69	0x3d106145	0.035249013
70	0xbeabf5c7	-0.3358595
71	0x3d893b81	0.067008026
72	0xbe9f1dab	-0.31077322
73	0xbe05d949	-0.13071169
74	0x3c877a0d	0.01653769
75	0x3e9008ae	0.28131622
76	0x3dd29ff8	0.10284418
77	0xbe05027d	-0.1298923
78	0xbe5379a5	-0.20651872
79	0xbe3f0cb2	-0.18657187
80	0xbde9c4d8	-0.11414498
81	0xbdf92f1d	-0.12167189
82	0xbe051b06	-0.1299859
83	0x3d212db3	0.039350223
84	0x3d584ccc	0.052807614
85	0x3b3ee553	0.0029128387
86	0xbef55fb2	-0.47924572
87	0xbcac0bae	-0.021001663
88	0x3d5cc157	0.05389532
89	0xbde06b43	-0.109579585
90	0xbdc935cf	-0.09824716
91	0xbe7dc673	-0.24782734
92	0x3e03022d	0.12793799
93	0x3d0c8035	0.034301955
94	0x3c59335e	0.013256876
95	0x3e064587	0.1311246
96	0xbe0896cd	-0.13338776
97	0xbde1b552	-0.11020912
98	0xbdca9d2f	-0.09893262
99	0x3eb14484	0.34622586
100	0x3ee53ab3	0.44771346
101	0xbad8c8a5	-0.0016539289
102	0xbdcc609c	-0.09979364
103	0xbbea6cbc	-0.0071540754
104	0xbead041b	-0.33792195
105	0xbd8c687d	-0.06855867
106	0xbdf1a728	-0.11799461
107	0xbe92a383	-0.28640375
108	0x3e91bb77	0.28463337
109	0x3d9650a7	0.07339602
110	0xbb852e9e	-0.004064395
111	0x3e2eda87	0.17075549
112	0x3d915c5c	0.07097694
113	0xbefbff4a	-0.49218208
114	0xbe8a43cc	-0.2700485
115	0x3e80fb05	0.25191513
116	0x3eb28789	0.3486903
117	0xbcf206cd	-0.029544258
118	0x3d104979	0.03522632
119	0x3d075e0a	0.033048667
120	0xbd42ac1f	-0.04752743
121	0xbe4512f2	-0.19245508
122	0xbebfe0cf	-0.37476203
123	0xbe2700d1	-0.16308905
124	0x3da69116	0.08133142
125	0xbe76c5fd	-0.24098964
126	0x3db7c761	0.089735754
127	0xbdfb5d9c	-0.12273714
128	0xbe9eef7c	-0.31042087
129	0xbd75a1f6	-0.05996891
130	0x3cafa768	0.02144213
131	0x3eb035ad	0.3441595
132	0xbc605648	-0.013692446
133	0xbd26bc87	-0.040707137
134	0xbe1414da	-0.14461079
135	0xbb726420	-0.0036985949
136	0x3d3c9f69	0.046050463
137	0x3df58fea	0.1199034
138	0xbd59d205	-0.053178806
139	0xbe75be5a	-0.23998395
140	0xbca529c0	-0.02016151
141	0x3dcb4add	0.099263884
142	0x3e6715ef	0.22566961
143	0xbe40efc7	-0.18841468
144	0x3dcaeb71	0.09908188
145	0xbdb89166	-0.090121076
146	0x3da502e3	0.08057191
147	0xbea8326f	-0.32850978
148	0x3ea97b4a	0.33101875
149	0xbe2575cc	-0.16158217
150	0xbd5feae3	-0.054667365
151	0xbdde4c24	-0.108543664
152	0x3eabf661	0.3358641
153	0xbe0c9e09	-0.1373216
154	0xbe960dd0	-0.29307413
155	0xbd1d5949	-0.038415227
156	0xbb40a1cf	-0.002939332
157	0x3df207e2	0.1181791
158	0x3ec4120b	0.38295016
159	0xbc037f88	-0.008026011
160	0xbc288bd5	-0.010287245
161	0xbc889d02	-0.01667643
162	0xbc7c3de8	-0.015395619
163	0x3f0e4261	0.55570036
164	0x3e2d5fc1	0.16931058
165	0xbea245b3	-0.316938
166	0x3df30535	0.118662275
167	0xbe07a797	-0.13247524
168	0x3d004ee9	0.031325255
169	0xbea9a780	-0.33135605
170	0xbe092869	-0.13394322
171	0x3dcfff85	0.10156158
172	0xbbb49226	-0.0055105863
173	0xbe321662	-0.17391351
174	0xbd1378d3	-0.0360039
175	0xbcb56206	-0.022141468
176	0xbe0eda95	-0.1395057
177	0xbcecb217	-0.028893514
178	0x3eddb857	0.43304703
179	0xbda949aa	-0.082660034
180	0xbdd9b472	-0.1063012
181	0xbd9dd7af	-0.07707154
182	0x3dce6699	0.10078163
183	0x3da5c333	0.08093872
184	0xbe687c4c	-0.22703665
185	0x3e2e53f9	0.1702422
186	0x3d868cdf	0.06569838
187	0xbddaa6b3	-0.106763266
188	0xbe8898ac	-0.2667898
189	0xbe7986a3	-0.24367766
190	0xbdad3d5d	-0.0845897
191	0x3d964a4a	0.07338388
192	0x3ddbcddf	0.10732626
193	0x3de1acbd	0.11019275
194	0xbee9cb9c	-0.45663154
195	0x3d60f5f8	0.054922074
196	0x3e6007cf	0.21877979
197	0xbcb4a7f6	-0.022052746
198	0x3e638d1c	0.22221798
199	0xbe69f0ab	-0.22845714
200	0xbde694f9	-0.11258883
201	0xbdf64a21	-0.12025858
202	0xbe2b2ad0	-0.1671555
203	0xbe4d6b2e	-0.20060417
204	0xbdb7e9fc	-0.08980176
205	0xbe37c9c4	-0.17948061
206	0x3e0584dc	0.13038963
207	0xbde916c5	-0.11381296
208	0x3e39c766	0.1814247
209	0xbca0b9ca	-0.019619841
210	0xbdf4e833	-0.11958351
211	0xbe7434bb	-0.2384824
212	0x3e9f2bcc	0.31088102
213	0xbcd738be	-0.026272174
214	0x3e3ac516	0.18239245
215	0xbe364db9	-0.17803086
216	0xbd7494f8	-0.05971238
217	0xbd0a1b5a	-0.03371749
218	0x3d5a367e	0.053274624
219	0x3f04cbf5	0.51873714
220	0xbeb36002	-0.35034186
221	0xbf02fcab	-0.5116679
222	0xbd2c8751	-0.042121235
223	0x3e34b70d	0.17647953
224	0x3ca18863	0.019718355
225	0x3e7011fc	0.2344436
226	0xbe400b7c	-0.18754381
227	0x3cdc67a5	0.02690489
228	0xbdc1f74b	-0.094709955
229	0x3e074f15	0.13213761
230	0xbe21d805	-0.15805061
231	0xbe179f06	-0.14806756
232	0x3cb47411	0.022028001
233	0xbe3e7834	-0.18600541
234	0xbd9dcdfd	-0.07705305
235	0x3dcade02	0.09905626
236	0xbe95130d	-0.29116097
237	0xbd91a8ab	-0.07112249
238	0xbeeb93b0	-0.46011114
239	0xbd98da11	-0.07463468
240	0x3e1d20aa	0.15344492
241	0x3d7dce1e	0.061964147
242	0x3edadf43	0.4274846
243	0xbce91f78	-0.028457388
244	0xbdf1d879	-0.11808867
245	0xbe42c7d0	-0.19021535
246	0xbe719498	-0.2359184
247	0xbbc3be3b	-0.005973605
248	0xbec0bafb	-0.37642655
249	0xbe28e639	-0.16494073
250	0x3e00ee62	0.12590936
251	0xbd9a40a1	-0.07531858
252	0x3e890565	0.26761928
253	0x3e543ea5	0.20727022
254	0x3dccb1e1	0.09994865
255	0x3d903742	0.070417896

actor_net.0.bias f4 [64]
0	0x3d06ae24	0.032880917
1	0x3ca240ad	0.01980623
2	0x3d5ca8a4	0.053871766
3	0x3d0e6122	0.0347606
4	0xbd505846	-0.050865434
5	0x3d362fac	0.044479057
6	0xbd76044a	-0.060062684
7	0xbd274d50	-0.040845215
8	0xbd518fbb	-0.051162463
9	0xbd019fde	-0.0316466
10	0xbd385e49	-0.045011792
11	0xba742db3	-0.0009314671
12	0x3d12f719	0.035880182
13	0xbca09724	-0.01960332
14	0x3d61c9a4	0.05512394
15	0x3d1996d1	0.037497345
16	0xbbf5474d	-0.0074853064
17	0x3b03a868	0.0020089392
18	0xba47ced5	-0.0007622068
19	0x3d08359d	0.033254255
20	0x3ccccd27	0.025000168
21	0xbd74bf4c	-0.059752747
22	0x3d21eda9	0.03953329
23	0xbd2ffa2f	-0.042963203
24	0x3d235f4a	0.039885797
25	0x3b14c1ab	0.0022698443
26	0x3d2e641a	0.042575933
27	0x3ad3a0e9	0.0016145977
28	0xbc8a7cb9	-0.016905176
29	0xbd4588f7	-0.048226323
30	0xbd7182fc	-0.058962807
31	0x3d398c5a	0.045299865
32	0x3d33df5d	0.043914188
33	0x3c2fe661	0.010736079
34	0x3cef4149	0.029205935
35	0x3d2284a3	0.039677273
36	0x3d528249	0.05139378
37	0x3c926534	0.017870523
38	0xbd3cbfb0	-0.046081245
39	0xbd45b242	-0.048265703
40	0x3d883b80	0.06651974
41	0x3d5b8a64	0.053598776
42	0xbd216f56	-0.03941282
43	0x3cb0fdae	0.021605339
44	0x3c5600c8	0.01306171
45	0x3de7892a	0.11305459
46	0x3ca4154a	0.020029683
47	0xbd3a70db	-0.045517784
48	0x3d71f5ac	0.05907218
49	0xbd2d1e5a	-0.042265274
50	0xbd20bc22	-0.039241917
51	0xbd2d3653	-0.042288136
52	0x3c6009c6	0.013674205
53	0x3d37aaab	0.044840496
54	0x3d5adc4c	0.053432748
55	0x3cc0e2a1	0.023545565
56	0xbd8663f4	-0.06562033
57	0xbdf68dc9	-0.12038762
58	0x3c9613bf	0.018319963
59	0xbd55786d	-0.0521168
60	0xbd384686	-0.04498913
61	0xbbf0ba6f	-0.0073464434
62	0x3d1ea318	0.038729757
63	0xbda106d0	-0.078626275

actor_net.2.weight f4 [64, 64]
0	0x3e053375	0.1300791
1	0xbd5f90a3	-0.054581296
2	0xbe986e41	-0.29771617
3	0x3d2629e3	0.04056729
4	0x3e9f9567	0.31168672
5	0xbecbc787	-0.39800665
6	0xbe7726c8	-0.24135888
7	0x3de968d7	0.1139695
8	0x3e52f16f	0.20599912
9	0x3c4157d9	0.01180073
10	0xbd13c231	-0.036073867
11	0xbe23a901	-0.15982439
12	0xbdecd4a2	-0.11563994
13	0xbbeaef3f	-0.0071696336
14	0xbe748257	-0.23877846
15	0x3e0314e5	0.1280094
16	0x3e8ca1c6	0.27467173
17	0xbe5d529f	-0.21613549
18	0xbddd1348	-0.10794693
19	0xbe314e86	-0.1731511
20	0x3e129b86	0.1431714
21	0x3e92160a	0.2853244
22	0x3e08367d	0.13302036
23	0x3e0e1aa2	0.13877347
24	0x3db70a22	0.089374796
25	0xbe90b92f	-0.28266284
26	0xbe4cbb18	-0.19993246
27	0xbe608701	-0.219265
28	0xbe139d5e	-0.144155
29	0x3e824fd8	0.2545154
30	0x3e16f600	0.14742279
31	0x3e70ca05	0.23514564
32	0xbe83abc2	-0.25716978
33	0xbdf95ac2	-0.12175514
34	0x3a181676	0.0005801687
35	0xbe13ce5e	-0.14434192
36	0x3e7c3146	0.24628171
37	0xbec1990d	-0.3781208
38	0xbd1b6eb2	-0.037947364
39	0xbe36503a	-0.17804042
40	0xbebf6f74	-0.3738972
41	0x3ccbd585	0.024882087
42	0xbe4ec466	-0.20192108
43	0xbe4e0d8d	-0.20122357
44	0xbe05efb9	-0.13079728
45	0x3e49000e	0.19628927
46	0x3c20c9e3	0.009813759
47	0xbdce2465	-0.100655355
48	0x3e4b7682	0.19869426
49	0x3e6124c7	0.21986686
50	0x3d28e047	0.041229513
51	0x3dddaffd	0.10824583
52	0x3e13b7a9	0.1442553
53	0x3eb633e9	0.3558648
54	0xbda59bd5	-0.08086363
55	0xbdaba8d4	-0.08381811
56	0x3e1d4e00	0.15361786
57	0x3e16e21e	0.14734694
58	0xbd56b627	-0.052419808
59	0xbdff949b	-0.12479516
60	0x3be18922	0.0068828026
61	0x3d6b6a9f	0.05747473
62	0x3df10dbe	0.11770199
63	0x3d77d6d3	0.060507607
64	0x3dbe994f	0.09306585
65	0x3e6fcd45	0.23418148
66	0xbe3ebb8b	-0.1862623
67	0x3ec04179	0.37549952
68	0x3e4bd887	0.19906817
69	0xbe9cf4f3	-0.3065563
70	0xba0a7586	-0.00052817946
71	0xbde844ac	-0.11341223
72	0x3e2788c0	0.1636076
73	0x3e539364	0.20661694
74	0x3d98fbb4	0.074698836
75	0x3ec343d0	0.38137674
76	0x3d6ca080	0.057770252
77	0xbe16a591	-0.14711596
78	0x3e78d082	0.2429829
79	0xbe40a31e	-0.18812224
80	0x3eb001a0	0.3437624
81	0xbe8b7d00	-0.27243805
82	0x3e345b8a	0.17613044
83	0xbe63ff4f	-0.22265361
84	0x3e48c58d	0.1960661
85	0x3cac52dd	0.021035606
86	0x3d01707d	0.031601418
87	0x3e4ed2dd	0.20197625
88	0xbe29df8f	-0.16589187
89	0xbe3625c9	-0.17787851
90	0xbc561cfd	-0.013068435
91	0x3e19d319	0.15021934
92	0x3c40c4df	0.011765688
93	0xbeb4fab0	-0.3534751
94	0xbe5e9f63	-0.21740489
95	0x3c6d6ecb	0.014491747
96	0xbe348f05	-0.17632683
97	0xbe2bdbeb	-0.16783111
98	0xbe9fd353	-0.31215915
99	0xbe969564	-0.2941085
100	0x3e33ff04	0.1757775
101	0x3e308db7	0.1724156
102	0x3e412d61	0.18864967
103	0x3e4f5840	0.20248508
104	0x3c42b369	0.011883595
105	0x3dde888e	0.108658895
106	0x3e9cf485	0.30655304
107	0x3d0fc7fb	0.035102826
108	0xbc874baa	-0.016515572
109	0x3e8104f3	0.25199088
110	0xbe6ee14f	-0.23328136
111	0xbe09260b	-0.13393418
112	0x3e7cad5f	0.24675511
113	0x3b842751	0.004033007
114	0x3e9c0453	0.3047205
115	0x3edd0242	0.43165785
116	0xbd45c974	-0.048287824
117	0xbd7c6372	-0.061618276
118	0xbe891cf4	-0.26779902
119	0xbe51afbf	-0.20477198
120	0x3cd86b87	0.02641846
121	0xbdeacb8c	-0.11464605
122	0xbd89e449	-0.06732995
123	0x3e0a7534	0.13521272
124	0x3de8f3a1	0.113745935
125	0x3ea57d9e	0.323224
126	0xbe6c1404	-0.2305451
127	0x3de01c0d	0.1094285
128	0x3ccf511f	0.025307236
129	0x3ddfc72c	0.10926661
130	0x3e0a1ff1	0.13488747
131	0xbcd3a658	-0.025836155
132	0x3e44aad2	0.19205788
133	0xbd9b3826	-0.07579069
134	0x3e152ba2	0.14567426
135	0xbdfbf986	-0.12303452
136	0x3e94fd53	0.2909952
137	0x3e14e582	0.14540675
138	0xbdf75c33	-0.120781325
139	0xbcae02e3	-0.02124161
140	0xbd67c512	-0.056584425
141	0x3da71658	0.081585586
142	0xbcf4adc5	-0.029868016
143	0xbe05cf64	-0.13067394
144	0x3e25a63a	0.16176692
145	0xbd9fa23e	-0.07794617
146	0xbe20a7ee	-0.1568906
147	0xbc7c8c7b	-0.0154143525
148	0xbe5e664d	-0.21718712
149	0x3dc88932	0.09791793
150	0xbe3a3371	-0.18183686
151	0x3ed1823c	0.40919673
152	0x3e828678	0.25493217
153	0x3e5c39b8	0.21506393
154	0xbe9ef4f0	-0.31046247
155	0x3e070e1c	0.13188976
156	0x3dc78a94	0.097432286
157	0x3e1d402f	0.15356515
158	0x3bb6a0c6	0.005573365
159	0xbeab1659	-0.33415487
160	0xbe9eb51f	-0.3099756
161	0x3d96b21a	0.07358189
162	0xb9e894a2	-0.00044361228
163	0x3e85a0b8	0.2609918
164	0x3e6fc522	0.23415044
165	0xbda3323a	-0.07968564
166	0x3e814108	0.25244927
167	0x3e1b5523	0.15169196
168	0x3e613fd9	0.21997012
169	0x3d6aff44	0.057372347
170	0xbe9740ac	-0.29541528
171	0x3ea29ba6	0.31759375
172	0x3ea54e8e	0.32286495
173	0x3df0a29e	0.11749767
174	0x3e99207d	0.299076
175	0xbc76b02e	-0.015056653
176	0xbe3d2d5c	-0.18474334
177	0x3dd22378	0.102606714
178	0x3c5f3356	0.013623079
179	0x3dd0c03f	0.10192918
180	0x3d029a2a	0.031885304
181	0x3e6fd963	0.2342277
182	0x3cf5082d	0.029911125
183	0xbd885707	-0.06657224
184	0x3ca1e352	0.019761715
185	0xbd9f4b05	-0.07777981
186	0x3d799651	0.06093437
187	0x3e3ebfb4	0.18627816
188	0x3ee95832	0.455751
189	0x3dbe0fff	0.09280395
190	0xbe2d15a9	-0.16902794
191	0x3e94dbbe	0.290739
192	0xbe293a56	-0.1652616
193	0xbd573fe3	-0.05255116
194	0xbdd4c752	-0.1038958
195	0xbe2210f6	-0.15826783
196	0x3d045816	0.032310568
197	0x3900c86e	0.00012281697
198	0xbd5ced96	-0.053937517
199	0xbd197d4c	-0.037473008
200	0xbe85033a	-0.25979024
201	0x3dfc9214	0.1233255
202	0x3d8b7293	0.06808963
203	0x3d3d4aed	0.046214033
204	0x3e025e11	0.12731196
205	0x3dac81c0	0.08423185
206	0x3dace03f	0.08441209
207	0xbe70affc	-0.23504633
208	0x3e5f743b	0.21821682
209	0x3e7f4592	0.24928883
210	0xbe53f59a	-0.20699158
211	0xbe7068cd	-0.23477478
212	0xbe92db0c	-0.28682745
213	0xbcafb102	-0.021446709
214	0x3e9b25a0	0.30302143
215	0xbd50e3d4	-0.050998524
216	0x3dfc94b8	0.12333053
217	0xbe5ab9e5	-0.21359976
218	0xbea1ff11	-0.31639913
219	0xbdc366a6	-0.09541063
220	0x3e25add8	0.16179597
221	0xbe72b42e	-0.23701546
222	0x3d808525	0.06275395
223	0xbbb168cf	-0.0054141055
224	0x3e86f8a2	0.26361567
225	0xbe9db5d1	-0.30802777
226	0xbc0e867b	-0.008699055
227	0xbb416f04	-0.0029515633
228	0x3eadcb9d	0.33944407
229	0xbca449e4	-0.020054765
230	0xbe7eed5c	-0.24895233
231	0x3e1b981a	0.15194741
232	0xbed07a01	-0.40718082
233	0xbdb0b951	-0.08629096
234	0x3e3057f6	0.17221054
235	0x3d484488	0.04889348
236	0x3e8b8649	0.2725089
237	0xbd944c62	-0.07241131
238	0xbdf4709f	-0.11935543
239	0x3e6a4443	0.22877602
240	0xbe999777	-0.2999837
241	0xbd881911	-0.06645406
242	0x3e820f29	0.2540219
243	0xbd077cb7	-0.03307792
244	0xbe34842a	-0.17628542
245	0xbdb4b1db	-0.08822986
246	0xbb94af65	-0.00453751
247	0x3dcda6f9	0.10041613
248	0x3e828e29	0.25499085
249	0x3e2cd108	0.16876614
250	0x3df38650	0.118908525
251	0xbd85f5d9	-0.06541032
252	0xbd6e35a1	-0.058156613
253	0xbd49d699	-0.049276922
254	0xbdf09545	-0.11747221
255	0x3ec1718f	0.3778195

actor_net.2.bias f4 [64]
0	0xbd2c3ff8	-0.042053193
1	0xbc95ea22	-0.01830012
2	0xbd1f197f	-0.038842674
3	0xbd876b93	-0.06612315
4	0xbc4464c7	-0.011986918
5	0xbc95cbaf	-0.0182856
6	0x3d3c0e11	0.045911852
7	0xbd2b4848	-0.04181698
8	0xbce8208b	-0.02833583
9	0x3ce0ba7d	0.027432675
10	0x3d69b71c	0.057059392
11	0xbd388bc3	-0.045055162
12	0x3ca83b7f	0.020536182
13	0xbd2e56d9	-0.042563293
14	0xbd408ac1	-0.047007326
15	0xbcbddb0f	-0.023175744
16	0x3d9e68d0	0.07734835
17	0xbb40d156	-0.002942165
18	0xbd202695	-0.039099295
19	0x3d2e660b	0.042577785
20	0xbd176fc6	-0.03697183
21	0x3a40160f	0.0007327506
22	0x3d8a5028	0.0675357
23	0xbce4771b	-0.027888825
24	0x3d46b298	0.048510164
25	0x3c4b2bc7	0.012400574
26	0x3ce2bed0	0.027678877
27	0x3d1c352b	0.038136642
28	0xbd832db7	-0.06405204
29	0x3d02225c	0.03177105
30	0xba300271	-0.0006714231
31	0x3d143fe6	0.03619375
32	0x3d47292c	0.04862325
33	0x3d4de50d	0.050267268
34	0xbd343fa4	-0.044006005
35	0xbd32304e	-0.0435031
36	0xbc583995	-0.013197322
37	0x3d2ee8a3	0.04270233
38	0xbd2626e0	-0.040564418
39	0xbcc55761	-0.024089517
40	0xbd1686da	-0.0367497
41	0x3c708006	0.014678961
42	0x3cb0c9a7	0.02158053
43	0xbd151333	-0.036395263
44	0xbd71ea8b	-0.05906157
45	0x3ce544a8	0.02798684
46	0xbd2bbaeb	-0.041926306
47	0xbd952719	-0.07282848
48	0xbd2a9daa	-0.041654266
49	0x3d1b4f5f	0.03791749
50	0x3d20db26	0.039271496
51	0x3ca8c48d	0.020601535
52	0xbd244a15	-0.040109713
53	0xbd17a51a	-0.037022687
54	0x3d6d0f00	0.057875633
55	0xbd39c4fb	-0.04535387
56	0xbd53c420	-0.05170071
57	0xbd0c093a	-0.034188487
58	0x3c31d130	0.010853097
59	0x3d42e5fd	0.047582615
60	0xbd1940b3	-0.037415218
61	0xbd47dee7	-0.04879656
62	0x3d4f519a	0.05061493
63	0xbd02c707	-0.03192809

actor_mean.weight f4 [1, 64]
0	0x3d07a85d	0.033119548
1	0x3d787d12	0.06066615
2	0x3d2ff2b8	0.042956084
3	0x3ce42191	0.027848037
4	0xbd1a586e	-0.03768199
5	0x3d445a2d	0.04793756
6	0xbd000765	-0.031257052
7	0x3d6765aa	0.05649344
8	0x3d2a017e	0.04150533
9	0xbd4ff2ae	-0.050768547
10	0xbcd4e939	-0.025990115
11	0x3d08d25f	0.03340375
12	0xbd02a26b	-0.031893175
13	0x3d04f770	0.032462537
14	0x3c4bd7bf	0.012441575
15	0x3d53594f	0.051598843
16	0xbcfad167	-0.030617429
17	0x3dd166d3	0.1022469
18	0x3ce3a342	0.027787808
19	0xbd1c008d	-0.038086463
20	0x3cc371c8	0.023857966
21	0xbd80582e	-0.06266819
22	0xbca57c0e	-0.020200755
23	0x3d7f4f3d	0.062331427
24	0xbd055061	-0.03254736
25	0xbd56d047	-0.052444723
26	0xbd923133	-0.0713829
27	0xbd81ca37	-0.063373975
28	0x3ca3962f	0.019969074
29	0xbd8a70dd	-0.06759808
30	0x3d694fed	0.05696099
31	0xbd53ac68	-0.05167809
32	0xbcd7f5fa	-0.026362408
33	0xbc80011c	-0.015625529
34	0x3d45062a	0.04810158
35	0x3d5b3e3e	0.053526156
36	0x3e17c00d	0.14819355
37	0x3c8c7863	0.017147249
38	0x3cff1d08	0.031141773
39	0x3d3e2bba	0.04642842
40	0x3d4bea83	0.049784195
41	0x3d492617	0.04910859
42	0xbd9f701e	-0.077850565
43	0x3d2f86b9	0.04285309
44	0x3cf40442	0.029787187
45	0xbd352378	-0.04422328
46	0x3cf1bce8	0.029509023
47	0x3cd600e7	0.026123477
48	0x3d00ee8b	0.031477492
49	0xbd6e07a0	-0.05811274
50	0x3cba9573	0.022776341
51	0xbc7b561d	-0.015340355
52	0x3d6b255d	0.05740868
53	0x3cf7ffc0	0.030273318
54	0xbced98e3	-0.029003566
55	0x3cceeb18	0.025258586
56	0x3cbf12c0	0.02332437
57	0x3d389c08	0.045070678
58	0xbd9ced7b	-0.07662483
59	0xbd1005c3	-0.035161745
60	0x3d429cf1	0.047512952
61	0x3c9fb1b4	0.019493915
62	0xbcec1b91	-0.028821738
63	0x3d3ea22e	0.046541385

critic_net.0.weight f4 [64, 8]
0	0x3dd37572	0.10325135
1	0xbc52cc0c	-0.012866031
2	0xbda3851a	-0.079843715
3	0xbdc6212b	-0.09674295
4	0x3e9eaecd	0.30992737
5	0x3e0d6996	0.13809809
6	0x3e0431f6	0.12909684
7	0xbddf8731	-0.109144576
8	0xbd801e6a	-0.06255801
9	0xbed8411f	-0.42237183
10	0x3d950ccc	0.072778314
11	0x3e16d97f	0.14731406
12	0xbecf3a3f	-0.40474126
13	0xbe228e46	-0.15874586
14	0x3cb278c7	0.021786107
15	0xbf038758	-0.51378393
16	0x3dbb6aca	0.09151228
17	0xbda03c96	-0.07824056
18	0x3ea9fc6e	0.332004
19	0x3da410a3	0.08010986
20	0xbdc0ec64	-0.09420088
21	0x3d0ea6b0	0.034826934
22	0xbe33066d	-0.1748292
23	0x3e366980	0.17813683
24	0x3dc84a71	0.097798236
25	0x3db8bb11	0.09020055
26	0x3e872e80	0.26402664
27	0xbdd69e5c	-0.104794234
28	0xbec38da6	-0.38194007
29	0x3e9fe6ce	0.31230778
30	0x3e6eb688	0.23311818
31	0xbea65752	-0.32488495
32	0x3d42d77d	0.047568787
33	0x3d1d01d3	0.038331818
34	0xbde929d9	-0.11384935
35	0xbde425a0	-0.11139989
36	0x3e2d5406	0.16926584
37	0xbd5196c6	-0.05116918
38	0x3e36184b	0.17782705
39	0x3e958ef6	0.29210633
40	0x3e9ab16b	0.30213484
41	0x3d591beb	0.05300514
42	0xbd3d945d	-0.04628407
43	0xbe0ca451	-0.13734557
44	0xbf1d8bbd	-0.6154135
45	0xbd3a9e23	-0.045560967
46	0xbe325b67	-0.1741768
47	0xbdd434ec	-0.103616565
48	0xbd5c824c	-0.0538352
49	0x3c9ca091	0.019119533
50	0x3d387d34	0.045041278
51	0x3daf2d5c	0.085535735
52	0x3eb81a36	0.35957497
53	0xbe2f01f3	-0.17090587
54	0x3c9f35c6	0.01943482
55	0xbe1427c9	-0.14468302
56	0x3de03948	0.109484255
57	0xbdf914a3	-0.12162139
58	0x3ce2c9a3	0.027684039
59	0xbea4cc0d	-0.32186928
60	0xbe834b12	-0.25643212
61	0xbca4e994	-0.02013091
62	0x3d85567a	0.06510635
63	0xbd847874	-0.06468287
64	0x3e7cfb7b	0.24705307
65	0x3c44b643	0.012006345
66	0xbcc1edb2	-0.023672912
67	0x3dde15e0	0.10844016
68	0xbe92fbf4	-0.2870785
69	0x3df222a5	0.11823014
70	0x3eadcd1b	0.33945546
71	0x3eb3dafa	0.35128003
72	0xbc529718	-0.012853406
73	0x3eb93fdc	0.36181533
74	0xbd8a3bda	-0.06749697
75	0xbb15693d	-0.0022798323
76	0xbe8d95eb	-0.2765344
77	0x3e9a0e2f	0.30088946
78	0xbe997c43	-0.29977617
79	0x3d81a975	0.063311495
80	0x3d36becd	0.044615556
81	0xbe9bd3b3	-0.3043495
82	0xbe1dd9d9	-0.15415134
83	0xbe90e657	-0.28300735
84	0xbf039d06	-0.51411474
85	0xbca68832	-0.020328615
86	0xbe6dbc26	-0.23216304
87	0xbdd99d10	-0.106256604
88	0xbe1da8a6	-0.15396366
89	0xbd84b6f4	-0.06480208
90	0xbebf8b14	-0.37410796
91	0xbe5df1cc	-0.2167427
92	0x3ee68c2e	0.45028824
93	0x3dcf6af9	0.10127825
94	0x3e13c331	0.14429928
95	0x3da14254	0.07873979
96	0x3d6d7e28	0.05798164
97	0x3e493843	0.19650368
98	0xbde40748	-0.11134201
99	0x3cd8e789	0.026477592
100	0xbef104bb	-0.47073922
101	0x3dc54548	0.09632355
102	0x3b0f752d	0.002188991
103	0x3dc4c560	0.09607959
104	0xbd281b04	-0.04104139
105	0x3e277c83	0.16356091
106	0x3e656744	0.22402674
107	0xbcff165b	-0.03113859
108	0xbe8f8307	-0.28029653
109	0xbd00d5ab	-0.03145377
110	0x3e68e1d7	0.22742401
111	0x3d1a9d1f	0.0377475
112	0x3d8a3e95	0.06750218
113	0x3da9a326	0.08283071
114	0xbc405ef4	-0.011741389
115	0x3ea78c68	0.3272431
116	0xbe79a7e8	-0.24380457
117	0x3e05158c	0.129965
118	0xbe3dc37f	-0.18531607
119	0xbd10cf3f	-0.035353895
120	0x3d9b6794	0.07588115
121	0x3e0fe4b7	0.14052092
122	0xbd411dba	-0.04714749
123	0xbeae2450	-0.3401208
124	0xbeabb522	-0.3353663
125	0x3d4d35b1	0.050100032
126	0x3cce33fe	0.025171276
127	0xbe420fb5	-0.18951304
128	0x3e6c3f79	0.23071088
129	0xbecd4f23	-0.4009944
130	0xbdf30c26	-0.118675515
131	0x3c6ab644	0.014325682
132	0x3f14af79	0.5808025
133	0xbcd6d381	-0.0262239
134	0x3dd617bc	0.10453746
135	0xbd3a2ceb	-0.045452993
136	0xbc1e8e3c	-0.009677466
137	0xbeca35da	-0.3949421
138	0xbe8ae3e2	-0.27126986
139	0x3e0451cd	0.1292183
140	0x3f090443	0.5352213
141	0xbe2489b4	-0.16068155
142	0x3cfdf9a3	0.031002825
143	0xbcf1352a	-0.029444296
144	0xbda6c36b	-0.08142742
145	0xbdc00468	-0.093758404
146	0xbc0bc871	-0.008531676
147	0x3d22bd07	0.03973105
148	0xbf1c2b52	-0.610036
149	0xbe64d79e	-0.22347876
150	0x3d9d2c78	0.07674497
151	0xbc3579d8	-0.011076413
152	0x3e12f393	0.14350729
153	0xbe3688bc	-0.17825598
154	0xbea0dea0	-0.3141985
155	0x3da75bf8	0.081718385
156	0x3d9e9379	0.07742972
157	0xbcd2fcb0	-0.025755256
158	0xbdebca58	-0.115132034
159	0xbd6cab5f	-0.05778062
160	0xbe6d145f	-0.23152302
161	0xbe190bab	-0.14945857
162	0xbc352cd1	-0.011058048
163	0xbeb6ef04	-0.3572923
164	0xbf0ba835	-0.5455354
165	0x3b88bddf	0.004173025
166	0x3ca578b6	0.020199161
167	0x3da4af58	0.08041257
168	0xbeb4add1	-0.3528886
169	0x3e8a4ccb	0.27011713
170	0xbcd44c9c	-0.025915436
171	0x3d8bdaa4	0.06828812
172	0x3f085897	0.5326018
173	0xbe9d3027	-0.307008
174	0xbd68d7ae	-0.056846313
175	0x3db2d748	0.08732468
176	0xbe6b16ea	-0.2295796
177	0xbc337dba	-0.0109552685
178	0xbeacdbf8	-0.33761573
179	0xbd619165	-0.0550703
180	0x3e9d0f3e	0.3067569
181	0xbde1139f	-0.109900706
182	0xbb82da9b	-0.003993345
183	0x3e982c41	0.29721263
184	0x3e4ec8a2	0.20193723
185	0xbe87362e	-0.26408523
186	0x3e8dc4e4	0.27689278
187	0xbeae95bf	-0.34098622
188	0x3eada6ff	0.3391647
189	0xbe8d037b	-0.27541718
190	0xbe91e8c9	-0.28497913
191	0xbe435442	-0.1907511
192	0xbddaa3f0	-0.106758
193	0x3d800f5b	0.06252929
194	0xbe5c1a37	-0.21494375
195	0x3dc62bae	0.096763
196	0x3ecf1261	0.4044371
197	0x3db5681c	0.08857748
198	0x3d8606b0	0.06544244
199	0xbe4d85d6	-0.20070586
200	0x3e118879	0.14212216
201	0x3e3ebbd1	0.18626334
202	0x3e2df7e8	0.169891
203	0xbc92861e	-0.017886218
204	0x3ecb544e	0.39712757
205	0xbe3bf5b5	-0.18355449
206	0xbf0bf010	-0.5466318
207	0xbdf50bba	-0.11965127
208	0x3e866a86	0.26253146
209	0xbdf6e453	-0.12055268
210	0x3dc6f6a6	0.09715013
211	0x3e4b6fb2	0.19866827
212	0x3eba23f1	0.36355546
213	0x3de7f2f8	0.113256395
214	0xbcb5356f	-0.022120206
215	0xbe1c5cce	-0.15269777
216	0x3e0a9ade	0.1353564
217	0x3e9b245a	0.30301172
218	0x3e7bccbd	0.2458982
219	0xbd88210a	-0.06646927
220	0xbeddbfd8	-0.43310428
221	0x3d404bf7	0.046947446
222	0xbea5a215	-0.3235022
223	0x3df23787	0.11826997
224	0xbeabc7bc	-0.33550823
225	0x3e034127	0.12817822
226	0x3e5a86db	0.21340506
227	0x3e2b5f77	0.16735636
228	0xbe9d73fb	-0.3075255
229	0x3d8e549f	0.06949734
230	0x3edb9985	0.42890564
231	0xbe9b5adc	-0.30342758
232	0x3e685cfb	0.22691719
233	0xbdf77875	-0.12083522
234	0x3d831bba	0.06401773
235	0x3e3fa40f	0.18714927
236	0xbe6c6dbd	-0.23088737
237	0x3df2687e	0.118363366
238	0xbe07dc9b	-0.13267748
239	0x3e18a8dd	0.14908166
240	0xbb8dd974	-0.004328901
241	0x3e14c2c4	0.14527422
242	0xbe188f1d	-0.14898343
243	0xbe22efdd	-0.15911813
244	0x3f1da35d	0.615774
245	0xbd0fda69	-0.0351204
246	0xbe3ba35e	-0.18324038
247	0xbe37dd0f	-0.17955421
248	0xbda2e1dd	-0.07953236
249	0x3e68f5f6	0.22750077
250	0x3d6fa279	0.058504555
251	0xbe7ce60a	-0.24697128
252	0x3e639806	0.22225961
253	0xbd3b9071	-0.045792047
254	0x3e67b202	0.22626498
255	0xbe030725	-0.12795694

critic_net.0.bias f4 [64]
0	0x3d0a814b	0.03381471
1	0xbd7b9091	-0.061417166
2	0x3d5aea04	0.05344583
3	0xbdaa8ea4	-0.08327988
4	0x3d2537ef	0.040336546
5	0xbd8dd54c	-0.06925449
6	0x3d66aad1	0.056315247
7	0xbd51e213	-0.05124099
8	0xbdcfeeca	-0.10152967
9	0x3dc7b63e	0.09751557
10	0xbdb274aa	-0.08713658
11	0x3bb2f05a	0.005460781
12	0xbd82c02e	-0.063843116
13	0xbd71dcce	-0.059048466
14	0x3d4fae0a	0.050703086
15	0xbd6c5fb4	-0.057708457
16	0x3d6628aa	0.056191124
17	0x3d8a733c	0.067602605
18	0xbd911138	-0.07083362
19	0x3d577c9a	0.052609064
20	0xbd824fc6	-0.06362872
21	0x3cf5ce83	0.030005699
22	0x3d6fdfdb	0.058563095
23	0x3d5de4d2	0.0541733
24	0x3d5af844	0.05345942
25	0x3dedce8d	0.11611662
26	0x3d2f1a65	0.04274978
27	0x3bc692f1	0.0060599972
28	0xbcecbbdf	-0.028898178
29	0xbd619a35	-0.055078704
30	0x3d9a3bd3	0.07530942
31	0xbb98410c	-0.004646426
32	0xbd5fad16	-0.054608427
33	0xbda1fdc6	-0.079097316
34	0xbdaf51bf	-0.08560514
35	0xbd0cf8fd	-0.03441714
36	0xbc923ed2	-0.01785222
37	0xbba9fa66	-0.0051873205
38	0xbd94992d	-0.072557785
39	0x3d8942c2	0.06702186
40	0xbd6bcdeb	-0.057569426
41	0x3ba1e18a	0.0049402164
42	0xbd4a4400	-0.049381256
43	0x3d8a3005	0.0674744
44	0x3d980bcf	0.07424127
45	0xbd7e2e6b	-0.062055986
46	0x3cecb23f	0.028893588
47	0xbd64b8f1	-0.055840436
48	0x3d672e4a	0.05644063
49	0x3daf7ca4	0.08568695
50	0xbd85f722	-0.065412775
51	0x3d0a3625	0.033743042
52	0xbd831eaf	-0.06402337
53	0xba549ca7	-0.0008110501
54	0x3d9d7108	0.076875746
55	0x3d5e394d	0.054253865
56	0x3d99dad7	0.075124435
57	0x3d68b8d5	0.056816895
58	0xbc867c71	-0.01641676
59	0x3d9fa48d	0.077950574
60	0xbd8a7a44	-0.067616016
61	0x3cf1009e	0.02941924
62	0xbd4d0b66	-0.0500597
63	0x3d2b0983	0.041757118

critic_net.2.weight f4 [64, 64]
0	0x3d99e7d1	0.075149186
1	0xbc5642ed	-0.01307748
2	0xbe05b5d2	-0.1305764
3	0xbb274c0f	-0.0025527512
4	0x3e9817eb	0.29705748
5	0x3db7865d	0.08961175
6	0xbdaf1304	-0.08548549
7	0x3c8e2ed0	0.017356306
8	0x3e4c3b33	0.19944458
9	0xbe4984cd	-0.19679566
10	0xbcb44c96	-0.022009175
11	0x3d093bcf	0.033504304
12	0xbd36f636	-0.0446684
13	0xbd223585	-0.03960182
14	0xbe60b3bc	-0.21943563
15	0x3ea17a1a	0.3153847
16	0xbee3f108	-0.4451983
17	0x3d6d5f7a	0.05795238
18	0x3c34dccb	0.011038969
19	0xbc8902b3	-0.01672492
20	0xbe272f07	-0.16326533
21	0xbe012636	-0.12612233
22	0x3cf73381	0.030175926
23	0x3e440ead	0.19146223
24	0x3d3c8300	0.04602337
25	0x3da1a5c4	0.078929454
26	0xbdaa9ab8	-0.083302915
27	0xbb7423be	-0.003725275
28	0x3c1cdf4c	0.0095747225
29	0x3da1dbb3	0.079032324
30	0xbd5ba78f	-0.053626593
31	0x3ed1105f	0.40832803
32	0x3e0859b4	0.13315469
33	0x3ef472dd	0.47743884
34	0x3c7098e1	0.014684887
35	0x3e121fe3	0.14269976
36	0xbe025aab	-0.127299
37	0x3e1d1e14	0.15343505
38	0x3e8bfe8b	0.27342638
39	0xbe04bb9c	-0.12962192
40	0x3e4a2328	0.19739974
41	0x3e150da9	0.14555992
42	0x3ea92040	0.33032417
43	0x3e379f66	0.179319
44	0x3e673fb1	0.2258289
45	0x3d72d9d3	0.059289765
46	0xbe2bb7c6	-0.16769323
47	0x3e4d6898	0.2005943
48	0xbc088868	-0.008333303
49	0x3e08947d	0.13337894
50	0x3e3c2b61	0.18375923
51	0xbcd996e1	-0.026561202
52	0x3ec568bb	0.38556466
53	0xbd8f7995	-0.07005612
54	0xbee8f817	-0.45501778
55	0x3d3344ee	0.04376691
56	0xbedd26e0	-0.43193722
57	0xbe6d3a18	-0.23166692
58	0x3e018182	0.1264706
59	0xbec8a7af	-0.39190432
60	0x3e91b751	0.28460172
61	0x3ef0ddde	0.4704427
62	0x3db472ff	0.08810996
63	0xbdaa7577	-0.08323186
64	0xbde8639a	-0.113471225
65	0x3ed7a7fa	0.42120343
66	0x3b30eafb	0.0026995528
67	0xbe3d4d27	-0.18486463
68	0xbcbfc923	-0.02341134
69	0x3defbabf	0.11705541
70	0xbf02a010	-0.51025486
71	0xbdb6c05f	-0.089234106
72	0xbd2f4cf0	-0.042797983
73	0xbdb840f9	-0.089967676
74	0x3ea889cf	0.3291764
75	0x3e6ccc38	0.23124778
76	0xbd72e4aa	-0.059300102
77	0xbd413c72	-0.047176786
78	0xbd6a9473	-0.05727048
79	0x3db56455	0.088570274
80	0xbe0ca2c1	-0.1373396
81	0xbdb9ac7e	-0.090661034
82	0xbdf52197	-0.119692974
83	0x3eac5ae4	0.33663094
84	0xbd03bb29	-0.03216091
85	0xbe58d018	-0.21173131
86	0xbe814efa	-0.25255567
87	0xbd0d655d	-0.034520496
88	0x3e61373b	0.21993725
89	0x3e555944	0.20834833
90	0xbea0a32b	-0.31374487
91	0x3e0251d7	0.12726532
92	0xbe228d41	-0.15874197
93	0x3e34f82a	0.17672792
94	0xbe2ff60f	-0.17183708
95	0x3d1dbea5	0.03851189
96	0xbc8ddea3	-0.017318076
97	0x3df2df5a	0.11859007
98	0xbda510ea	-0.08059867
99	0x3d54b34d	0.051928807
100	0xbe0c015d	-0.13672395
101	0x3d3612fa	0.04445169
102	0xbb93377c	-0.0044926982
103	0x3da5073f	0.08058023
104	0xbe4a1aea	-0.1973683
105	0xbdb1fbd7	-0.08690613
106	0x3e16449c	0.1467461
107	0xbeef60c2	-0.46753508
108	0x3e258b6c	0.16166466
109	0x3e8a6a29	0.2703412
110	0xbe10fd32	-0.14159086
111	0x3d32e4d1	0.043675248
112	0xbd496f50	-0.04917842
113	0xbe48e772	-0.1961954
114	0x3e1e940b	0.15486161
115	0x3e8e8300	0.2783432
116	0xbe54aa64	-0.20768124
117	0xbd318ee9	-0.04334918
118	0xbe9e7a11	-0.30952504
119	0xbd88b0f9	-0.0667438
120	0xbde205cc	-0.11036262
121	0x3dc4f0d9	0.096162505
122	0xbdab25fe	-0.08356856
123	0xbe756877	-0.23965631
124	0x3dfed007	0.12442022
125	0xbe8e306f	-0.27771327
126	0xbe211970	-0.1573236
127	0xbd892093	-0.06695666
128	0x3e848a83	0.25886926
129	0xbeac4991	-0.33649877
130	0x3e2b4676	0.16726097
131	0xbc13233c	-0.0089805685
132	0xbd813cfa	-0.063104585
133	0xbcbaaacf	-0.022786526
134	0xbd792fba	-0.06083653
135	0xbd204a82	-0.039133556
136	0x3d22a002	0.039703377
137	0x3e8a49d3	0.27009448
138	0xbe28bf86	-0.1647931
139	0x3db5b541	0.08872462
140	0x3e85e003	0.2614747
141	0xbe86fcb0	-0.2636466
142	0xbe961570	-0.2931323
143	0xbdcd4e7a	-0.10024734
144	0x3e290359	0.16505183
145	0xbe318492	-0.17335728
146	0xbe165816	-0.1468204
147	0x3ea542da	0.32277566
148	0x3d9461ec	0.072452396
149	0x3e107a18	0.14109075
150	0x3e23bc1d	0.15989728
151	0x3e2f2937	0.17105566
152	0x3df9fdf7	0.12206643
153	0xbb7199ea	-0.0036865422
154	0x3d4fda13	0.05074508
155	0x3d7eec7e	0.062237255
156	0x3e3013ea	0.17195097
157	0x3cb02ce7	0.021505786
158	0xbe68f652	-0.22750214
159	0x3e5af6a7	0.21383153
160	0xbe0bccd4	-0.13652354
161	0xbe35392c	-0.1769759
162	0x3e41ca97	0.18924938
163	0x3dea4e69	0.11440737
164	0xbdd4ae17	-0.103847675
165	0x3b3c3eec	0.0028724028
166	0x3d364a43	0.044504415
167	0x3e95ccc1	0.29257777
168	0xbb5b9add	-0.0033509054
169	0x3e66757a	0.22505751
170	0x3ce227b5	0.027606824
171	0x3e45a0f2	0.19299677
172	0x3cccd2c2	0.02500284
173	0xbd52c0f4	-0.051453546
174	0xbeb837fd	-0.35980216
175	0xbe774e0c	-0.24150866
176	0x3dd0e991	0.10200799
177	0xbd4c0647	-0.049810674
178	0x3c5d14d0	0.013493732
179	0x3e0a9483	0.13533215
180	0xbe5c084b	-0.21487539
181	0xbe3e1a49	-0.18564714
182	0x3e6648e0	0.22488737
183	0x3cee4fd2	0.029090796
184	0x3d827d5d	0.063715674
185	0xbee80652	-0.45317322
186	0x3e0c55b8	0.13704574
187	0x3ec0d389	0.3766139
188	0x3e010d87	0.12602817
189	0xbe946155	-0.28980508
190	0xbe0454fe	-0.12923047
191	0x3e92cc10	0.28671312
192	0x3de1bca2	0.11022307
193	0xbeb8283b	-0.35968193
194	0xbf21f5bc	-0.63265586
195	0xbeabfeea	-0.33592921
196	0x3e2c2118	0.168095
197	0xbe135cb1	-0.14390828
198	0x3cffa280	0.031205416
199	0x3eace1e0	0.3376608
200	0xbdcf95ce	-0.10135995
201	0x3cfbeeee	0.030753579
202	0x3e05e8be	0.13077065
203	0x3e31e792	0.17373493
204	0xbd8ab7c6	-0.06773333
205	0xbe4ba1e1	-0.1988597
206	0xbe60e33e	-0.21961686
207	0xbe0c1678	-0.13680446
208	0x3eb3b865	0.3510162
209	0x3de216f4	0.11039534
210	0xbe2853ec	-0.16438264
211	0x3dbe2cfe	0.09285925
212	0x3bd76c0a	0.0065741586
213	0x3d587808	0.052848846
214	0xbd9a1b76	-0.07524769
215	0x3cdc1e23	0.026869839
216	0x3e334f45	0.17510708
217	0xbea7ea2f	-0.32795855
218	0x3da8155c	0.08207199
219	0xbe717d9a	-0.2358307
220	0xbda09a52	-0.07841934
221	0xbe5914c8	-0.21199334
222	0xbd2b55e7	-0.04182997
223	0x3d67c98b	0.05658869
224	0x3e0cf70b	0.13766114
225	0xbefff3fe	-0.4999084
226	0xbdea6b4a	-0.11446245
227	0xbd10c0bd	-0.03534006
228	0xbe02cd3c	-0.12773603
229	0x3d6cad87	0.057782676
230	0xbdbdb926	-0.0926383
231	0x3e8b5fd3	0.27221546
232	0x3e7430ac	0.23846692
233	0xbe1747d4	-0.14773494
234	0x3e0980e9	0.13428082
235	0xbd9297fc	-0.07157895
236	0xbd9c91d9	-0.07645006
237	0xbe0cdb28	-0.13755476
238	0x3dbb0091	0.091309674
239	0x3dc03aac	0.09386191
240	0xbe04c438	-0.12965477
241	0xbe285245	-0.16437633
242	0xbda4da3b	-0.08049437
243	0x3e3f927e	0.18708226
244	0xbd7d5b72	-0.061854787
245	0xbdad1b80	-0.08452511
246	0x3e4e3441	0.20137121
247	0x3dc66ec2	0.09689094
248	0xbcf8182c	-0.030284964
249	0x3e562e2b	0.20916049
250	0xbdab5076	-0.08364956
251	0xbda02eb3	-0.07821407
252	0xbe76fc01	-0.2411957
253	0x3e649ab6	0.22324643
254	0xbdc5564c	-0.096356004
255	0x3e979d39	0.2961214

critic_net.2.bias f4 [64]
0	0xbd7e925f	-0.06215131
1	0xbd39604d	-0.045257855
2	0x3d1cedcc	0.03831272
3	0x3cc7e021	0.024398865
4	0x3d34485a	0.044014312
5	0xbc66acdd	-0.0140793
6	0x3d2d2ad8	0.042277187
7	0xbd87727d	-0.06613634
8	0xbd4afc73	-0.04955716
9	0x3d821750	0.06352103
10	0xbd3cf323	-0.04613031
11	0xbcff7920	-0.031185687
12	0xbd2136eb	-0.039359014
13	0xbd5000e4	-0.0507821
14	0xbd070689	-0.032965217
15	0x3d357c1b	0.04430781
16	0x3d467a44	0.048456445
17	0x3d30d9ee	0.043176584
18	0x3d30fccb	0.043209832
19	0x3cd8b2c4	0.02645243
20	0x3d8d84bb	0.06910082
21	0xbd5bb91b	-0.053643327
22	0x3d637ddb	0.055539947
23	0x3d62a67f	0.055334564
24	0xbd8730bb	-0.066010915
25	0x3d4b7716	0.049674116
26	0x3d44f95b	0.048089366
27	0x3d5bcd30	0.05366248
28	0xbd1fcf37	-0.039015975
29	0xbd4bcf6a	-0.049758352
30	0x3d7e48fa	0.062081315
31	0x3d3fa3fd	0.04678725
32	0xbd2e0f22	-0.0424949
33	0xbd27ceeb	-0.040968817
34	0xbd1a4873	-0.03766675
35	0x3d4cae3a	0.049970843
36	0xbd162cfd	-0.036663998
37	0xbd1ee452	-0.038791962
38	0xbd2f473c	-0.042792544
39	0x3d0e5409	0.03474811
40	0x3d1c2952	0.038125344
41	0x3d646ce6	0.055767916
42	0xbd6a5852	-0.057213135
43	0xbd0b304e	-0.033981614
44	0xbd226c6b	-0.039654177
45	0xbd0d592d	-0.034508873
46	0xbd1f4ec7	-0.038893487
47	0xbd0417b5	-0.03224917
48	0xbd84d1a0	-0.06485295
49	0xbd2da246	-0.042391084
50	0xbd95f13c	-0.073214024
51	0x3c97b4b0	0.018518776
52	0xbd417461	-0.04723013
53	0x3d354898	0.044258684
54	0x3d8e750c	0.06955919
55	0x3d66fb65	0.056392092
56	0xbd521a90	-0.051294863
57	0x3d60d601	0.05489159
58	0xbcd3fcef	-0.025877444
59	0xbd0b6f25	-0.034041543
60	0x3d410194	0.047120646
61	0x3d4d0af6	0.05005928
62	0xbd8c3adf	-0.06847166
63	0x3d17eb52	0.037089653

critic_head.weight f4 [1, 64]
0	0x3e839fc4	0.2570783
1	0x3d5a972c	0.053366825
2	0xbe053d34	-0.13011628
3	0xbe359ca0	-0.17735529
4	0xbe341282	-0.17585185
5	0x3e15965b	0.14608137
6	0xbe3a7fea	-0.18212858
7	0x3e005f0e	0.1253626
8	0x3e8950f5	0.26819578
9	0xbea16b24	-0.31527054
10	0x3de6c9b5	0.11268941
11	0x3dc56188	0.09637743
12	0x3e8137cc	0.25237882
13	0x3e9c70e0	0.30554867
14	0x3e8da245	0.27662864
15	0xbd21d149	-0.03950623
16	0xbe9784fa	-0.2959364
17	0xbdb550eb	-0.088533245
18	0xbe367450	-0.17817807
19	0xbeb1e763	-0.34746847
20	0xbe31abb7	-0.1735066
21	0x3e1d85b7	0.1538304
22	0xbdea82bf	-0.11450719
23	0xbe1ad747	-0.15121184
24	0x3e01a030	0.12658763
25	0xbe3be387	-0.18348514
26	0xbdcb678c	-0.099318594
27	0xbede270f	-0.43389174
28	0x3dce79ba	0.10081811
29	0x3e83950c	0.2569965
30	0xbe1a1597	-0.15047298
31	0xbe09dbf8	-0.13462818
32	0x3e77e538	0.24208534
33	0x3e5139f2	0.2043226
34	0x3e0a8ca3	0.13530211
35	0xbde0217d	-0.109438874
36	0x3e1b0b72	0.15141085
37	0x3e8dc198	0.27686763
38	0x3d726f66	0.05918827
39	0xbe028bcd	-0.12748642
40	0xbdcd39b4	-0.100207716
41	0xbe511637	-0.2041863
42	0x3e397d29	0.18114151
43	0x3e7e84bc	0.24855322
44	0x3ed02d6d	0.40659657
45	0x3e9309d7	0.28718445
46	0x3e22da7d	0.15903659
47	0x3db31bb6	0.0874552
48	0x3e0b0737	0.13576971
49	0x3dff934a	0.12479265
50	0x3da2b0d2	0.07943882
51	0xbe42f69a	-0.19039384
52	0x3e2da6ed	0.16958208
53	0xbeb50d42	-0.35361677
54	0xbe4627d5	-0.19351132
55	0xbe2bfb17	-0.16795002
56	0x3eefbfa7	0.46825907
57	0xbe29892d	-0.16556235
58	0x3d8f32dc	0.069921225
59	0x3e87fac1	0.26558498
60	0xbec7ff4b	-0.3906196
61	0xbe94bcfc	-0.29050434
62	0x3ea7ae45	0.32750145
63	0xbe88a1c0	-0.26685905

exp_avg f4 [64, 8]
0	0xb99751a0	-0.0002886178
1	0xb996b42a	-0.00028744462
2	0xb9a0931a	-0.00030627177
3	0xb9803f7a	-0.00024461356
4	0xb8479683	-4.7585472e-05
5	0xb7c210cb	-2.3134422e-05
6	0x3a4a132d	0.0007708546
7	0xb9944475	-0.00028279764
8	0x39cdd953	0.00039262566
9	0x39ccd842	0.00039071037
10	0x39d5ad86	0.0004075581
11	0x39803470	0.00024453131
12	0x3881166c	6.155376e-05
13	0x378f5da1	1.7090528e-05
14	0xb9c56a0a	-0.00037653773
15	0x3a0d005c	0.00053787767
16	0xb890c0d7	-6.902374e-05
17	0xb8900fa6	-6.86937e-05
18	0xb8952bb2	-7.1130125e-05
19	0xb80d1266	-3.3634155e-05
20	0xb704daee	-7.918787e-06
21	0xb63b573c	-2.7915949e-06
22	0x3781b79d	1.54635e-05
23	0xb8ca04e6	-9.633023e-05
24	0xb7b30fcf	-2.1345824e-05
25	0xb7b28693	-2.128192e-05
26	0xb78ee9a2	-1.7036513e-05
27	0x376aef9d	1.4003276e-05
28	0xb5596450	-8.0984773e-07
29	0x36ac3558	5.1322095e-06
30	0xb97b8775	-0.00023987687
31	0xb8d6fec5	-0.0001025177
32	0xb9bc9f40	-0.00035976805
33	0xb9bb2524	-0.0003569509
34	0xb9cbe924	-0.0003889288
35	0xb9b3ca23	-0.00034292144
36	0xb87f3597	-6.0846647e-05
37	0xb837eb74	-4.3849883e-05
38	0x3acf8c2f	0.0015834625
39	0xb9531019	-0.00020128525
40	0x3a4e5a51	0.00078717346
41	0x3a4cd9e6	0.0007814452
42	0x3a571a5e	0.0008205528
43	0x3a09def3	0.0005259357
44	0x3906b186	0.00012845368
45	0x385de70a	5.2905678e-05
46	0xbaa78518	-0.0012780754
47	0x3a815f3c	0.0009870301
48	0x3a9b116c	0.0011830754
49	0x3a9a12c8	0.0011754865
50	0x3aa1139a	0.0012289167
51	0x3a3a695e	0.0007111038
52	0x393f508b	0.00018245184
53	0x3881c371	6.187603e-05
54	0xbaba2f56	-0.0014204781
55	0x3acb24ba	0.0015498616
56	0x3736aff7	1.0889015e-05
57	0x373e4ec7	1.1343224e-05
58	0x376ea0db	1.42233575e-05
59	0x38184952	3.630791e-05
60	0x360bbae9	2.082141e-06
61	0x3663a881	3.3923718e-06
62	0xb97b2018	-0.00023949181
63	0xb80b573b	-3.3221422e-05
64	0x38717063	5.7563546e-05
65	0x3870b2e9	5.7387082e-05
66	0x38814ac6	6.165127e-05
67	0x385612cb	5.103908e-05
68	0x37214853	9.613187e-06
69	0x368c89f7	4.1883864e-06
70	0xb918f0c0	-0.00014585536
71	0x385b4ee4	5.228714e-05
72	0xba03f1ee	-0.0005033304
73	0xba031ea1	-0.00050018175
74	0xba07a145	-0.00051738723
75	0xb991adb0	-0.00027785962
76	0xb88effde	-6.8187466e-05
77	0xb7b1d82d	-2.1200709e-05
78	0x399523c0	0.0002844613
79	0xba35a243	-0.0006928781
80	0xb9c129d1	-0.00036842984
81	0xb9bf3ac9	-0.00036474157
82	0xb9c3996a	-0.000373076
83	0xb94acfbf	-0.00019341613
84	0xb85a99b9	-5.2118416e-05
85	0xb795aecb	-1.7843578e-05
86	0xb7af072d	-2.0864967e-05
87	0xba1a4bf1	-0.000588595
88	0x39f1132f	0.00045981395
89	0x39efc8f8	0.00045735366
90	0x39fbc1e7	0.0004801892
91	0x39964821	0.0002866397
92	0x38915c1d	6.931296e-05
93	0x37c2c3e6	2.3217824e-05
94	0xba21497f	-0.00061526144
95	0x3a13aa3a	0.0005632971
96	0xba5f71c0	-0.0008523725
97	0xba5db1a1	-0.000845695
98	0xba66b539	-0.0008800808
99	0xba000ac8	-0.0004884419
100	0xb9073297	-0.0001289345
101	0xb842d72c	-4.64536e-05
102	0x3a510160	0.0007972922
103	0xba999be9	-0.0011719438
104	0x38142ff9	3.5330628e-05
105	0x381683f9	3.5885696e-05
106	0x3828ae71	4.0216783e-05
107	0x38137f56	3.5166122e-05
108	0x36dda014	6.604949e-06
109	0xb21234e0	-8.510341e-09
110	0xb9395e27	-0.0001767805
111	0x3708ef14	8.161896e-06
112	0xba450863	-0.00075162033
113	0xba43e1be	-0.0007472298
114	0xba4b6f91	-0.000776046
115	0xb9db9a7d	-0.00041886038
116	0xb8ea96a4	-0.000111860485
117	0xb8074b67	-3.2256732e-05
118	0x3a27f480	0.0006406978
119	0xba89f80f	-0.0010526198
120	0x37efbaba	2.8577972e-05
121	0x37e974ae	2.7830098e-05
122	0x380aeff4	3.3125238e-05
123	0x3855b2f8	5.0949835e-05
124	0x36f281c5	7.227269e-06
125	0x37351aa3	1.0794643e-05
126	0xb9b7368a	-0.00034945115
127	0xb7ecbc1d	-2.822099e-05
128	0xba7a2e43	-0.00095436367
129	0xba78ce55	-0.0009491195
130	0xba818ab7	-0.0009883259
131	0xba12a27d	-0.00055936706
132	0xb91751c6	-0.00014430945
133	0xb831e737	-4.2415424e-05
134	0x3a74f4cf	0.00093443407
135	0xbaaa3d12	-0.0012988171
136	0x3a6bba70	0.000899232
137	0x3a69ec89	0.0008923491
138	0x3a751603	0.00093492883
139	0x3a17fa62	0.0005797503
140	0x391a9361	0.00014741487
141	0x3873cf56	5.812881e-05
142	0xbaac699f	-0.0013154036
143	0x3a9a028b	0.0011750025
144	0x3a8d1492	0.0010763577
145	0x3a8c1cf6	0.0010689783
146	0x3a93a0a5	0.0011263086
147	0x3a3fd3e2	0.0007317645
148	0x39390ce0	0.00017647771
149	0x3894c051	7.093012e-05
150	0xbaf0575b	-0.0018336581
151	0x3aaaae1e	0.0013021862
152	0x391ccb27	0.00014953
153	0x391b08cd	0.0001478523
154	0x391fb6b9	0.00015231491
155	0x38cbaae1	9.711623e-05
156	0x37c2fe4b	2.3245017e-05
157	0x373ba8af	1.1185343e-05
158	0xb9032936	-0.00012508486
159	0x3967fbf9	0.00022123744
160	0xba1df045	-0.00060248777
161	0xba1d32a0	-0.00059966184
162	0xba24f397	-0.0006292401
163	0xb9d5800d	-0.0004072193
164	0xb8cf6133	-9.888634e-05
165	0xb8022d48	-3.1036587e-05
166	0x3a63de44	0.0008692483
167	0xba4afdb6	-0.00077434944
168	0xba1c16a6	-0.00059543026
169	0xba1b626d	-0.00059274473
170	0xba21aa8a	-0.0006167075
171	0xb9b08068	-0.00033665006
172	0xb8c03911	-9.165903e-05
173	0xb7b34a1f	-2.1372978e-05
174	0x3a03e07b	0.00050307036
175	0xba5b2962	-0.00083603535
176	0x39f7a135	0.0004723162
177	0x39f58edf	0.0004683649
178	0x3a00502d	0.00048947596
179	0x39915d25	0.00027725953
180	0x389a0b40	7.345388e-05
181	0x37e97e22	2.78345e-05
182	0xba004c0c	-0.00048941444
183	0x3a25455a	0.00063045847
184	0x38630e7a	5.41345e-05
185	0x385f40c3	5.3227657e-05
186	0x385b22ec	5.2246192e-05
187	0xb601ffd5	-1.9371412e-06
188	0x3693f8e5	4.4099165e-06
189	0x3586f74c	1.0055751e-06
190	0x392ae87a	0.00016299068
191	0x38eeb464	0.00011382325
192	0x39b6505c	0.00034773618
193	0x39b587bc	0.0003462414
194	0x39c1d446	0.00036969985
195	0x39936c9d	0.00028118948
196	0x387c5371	6.0159193e-05
197	0x37de2c00	2.6484951e-05
198	0xba82d09f	-0.0009980387
199	0x39b6459a	0.00034765602
200	0x391bacd7	0.0001484634
201	0x3919e288	0.00014675607
202	0x39248cb7	0.00015692679
203	0x38fb73c7	0.00011990178
204	0x37e74a35	2.7571901e-05
205	0x378ccfe8	1.6786114e-05
206	0xb9f690fb	-0.00047028795
207	0x391d72b2	0.00015015414
208	0x3ad96e71	0.00165887
209	0x3ad7ef81	0.0016474576
210	0x3ae30771	0.0017320943
211	0x3a9162b2	0.0011092036
212	0x398e3436	0.0002712325
213	0x38e1ba0a	0.000107634885
214	0xbb32895d	-0.002724252
215	0x3b0749e2	0.0020643403
216	0xba86a9ba	-0.0010273971
217	0xba861aea	-0.001023141
218	0xba8dba3d	-0.001081295
219	0xba4694a7	-0.00075752515
220	0xb932c6eb	-0.00017049506
221	0xb87c347d	-6.0130365e-05
222	0x3b051b03	0.002031029
223	0xba9c8630	-0.0011941846
224	0xb7fec345	-3.0370089e-05
225	0xb7ff5c60	-3.0441384e-05
226	0xb7fe06f4	-3.0282397e-05
227	0xb724b044	-9.816202e-06
228	0x362583c8	2.4663623e-06
229	0xb4c172bb	-3.603253e-07
230	0xb7928aea	-1.7469243e-05
231	0xb7bdb7da	-2.2616168e-05
232	0xba148653	-0.0005665768
233	0xba135344	-0.00056200125
234	0xba179a87	-0.0005783219
235	0xb99ea685	-0.00030260175
236	0xb8a8f467	-8.056388e-05
237	0xb7ca2c95	-2.4101037e-05
238	0x381463ed	3.5379013e-05
239	0xba60d781	-0.00085770345
240	0x39a95a7c	0.00032301608
241	0x39a77e5c	0.00031946867
242	0x39b05bec	0.00033637823
243	0x395c349f	0.00021000438
244	0x3858a87f	5.1655337e-05
245	0x37ea869f	2.7957662e-05
246	0xba1c6b4a	-0.0005966915
247	0x39c83f34	0.00038194063
248	0x3964c610	0.00021817558
249	0x39635192	0.00021678794
250	0x39735c20	0.00023208605
251	0x392b4554	0.00016333658
252	0x38232167	3.8893337e-05
253	0x378d6aa8	1.6858176e-05
254	0xba17817c	-0.00057794875
255	0x3960b056	0.00021427995
