results/long_stable_training/models/checkpoint_80.pt (torch, 179619 bytes, 30 tensors)

actor_net.0.weight f4 [64, 8]
000000 bb 95 24 bd 0d f1 e9 bd de 96 98 3e bd 63 dc 3e
       -0.040181857 -0.1142293 0.29802603 0.43044844
000010 0d 74 86 be ee 07 ac 3e 6e a3 58 3e a5 f3 11 3c
       -0.26260415 0.335998 0.21156093 0.008908187
000020 1b fb 7f 3d 39 03 24 3e e0 b4 a9 bd 05 ec 96 bd
       0.062495332 0.16016854 -0.08286452 -0.07369236
000030 11 8c 4d be 2a 44 35 3d 82 99 2e 3e 3a 5e ab bd
       -0.20072962 0.04425446 0.17050746 -0.08367582
000040 1c d4 9b 3d 33 12 64 be c9 e6 cb 3d 84 be c3 3d
       0.07608816 -0.22272567 0.09956128 0.09557822
000050 8c 1a c3 3d 1f a4 05 be 0a 0f 1f 3e 8b 0c 2c be
       0.09526548 -0.13050888 0.1553308 -0.1680166
000060 4f b1 56 3c c5 b2 fc bd 55 18 cf bc 46 d9 02 3e
       0.013103797 -0.12338785 -0.025280157 0.12778196
000070 78 96 fc 3e d6 0f 22 be 49 5d 2e be d3 7f 0c be
       0.4933355 -0.15826353 -0.17027773 -0.13720636
000080 7a 3a ad 3e b3 a8 3f 3e 28 de 2a be 10 f1 3b 3e
       0.33833677 0.18716697 -0.16686308 0.18353677
000090 1c 2d ce bd b7 85 76 3d a3 9c a8 be 8f 52 03 3f
       -0.10067198 0.060186114 -0.32932004 0.5129785
0000a0 f0 ee 32 bd 00 87 2e be 49 b8 05 bd 83 29 7b be
       -0.0436849 -0.17043686 -0.03264645 -0.24527554
0000b0 33 03 a0 3d b4 d6 7a 3d 35 6c 21 3e 6f a6 2b 3d
       0.0781311 0.061239913 0.15763934 0.04190677
0000c0 18 e4 92 3e 76 9f 54 be 00 4a b5 3e a9 87 5d be
       0.28689647 -0.20763955 0.3540802 -0.21633781
0000d0 43 44 05 bf 6b 10 01 3e be ae 00 bd cf f4 c9 bb
       -0.52057284 0.12603919 -0.031416647 -0.0061632167
0000e0 a7 24 cb be e1 29 13 3d f2 0f ac be 51 5a 95 be
       -0.396764 0.03592861 -0.33605915 -0.29170468
0000f0 66 db d0 3e 59 2b 71 3e 58 9b 0a bd 0e 31 60 be
       0.40792388 0.23551692 -0.033839554 -0.21893713
000100 46 08 7c 3e 79 c5 d6 bd 81 14 2f 3c 74 b6 99 be
       0.24612531 -0.10486884 0.010686041 -0.30022013
000110 54 4a a2 bc 43 31 42 3d 57 e7 b0 be 98 0f ac 3d
       -0.019810833 0.04741026 -0.34551498 0.08401412
000120 76 47 9a be e4 08 fd bd f1 c9 b6 3c 2a 99 94 3e
       -0.30132645 -0.123552114 0.02231309 0.29023105
000130 8e c0 37 3e 8b ea 11 be 10 68 3f be a4 d4 40 be
       0.17944548 -0.14249627 -0.1869204 -0.18831116
000140 46 48 d6 bd a2 cb e8 bd f8 dc fb bd 9a 3e 3d 3d
       -0.10463004 -0.11366965 -0.12298006 0.04620228
000150 34 4a f3 3d d0 9d df bb e8 f0 e8 be ff d1 5c bc
       0.118793875 -0.0068242326 -0.45496297 -0.013477801
000160 cc 9f 5f 3d f6 d8 da bd c6 44 c1 bd 67 0e 80 be
       0.054595754 -0.10685913 -0.094369456 -0.25010988
000170 9c 8f 81 3d 43 8b 44 3d 07 8e 16 3c 8d ef 12 3e
       0.063262194 0.047984373 0.009189135 0.14349194
000180 7e 25 08 be e6 de e5 bd d8 d9 d1 bd c4 42 b2 3e
       -0.13295552 -0.11224155 -0.102466285 0.34816563
000190 f9 05 07 3f d6 75 7a bc 0e 25 b8 bd dd 69 9b bc
       0.5274349 -0.015286883 -0.089914426 -0.018971378
0001a0 75 00 a9 be c3 ce 70 bd 80 82 db bd 73 c3 91 be
       -0.3300816 -0.058790933 -0.1071825 -0.28469428
0001b0 ec 56 6a 3e 39 84 b6 3d 16 4e 70 ba fa 11 44 3e
       0.2288472 0.08911938 -0.0009166909 0.19147483
0001c0 8a 70 93 3d ca bd fc be 46 c8 8b be 5f cf 81 3e
       0.071991995 -0.49363548 -0.27301234 0.25353524
0001d0 46 2d da 3e dd c2 2e bd 87 de 39 3d 24 46 b4 3c
       0.42612666 -0.042666305 0.045378234 0.022006102
0001e0 be b0 40 bd 71 1c 45 be dd fa bf be 23 f4 29 be
       -0.047043554 -0.19249131 -0.3749608 -0.16597037
0001f0 cb a5 ac 3d 14 53 73 be 69 58 d2 3d 26 bb eb bd
       0.0843006 -0.2376216 0.10270769 -0.11510305
000200 be 8a 9e be 12 55 7b bd ca ae 99 3c 78 57 b1 3e
       -0.30965227 -0.061360426 0.018760104 0.34637046
000210 6f dd 5b 3d 6c 87 5a bd a1 55 0a be 57 0c 5f bc
       0.053677972 -0.053351805 -0.13509227 -0.013613782
000220 d0 e1 3c 3d 67 c6 f9 3d 86 76 4c bd 2d b2 78 be
       0.04611379 0.12196045 -0.04991772 -0.24286719
000230 8a 74 ac bd 15 21 e5 3d 9a ad 61 3e cc 5d 35 be
       -0.084206656 0.111879505 0.2203888 -0.17711562
000240 a6 14 ce 3d 6b 67 b1 bd f2 8a ae 3d ba f4 a8 be
       0.10062532 -0.086623035 0.085225955 -0.32999212
000250 dd 53 8b 3e 5b ff 19 be ae 43 6d bd ca 63 c4 bd
       0.2721242 -0.15038817 -0.057925873 -0.09589346
000260 a1 ae a4 3e f5 ab 19 be 42 1c 9c be 81 25 6b bd
       0.3216448 -0.15007003 -0.3049031 -0.057408813
000270 8b af 9a bd 1b 6d 09 3e 8b 73 bf 3e 91 09 32 bc
       -0.075530134 0.13420527 0.3739284 -0.010866539
000280 6b d6 6e bc b3 fd be bc 0f db bf bc f1 2c 0e 3f
       -0.014577488 -0.023314333 -0.023419885 0.55537325
000290 ba 1d 77 3e e7 64 a9 be 87 b5 f9 3d 77 b5 18 be
       0.24132434 -0.33084795 0.12192827 -0.14912973
0002a0 f3 bf f2 3c 08 aa ab be 72 85 0e be 6b 7e ce 3d
       0.029632544 -0.3352816 -0.13918093 0.10082706
0002b0 4b a1 7b 3d 1b 7a 3e be b8 17 e0 bc 15 5e 09 bd
       0.061433118 -0.18601267 -0.02735506 -0.03353699
0002c0 04 91 0e be 10 26 d8 bc 95 ac df 3e c9 0f ad bd
       -0.13922507 -0.026385337 0.43686357 -0.084502764
0002d0 79 94 35 be 5f 34 84 bd c8 29 bb 3d ef 8c bc 3d
       -0.17732419 -0.064553015 0.091388285 0.092065684
0002e0 c4 97 67 be e7 47 31 3e a5 a4 8e 3d 21 f7 d7 bd
       -0.22616488 0.17312585 0.06964997 -0.10545183
0002f0 74 31 ab be 6b 4e 6e be 28 9f c0 bd f1 51 a5 3d
       -0.33436167 -0.23272102 -0.09405357 0.0807227
000300 59 8a d7 3d f3 a8 df 3d de f9 e9 be 49 18 4d 3d
       0.105244346 0.109208964 -0.45698446 0.05007199
000310 40 8b 3c 3e a3 7b 79 bc cf 60 66 3e 00 1b 61 be
       0.18412495 -0.015227231 0.22497867 -0.21982956
000320 2c 4d e5 bd fc ed f1 bd cb 02 28 be a9 e4 50 be
       -0.1119636 -0.1181297 -0.16407315 -0.20399727
000330 0b 83 0e be 6c 60 2c be 44 c0 07 3e 40 55 cf bd
       -0.13917176 -0.16833657 0.13256937 -0.10123682
000340 1f d3 3a 3e 80 73 89 bc c9 dd ec bd ab 36 76 be
       0.18244599 -0.016778708 -0.1156574 -0.24044292
000350 bc 7f 82 3e bd cb 75 bc 61 83 37 3e 7b 75 2a be
       0.2548808 -0.015002188 0.17921211 -0.16646378
000360 52 9a 75 bd 6f d0 12 bd 92 fa 4c 3d e5 bb 05 3f
       -0.059961624 -0.03584331 0.05004365 0.5223983
000370 1c d2 95 be 3f ff 05 bf 07 53 23 bd e8 9f 28 3e
       -0.29261863 -0.523426 -0.039874103 0.1646725
000380 ae 15 9b 3d 76 5a 94 3e d2 d2 07 be 9f 0e 92 3d
       0.075724944 0.28975266 -0.13264015 0.07131695
000390 84 48 bb bc e1 55 f7 3d aa 78 0e be ad 36 e5 bd
       -0.022861727 0.12076927 -0.13913217 -0.11192069
0003a0 20 3b d9 3c 4b e2 3b be e4 09 9b bd c8 03 d1 3d
       0.02651745 -0.18348043 -0.07570246 0.10205799
0003b0 68 5a 65 be ae 3f a8 bd f0 98 de be c7 44 99 bd
       -0.22397768 -0.08215271 -0.43476057 -0.07483821
0003c0 cd c9 1c 3e 89 1d 83 3d 31 ae dc 3e 8c 02 03 bd
       0.15311356 0.06402118 0.43101647 -0.03198485
0003d0 ee 0b 45 be 77 04 37 be af d3 75 be ec fe fe 3b
       -0.19242832 -0.17872797 -0.24006532 0.007781854
0003e0 a0 a5 c0 be a0 48 27 be 9e 5a 03 3e b6 b5 a0 bd
       -0.37626362 -0.16336298 0.12827536 -0.078471586
0003f0 2b 1e 64 3e 44 2a 60 3e 84 c6 cb 3d a6 ba a5 3d
       0.22277133 0.21891123 0.09949973 0.08092241

actor_net.0.bias f4 [64]
000000 41 cd 3e 3d 19 d3 0c 3c 2c 06 81 3d 71 42 47 3d
       0.046582464 0.0085952515 0.06300005 0.048647348
000010 a2 d2 11 bd 91 7f 07 3d 15 91 97 bd 63 28 79 bd
       -0.035601266 0.03308064 -0.07400719 -0.06082953
000020 e4 ef 6e bd 7c 03 13 bc 38 74 c9 bc ef a5 4e bc
       -0.058334246 -0.008972999 -0.02459155 -0.012612804
000030 fc 3f 51 3d 41 09 c0 bc 95 03 90 3d 60 08 1d 3d
       0.05108641 -0.023441913 0.07031933 0.038338065
000040 ca 88 c3 3b 0b 6c 26 bc b6 db 30 bc 1c 62 e6 3b
       0.0059672343 -0.010157595 -0.010794571 0.0070307385
000050 ce 53 0e 3d e3 04 47 bd cb ac d7 3c 96 13 5d bd
       0.03474789 -0.048588645 0.026327511 -0.053973757
000060 16 8e fe 3c f4 1d de bb b8 95 05 3d 2b 3a 4d 3c
       0.031073611 -0.006778473 0.032613486 0.012526075
000070 75 5b 32 3d 42 a5 00 bd ef 7e 95 bd ec ae 14 3d
       0.04354425 -0.031407602 -0.07299601 0.03629963
000080 e5 9e 11 3d 60 73 3b 3b 0a 71 9b 3c 6f a4 13 3d
       0.035551924 0.0028602704 0.0189748 0.036045488
000090 97 dc 80 3d b5 5c 0c 3d 44 ba 14 bd 90 4f eb bc
       0.06292074 0.0342681 -0.03631045 -0.028724462
0000a0 cf 72 4d 3d f2 cd 2d 3d b8 1c eb bc 89 73 07 3d
       0.050158318 0.042432733 -0.028700218 0.033069167
0000b0 77 ea 44 bb 2f 76 15 3e da 5c 0d 3c dd e8 02 bd
       -0.0030046978 0.14595865 0.008628095 -0.031960357
0000c0 07 de 2e 3d 27 c6 fb bc 8e 0b e2 bc 98 19 00 bd
       0.04269221 -0.030734135 -0.0275934 -0.031274408
0000d0 f7 97 1d bb 3d ec 13 3d 37 0a 39 3d 3f 47 52 3c
       -0.0024046877 0.036113966 0.045175757 0.012834369
0000e0 c1 7d 42 bd 01 99 bb bd 5d 72 45 3c 01 6c 82 bd
       -0.04748321 -0.091600426 0.012051192 -0.06368256
0000f0 69 cd 1b bd e2 87 90 3c a1 9a ca 3c 8c cd 58 bd
       -0.03803769 0.017642919 0.024731936 -0.0529304

actor_net.2.weight f4 [64, 64]
000000 f4 f7 02 3e 6a 9d 46 bd 81 5a 89 be 02 97 50 3d
       0.12789899 -0.048489965 -0.26826862 0.050925262
000010 d3 5f 98 3e 52 53 c5 be b7 2c 8c be 75 c1 ef 3d
       0.29760608 -0.3854013 -0.27377865 0.11706821
000020 0d 4b 4a 3e 55 cb 6a 3c b9 f3 22 bd 56 e4 2b be
       0.19755192 0.014330705 -0.039783213 -0.16786322
000030 46 35 cc bd 77 37 f2 bb 0b a1 64 be 6e c9 0b 3e
       -0.099710986 -0.007391866 -0.22327058 0.13651058
000040 2c fa 8c 3e 97 92 4d be e5 9d c7 bd a9 13 28 be
       0.27534616 -0.20075451 -0.09746913 -0.1641375
000050 10 fd 23 3e c5 b9 93 3e de 55 03 3e c8 9b ea 3d
       0.16014504 0.28852668 0.12825724 0.11455494
000060 31 3b ef 3d 2b 38 8d be 82 e3 2b be 5e 17 69 be
       0.11681212 -0.27581915 -0.16786006 -0.2276282
000070 c3 e0 14 be 2c 69 7f 3e f0 f7 06 3e df 4a 7b 3e
       -0.14538865 0.24942464 0.13180518 0.2454028
000080 7b 41 4c be f1 e3 d8 bd 3e 38 f0 3b f5 ef f6 bd
       -0.19946854 -0.105903514 0.0073309233 -0.12057487
000090 6f 57 81 3e 6a c1 b1 be 52 14 54 bd b2 10 37 be
       0.2526202 -0.34717876 -0.05177719 -0.17877463
0000a0 de a5 be be fb f9 c0 3c 7b 69 54 be ca 94 3b be
       -0.37235922 0.0235567 -0.20743363 -0.18318477
0000b0 0b 69 07 be f1 a7 4a 3e 0c 5d df 3b e4 26 c4 bd
       -0.13223664 0.19790627 0.006816512 -0.0957773
0000c0 2a 40 49 3e 4b ed 56 3e 52 63 d5 3c 48 3c a0 3d
       0.19653383 0.20988958 0.026048336 0.07823998
0000d0 9a 92 12 3e b6 9c b8 3e 81 33 85 bd 6f 21 a9 bd
       0.14313737 0.3605706 -0.06503964 -0.0825833
0000e0 ee 85 1a 3e c5 53 16 3e 2b 5f 20 bd d5 80 04 be
       0.15090153 0.14680393 -0.03915326 -0.1293977
0000f0 c2 92 39 bc 2a ad 67 3d a7 c8 f5 3d 39 29 76 3d
       -0.011326494 0.056561626 0.12001162 0.060097907
000100 3a 1d c4 3d 59 85 74 3e e7 7b 1d be b8 49 c6 3e
       0.09575887 0.23878993 -0.15379296 0.38728118
000110 b6 73 43 3e ff 91 9f be a7 c2 fb bc d3 aa ef bd
       0.19087109 -0.31166074 -0.030732466 -0.11702504
000120 eb 5e 1f 3e 57 2e 54 3e 06 13 90 3d 25 b1 b2 3e
       0.15563552 0.20720802 0.070348784 0.34900776
000130 d3 cb 9d 3d 25 e0 22 be 55 41 81 3e 1d ed 3f be
       0.07704892 -0.15905817 0.25245157 -0.18742795
000140 c2 5c b0 3e d0 f4 87 be 84 73 3a 3e a9 91 60 be
       0.3444577 -0.26553965 0.18208128 -0.21930565
000150 e7 b9 64 3e 74 90 96 3c 30 2d f7 3c e3 b0 30 3e
       0.22336541 0.018379427 0.030172914 0.17254977
000160 00 29 12 be 1b aa 38 be db ae 78 3c 8f da 18 3e
       -0.14273453 -0.1803364 0.015178408 0.14927123
000170 c9 7c 6a 3c ab 98 b7 be f8 5e 62 be f4 42 04 3c
       0.014311978 -0.35858664 -0.2210654 0.0080726035
000180 08 c9 dd bd 5c 67 08 be cf 94 97 be 29 77 8b be
       -0.10829359 -0.13320678 -0.2960572 -0.2723935
000190 a8 70 39 3e 30 07 5e 3e fb 7c 31 3e 6e 19 4d 3e
       0.18109381 0.2168243 0.17332833 0.20029232
0001a0 d2 8b 7d 3c 73 0e eb 3d 44 6f 99 3e 33 87 93 3d
       0.01547523 0.11477365 0.299677 0.072035216
0001b0 d3 15 a3 bc 94 c0 85 3e 51 5f 6a be 4b e6 07 be
       -0.019907868 0.26123488 -0.22887923 -0.13271444
0001c0 c0 57 7e 3e eb 6f 94 bb ff fd 96 3e 4b 1e cc 3e
       0.24838161 -0.004529943 0.2949066 0.39866862
0001d0 5c 40 31 bd d5 d3 56 bd 08 39 83 be d4 4a 51 be
       -0.04327427 -0.052448113 -0.2562945 -0.20438701
0001e0 b2 a3 b3 3c 52 a3 f7 bd e0 f7 5d bd 24 ad 12 3e
       0.021928642 -0.12091698 -0.05419147 0.1432386
0001f0 8d ec c0 3d 23 fe ae 3e 8c 1e 70 be b9 ff d1 3d
       0.094201185 0.34178266 -0.23449153 0.10253853
000200 20 f8 c4 3c ce 6c e9 3d 6e ab 24 3e 3f d9 7b bc
       0.024044096 0.11397706 0.1608102 -0.01537162
000210 34 3e 36 3e 0f f6 8c bd bb 7b e9 3d d8 d9 f7 bd
       0.17797166 -0.068828695 0.11400553 -0.12102097
000220 21 23 91 3e 6b 87 17 3e 4e 11 ff bd 07 42 1b bd
       0.28347114 0.14797752 -0.124544725 -0.037904765
000230 66 a4 28 bd 49 ef 9f 3d 8a da 81 bc b8 d0 fc bd
       -0.041172408 0.07809312 -0.015851278 -0.123444974
000240 be ff 26 3e 52 ba 86 bd fb 94 16 be 80 d2 0b bc
       0.16308495 -0.065785065 -0.14705269 -0.008534074
000250 7a 58 4b be e1 44 cd 3d 85 ce 3e be 67 cb c5 3e
       -0.1985797 0.10022903 -0.18633468 0.38631746
000260 7b 70 90 3e 48 92 61 3e 3a 9e 90 be c1 1d ff 3d
       0.28210816 0.22028458 -0.28245717 0.12456847
000270 e0 f0 c8 3d d8 6a 18 3e 84 88 e6 bb 73 7c a8 be
       0.09811568 0.14884508 -0.007035317 -0.32907447
000280 dd 42 7d be 68 f3 c8 3d 6d 2c 09 3c f6 43 90 3e
       -0.24732538 0.09812051 0.008372408 0.2817685
000290 0d 97 73 3e d2 cc 44 bd de b7 75 3e 7a 0d 1b 3e
       0.2378809 -0.048046894 0.23995921 0.1514186
0002a0 56 84 62 3e 18 ea 6a 3d 1d af 99 be df 49 ae 3e
       0.22120795 0.057352155 -0.30016413 0.34040734
0002b0 60 d8 a3 3e 84 63 f6 3d 3e 0d 98 3e 25 d1 1c bc
       0.3200102 0.120307 0.29697603 -0.009571348
0002c0 6f 8d 3f be bf 17 c1 3d f2 13 d3 3a 7d 83 96 3d
       -0.18706296 0.09428357 0.0016103967 0.07349298
0002d0 6b 2a 04 3d 59 94 74 3e c0 e1 2d 3d a7 c0 88 bd
       0.032267015 0.23884715 0.04245162 -0.066773705
0002e0 59 8d 8a 3c 95 ff a1 bd 30 3e 9b 3d 79 16 3e 3e
       0.016913103 -0.079100765 0.07580221 0.1856326
0002f0 ae 3c e1 3e ac dd c4 3d 36 4e 2d be 6c 17 94 3e
       0.43991607 0.09612593 -0.16924366 0.2892412
000300 1f 40 22 be da 54 06 bd b9 86 75 bd 9e 84 1f be
       -0.15844773 -0.032795765 -0.059942935 -0.15577933
000310 48 b9 9d 3c 5c b0 9b 3c 03 97 b1 bd 52 61 2c bd
       0.019253388 0.019004993 -0.08671381 -0.042085
000320 d3 43 90 be 88 ba ee 3d 8d ab 54 3d 2c 37 0a 3d
       -0.28176746 0.11656672 0.051921416 0.033744022
000330 b3 1f 0c 3e 82 89 9d 3d bf 36 c6 3d 1a d1 6c be
       0.13683967 0.07692243 0.09678411 -0.23126641
000340 99 fd 54 3e f9 81 8c 3e 92 84 4e be 40 48 58 be
       0.20799865 0.2744291 -0.20167759 -0.21121311
000350 ed 90 84 be 19 75 d5 bc 8e 14 9d 3e fd 90 b4 bd
       -0.2589182 -0.026056813 0.30679744 -0.08816717
000360 11 62 20 3e 97 f1 57 be c2 40 8b be 45 9e cb bd
       0.1566241 -0.21088253 -0.27197844 -0.09942297
000370 d6 25 1c 3e b4 9c 82 be 76 6d 35 3d 51 5a a4 3b
       0.15248808 -0.2551018 0.044293843 0.0050156494
000380 c4 5a ab 3e fe ea 94 be 31 cc 03 3c cc 93 02 3d
       0.33467686 -0.29085535 0.0080442885 0.03187923
000390 68 a6 b6 3e b1 77 08 3c cc 2e 8e be e5 01 10 3e
       0.35673833 0.008329318 -0.27770078 0.14063223
0003a0 76 3f ca be cd 4d a4 bd 7e c2 1d 3e c1 c4 9a 3d
       -0.39501542 -0.08022652 0.15406224 0.07557059
0003b0 03 f9 8f 3e e8 72 7c bd cd ba ef bd 33 ee 68 3e
       0.28119668 -0.06163302 -0.11705551 0.22747116
0003c0 ff 6b 96 be fc e3 ba bd 75 d5 64 3e 00 d4 98 bd
       -0.2937927 -0.09125516 0.22347052 -0.07462311
0003d0 ce 69 2c be ad 1e 95 bd b1 01 dc 3c f4 67 e6 3d
       -0.16837236 -0.072812416 0.026856275 0.11250296
0003e0 65 a5 76 3e cf 5d 23 3e 21 b8 02 3e 89 e5 83 bd
       0.2408653 0.15953754 0.12765552 -0.06440265
0003f0 1e 25 ba bd 00 85 5b bd 8f f7 d2 bd 51 d9 bc 3e
       -0.09089111 -0.053593636 -0.10301124 0.3688455

actor_net.2.bias f4 [64]
000000 b7 da 0c bd af 97 4e bb ae b3 f4 bc 7a 8e 45 bd
       -0.03438827 -0.0031523516 -0.029870834 -0.04823158
000010 9c ec b0 bc 59 c2 f2 bb fc d1 0e 3d d3 06 17 bd
       -0.0215972 -0.007408422 0.034868225 -0.036871742
000020 8e 36 24 bc 2c d9 89 3c 8e d5 31 3d d6 e6 e7 bc
       -0.0100227725 0.016827188 0.043416552 -0.028308313
000030 2c d7 4d 3b 50 a2 21 bd ac d4 e4 bc 33 6c 6f bc
       0.003140877 -0.039461434 -0.027933441 -0.014613199
000040 c4 bb 38 3d 1f 5f 81 3b 80 e5 09 bd e7 26 04 3d
       0.045100942 0.003948107 -0.033666134 0.032263663
000050 9c 54 9d bc 23 9d 18 bc 2f 40 59 3d af 13 4f bc
       -0.019205384 -0.009314808 0.053039726 -0.01263897
000060 c0 3d 07 3d 4e 19 31 3a d8 55 9a 3c 9d f6 fb 3c
       0.033017874 0.0006755785 0.018839762 0.030757243
000070 1b 04 2d bd 94 5b dc 3c d4 ba 61 3c be b4 fa 3c
       -0.042240243 0.026899137 0.013777453 0.030603763
000080 a9 5d 2a 3d 6a 69 0b 3d 79 cf ff bc 9e 5b 13 bd
       0.041593228 0.034036078 -0.03122686 -0.035976045
000090 33 e3 bd bb cb 33 54 3d e9 27 f8 bc 63 67 e4 bb
       -0.0057949065 0.051807206 -0.030292468 -0.0069703325
0000a0 e0 79 fb bc 98 1a b5 3c d3 b7 18 3c 7d ca ea bc
       -0.030697763 0.022107407 0.009321171 -0.028661007
0000b0 62 06 0a bd 6b 0c 83 3c 9c 2c aa bc 58 e4 5b bd
       -0.033697493 0.015997132 -0.020773225 -0.053684562
0000c0 38 13 aa bc 9e 6e 02 3d f6 0f 51 3d 5b e4 ca 3b
       -0.020761117 0.031843774 0.051040612 0.006191773
0000d0 6b b6 e6 bc 8f e1 5b bc e9 cd 29 3d 78 9e 14 bd
       -0.028163156 -0.013420477 0.041456137 -0.03628394
0000e0 e1 e6 0f bd b9 c8 c1 bc 6b 59 67 b9 af e6 1b 3d
       -0.035132293 -0.023655282 -0.00022063187 0.038061794
0000f0 fb 46 07 bd 57 41 13 bd d6 83 15 3d 42 a2 d6 bc
       -0.033026677 -0.035950985 0.03650268 -0.026200417

actor_mean.weight f4 [1, 64]
000000 79 b5 5a 3c c8 c4 47 3d 0e 5b bc 3c 17 13 d8 3c
       0.0133489305 0.04877165 0.022992637 0.02637629
000010 e9 64 24 bd b1 0d 5d 3d ca d3 e0 bc bb 47 34 3d
       -0.040135298 0.053968135 -0.027444739 0.04401372
000020 73 2b 30 3d b5 7f 4c bd d3 14 b6 bc aa 72 04 3d
       0.043010186 -0.04992648 -0.022226727 0.032335915
000030 9f 64 25 bd 27 51 84 3c b8 27 80 3c 34 37 43 3d
       -0.040379163 0.016151978 0.01564394 0.047660068
000040 1b d5 e6 bc ac 83 ab 3d 39 2b 9a 3b 96 ad 11 bd
       -0.028177788 0.08374724 0.0047048596 -0.035565935
000050 7b 70 d6 3c d1 b6 8c bd 98 71 8d bc 94 38 56 3d
       0.026176682 -0.06870807 -0.01726608 0.05230005
000060 42 b1 ee bc 89 c5 62 bd f9 2b 2a bd 7a f6 5d bd
       -0.029137257 -0.055364165 -0.04154584 -0.054190136
000070 76 1a 9b 3c d6 42 69 bd 2b d2 7d 3d c7 f5 27 bd
       0.018933516 -0.056948505 0.06196801 -0.041005876
000080 37 88 b2 bc a2 a8 8f bc 74 f7 27 3d 81 c8 47 3d
       -0.021793468 -0.017536465 0.041007474 0.0487752
000090 ed ac 0e 3e bb e4 7e 3d f3 7f f5 3c c6 70 d4 3c
       0.13933153 0.062229853 0.029968238 0.02593268
0000a0 85 f1 27 3d d3 22 87 3d fb 6e 5a bd 25 7b f1 3c
       0.041001815 0.06598439 -0.053328495 0.029477665
0000b0 5c bd f1 3c 78 6e 32 bd da 63 f0 3c e2 68 c4 3c
       0.029509239 -0.043562382 0.029344488 0.023975793
0000c0 09 c5 f5 3c 73 a5 3f bd ad 01 77 3d 38 d6 b4 bc
       0.03000118 -0.046788644 0.060304333 -0.022074804
0000d0 f9 be 10 3d a1 10 04 3d 78 55 e6 bc af a5 b5 3c
       0.035338376 0.03224242 -0.028116927 0.02217373
0000e0 a3 74 ae 3c 65 57 30 3d ac 71 88 bd db 7a 09 bd
       0.021295851 0.043052096 -0.06662306 -0.03356443
0000f0 8e d9 0e 3d cc 1c 8f 3c 23 33 e6 bc 2c 42 4a bb
       0.034875445 0.017469786 -0.028100556 -0.0030862195

critic_net.0.weight f4 [64, 8]
000000 fb f1 ce 3d 2c 7a 5f bc 4e 2f a3 bd b4 89 c5 bd
       0.10104748 -0.013639968 -0.07968007 -0.096454054
000010 18 85 b3 3e 3a 59 0c 3e 1f 78 05 3e e4 40 e1 bd
       0.3506248 0.13705912 0.13034104 -0.10998705
000020 2e 71 75 bd 6a a5 d7 be 9f 89 95 3d 6c 50 16 3e
       -0.05992239 -0.42118388 0.0730164 0.14679116
000030 cf 32 e4 be ec a8 24 be 96 c3 d4 3c 7c f1 02 bf
       -0.44570014 -0.16080064 0.025972169 -0.51149726
000040 9f 46 d4 3d 5a b6 89 bd 0b 41 af 3e 5b d4 b5 3d
       0.103650324 -0.06724234 0.3422931 0.08878394
000050 f6 a6 10 be e3 26 3b 3d a1 a3 3d be 65 5b 38 3e
       -0.1412619 0.045691382 -0.1851945 0.18003614
000060 79 63 c3 3d a1 85 b1 3d 9d 03 85 3e 74 ca d8 bd
       0.09540457 0.08668066 0.2597932 -0.1058549
000070 3f b9 d9 be ba c9 9f 3e eb 09 70 3e 7f c6 a8 be
       -0.42524144 0.31208593 0.23441283 -0.3296394
000080 a4 78 2c 3d 1b 92 0c 3d e8 68 ef bd 91 2f e8 bd
       0.04210724 0.034319025 -0.11689931 -0.113371976
000090 b1 4e 50 3e 96 b1 55 bd 0a b8 31 3e 4d 26 93 3e
       0.20342518 -0.052171312 0.17355362 0.2874016
0000a0 87 ea 9b 3e 32 e8 5c 3d 6b b1 3d bd 03 90 0c be
       0.30452368 0.053932376 -0.046311777 -0.13726811
0000b0 ce e3 27 bf 8c a9 38 bd 1b 4a 2f be b4 7b d0 bd
       -0.6558198 -0.045083568 -0.17118113 -0.101798445
0000c0 9d 13 61 bd 76 8d 9f 3c cd e3 3d 3d d1 d1 b0 3d
       -0.054950345 0.019476634 0.046359826 0.08633769
0000d0 fb f1 cd 3e d6 a4 2f be 64 35 b5 3c e1 2c 14 be
       0.4022368 -0.17152724 0.022120185 -0.14470245
0000e0 01 3c e1 3d 90 06 fa bd 0a 54 da 3c dc ee a1 be
       0.10997773 -0.12208283 0.026651401 -0.31627548
0000f0 66 30 a1 be 2b e3 d2 bc 5f 27 91 3d 7d 99 8d bd
       -0.31482238 -0.025743088 0.070875876 -0.06914041
000100 49 57 7b 3e 5f 5c 10 3c 7a cb e4 bc f5 42 d5 3d
       0.24545015 0.0088110855 -0.027929056 0.10413162
000110 80 71 a3 be 3c 5e f3 3d 46 3a b0 3e 51 20 b4 3e
       -0.3192253 0.11883208 0.3441946 0.35180905
000120 c9 8c 6d 3c 6a db c6 3e b3 af 29 bd f0 90 92 3c
       0.014498898 0.38839275 -0.041427325 0.017891377
000130 c4 a9 a6 be f8 42 a6 3e 27 e4 a0 be aa 53 92 3d
       -0.32551396 0.32472968 -0.31424066 0.07144864
000140 41 af 3e 3d 6f 82 9b be 53 13 1e be 26 3b 90 be
       0.046553854 -0.3037295 -0.15437059 -0.28170127
000150 9d 0a 0e bf b0 15 b1 bc 2f ee 66 be c9 c6 d6 bd
       -0.55484945 -0.021616787 -0.22551797 -0.10487134
000160 a2 2c 22 be 44 06 8b bd c1 ae c0 be df a3 60 be
       -0.15837339 -0.067883044 -0.37633327 -0.21937512
000170 24 8d fc 3e 00 e3 cb 3d 42 dd 17 3e 06 a8 9e 3d
       0.49326432 0.09955406 0.14830497 0.07746892
000180 89 fe 6e 3d 2d 26 48 3e bb 0e e8 bd 4c 2b d0 3c
       0.058348212 0.19545813 -0.113309346 0.02541127
000190 2e 63 03 bf 17 5c c6 3d 03 54 af 38 65 e1 c2 3d
       -0.5132321 0.096855335 8.360299e-05 0.09515647
0001a0 1c 4d 28 bd 7c f6 25 3e ea e6 62 3e 8e e6 07 bd
       -0.041089162 0.16207308 0.22158399 -0.03317886
0001b0 03 ca a1 be 63 40 fb bc 13 d3 68 3e 95 1a 1b 3d
       -0.31599435 -0.03067035 0.22736768 0.037867147
0001c0 bb 55 9c 3d eb 8f b8 3d 6f f5 b2 bb 1c c4 a9 3e
       0.07633539 0.09011825 -0.005461387 0.33157432
0001d0 90 cd 90 be 21 9f 07 3e 04 b5 40 be b1 24 ea bc
       -0.28281832 0.13244297 -0.18819052 -0.028581949
0001e0 8f 33 9b 3d fd 48 0e 3e 58 72 4b bd db fc ae be
       0.075781934 0.1389503 -0.049669594 -0.34177288
0001f0 cf 96 c0 be da 8b 4d 3d eb c7 bd 3c 23 3a 42 be
       -0.37615058 0.0501822 0.023166617 -0.1896749
000200 39 cd 6a 3e 85 51 cd be 1c 39 f1 bd 7f e8 70 3c
       0.22929849 -0.40101257 -0.11778471 0.014703869
000210 cc 4f 1f 3f 79 4d dc bc eb 97 d9 3d bf fc 39 bd
       0.62231135 -0.02689241 0.10624679 -0.045407053
000220 6c 65 2c bc c6 ed c9 be 7f 23 8a be dc af 05 3e
       -0.010522228 -0.3943922 -0.26980206 0.13055366
000230 75 44 13 3f d9 d7 25 be 25 b5 0e 3d c9 10 ec bc
       0.5752633 -0.1619562 0.03484072 -0.028816598
000240 ae 24 a6 bd 30 48 c2 bd 31 fd 2c bc c9 64 1e 3d
       -0.08112465 -0.09486425 -0.010558412 0.038670335
000250 27 09 27 bf fb 1a 65 be 38 ee 9a 3d 9a ea 3e bc
       -0.6524834 -0.22373573 0.07564968 -0.011652613
000260 0e 09 11 3e 21 0e 37 be 82 ab a0 be 08 6f a8 3d
       0.1416361 -0.17876484 -0.3138085 0.082243025
000270 0e 28 e6 3d 01 22 d9 bc fc fc ea bd 27 22 72 bd
       0.112381086 -0.026505472 -0.11474034 -0.0591146
000280 5f b3 6b be bb 16 19 be bb 8f 44 bc 4c 99 b6 be
       -0.23017643 -0.14950077 -0.011997159 -0.3566383
000290 68 04 17 bf fd 99 86 3b 48 bc 96 3c ad 3d a5 3d
       -0.589911 0.0041077123 0.018400326 0.08068404
0002a0 c9 27 b5 be 6a 92 8a 3e a2 20 c8 bc 14 46 8d 3d
       -0.35381916 0.2706483 -0.024429623 0.06898132
0002b0 d8 51 13 3f a4 a9 9d be a4 63 5f bd 91 21 b3 3d
       0.5754676 -0.30793488 -0.054538384 0.08746637
0002c0 a1 0d 6b be 46 b9 1d bc f8 bf ab be 0a 0d 5c bd
       -0.22954418 -0.009626692 -0.33544898 -0.053723373
0002d0 33 a1 b0 3e 05 36 e3 bd 81 4d cb ba 1f e3 98 3e
       0.34497985 -0.11094288 -0.0015510769 0.2986078
0002e0 5f f2 4f 3e bc f7 85 be 45 72 8f 3e e6 a5 ad be
       0.20307301 -0.2616557 0.28016868 -0.33915633
0002f0 81 c9 c2 3e b4 12 8d be b8 0a 93 be b2 c8 40 be
       0.3804436 -0.27553332 -0.28719115 -0.18826559
000300 dc 76 dc bd d4 26 81 3d 71 9a 5a be b8 b2 c8 3d
       -0.10764858 0.06306234 -0.21347977 0.09799713
000310 52 fd e3 3e 7d be b3 3d b3 46 8c 3d be 2e 4d be
       0.44529206 0.08776567 0.06849422 -0.20037362
000320 ff 8d 13 3e 30 3f 42 3e 7b 79 32 3e 76 77 77 bc
       0.14409636 0.18969417 0.17429154 -0.015104165
000330 6b 45 e0 3e ba c0 3b be 05 12 0d bf b6 72 f1 bd
       0.43802962 -0.18335238 -0.5510562 -0.117894575
000340 cb 01 86 3e 4d 9d f5 bd 5b 24 ca 3d 66 ed 4b 3e
       0.26173243 -0.11992893 0.098702155 0.19914779
000350 88 c6 cf 3e 1d 93 e7 3d aa 1b ac bc 86 42 1c be
       0.40581155 0.113073565 -0.021009285 -0.15259752
000360 ea d3 12 3e 77 9c 9e 3e 50 f5 80 3e d9 5b 7e bd
       0.14338651 0.30978748 0.2518716 -0.06209931
000370 a7 1f f7 be 1d e2 4a 3d 4f 35 a5 be b5 a6 f6 3d
       -0.48266336 0.049532045 -0.32267234 0.120435156
000380 07 17 af be e4 69 f6 3d 43 86 51 3e 8c 4b 24 3e
       -0.34197256 0.12031916 0.20461373 0.16044444
000390 97 8a b1 be a3 fd 8b 3d 57 c8 da 3e 7a e5 9d be
       -0.34676048 0.06835487 0.42730972 -0.3083914
0003a0 6c 48 6a 3e dc 7f f6 bd 40 38 82 3d a6 dc 3f 3e
       0.22879189 -0.12036106 0.06358385 0.18736514
0003b0 b4 d6 8b be aa 8a f4 3d 67 1e 0a be d1 8e 18 3e
       -0.27312243 0.119405106 -0.1348816 0.1489823
0003c0 ef 34 9d bb 32 bb 15 3e da a1 16 be 7a 48 21 be
       -0.00479757 0.1462219 -0.14710179 -0.15750304
0003d0 28 ad 27 3f 5c 43 12 bd 02 c4 3b be b4 9c 37 be
       0.6549859 -0.03570877 -0.1833649 -0.17930871
0003e0 7d e7 ac bd 30 a1 65 3e 8a c7 66 3d e2 dc 7d be
       -0.084425904 0.2242477 0.05634264 -0.24791291
0003f0 92 46 83 3e 2f db 3f bd d2 18 66 3e 57 f0 08 be
       0.25639778 -0.04683989 0.22470406 -0.13372932

critic_net.0.bias f4 [64]
000000 72 49 fc 3c d0 72 6b bd aa cf 81 3d 1b 8f af bd
       0.03079674 -0.05748254 0.06338437 -0.08572217
000010 08 32 0b 3d dd e5 86 bd fc d9 5d 3d 02 54 53 bd
       0.03398326 -0.06586812 0.054162964 -0.051593788
000020 5a c4 cf bd 3a c6 f4 3d 2b 0c ad bd 63 bc 59 3a
       -0.10144873 0.11951871 -0.084495865 0.0008305965
000030 f7 34 80 bd 50 06 6e bd 6e 90 77 3d 9d ce 66 bd
       -0.06260102 -0.05811149 0.060440473 -0.056349386
000040 02 11 5d 3d c2 74 87 3d 17 49 8e bd 1a 3c 4c 3d
       0.053971298 0.06614067 -0.069475345 0.049862005
000050 f3 f3 7a bd 7f be e6 3c c6 c9 6d 3d 44 9b 60 3d
       -0.061267804 0.028167007 0.058053754 0.054835573
000060 ce 8b 53 3d c9 ee ef 3d d3 94 27 3d aa fe 5b 3c
       0.051647 0.117154665 0.040913414 0.013427416
000070 d0 4d 0b bd 09 fe 56 bd 89 8a 97 3d 0e 9c 39 bc
       -0.034009755 -0.05248836 0.0739947 -0.01132871
000080 ba 1d 5b bd 82 66 a2 bd 00 a6 ac bd 35 e8 09 bd
       -0.053495146 -0.07929708 -0.084300995 -0.033668716
000090 5b 26 87 bc b2 e6 a3 3a 72 2d 92 bd 67 ab 85 3d
       -0.016497782 0.0012504666 -0.07137574 0.06526833
0000a0 af 16 60 bd 5b 4d dd ba 1e 7e 47 bd f2 c8 85 3d
       -0.054709133 -0.0016884016 -0.04870426 0.06532468
0000b0 c9 4d 93 3d b7 ce 7a bd ad c4 f9 3c 9e 3b 60 bd
       0.07192571 -0.061232295 0.03048929 -0.054744355
0000c0 5c c4 5d 3d 34 fe b3 3d 04 a7 8b bd 55 87 f8 3c
       0.05414234 0.0878872 -0.06818965 0.030337969
0000d0 78 ce 9b bd a8 a5 ae bb 4d 76 9a 3d 6d 3f 53 3d
       -0.0760774 -0.0053298064 0.07542095 0.05157416
0000e0 4e ab 9c 3d 78 f6 54 3d 56 c1 8b bc 39 41 9d 3d
       0.07649861 0.051992863 -0.017059963 0.07678456
0000f0 e1 4d 8b bd 3d ee f7 3c a6 bf 40 bd 1f e1 24 3d
       -0.068019636 0.030264968 -0.04705777 0.040253755

critic_net.2.weight f4 [64, 64]
000000 67 a2 9f 3d 4e 6e 95 bb e0 99 11 be d9 b8 3c 3c
       0.07794648 -0.0045602685 -0.14218855 0.0115186805
000010 4c e3 95 3e 72 3d c3 3d 11 24 c8 bd 85 0a ee 3c
       0.29274976 0.09533204 -0.09772504 0.02905775
000020 b8 ba 48 3e fe 21 5a be 4d 26 81 bc 02 f8 25 3d
       0.19602478 -0.2130203 -0.015765334 0.04051972
000030 5e c2 2d bd 1f 7b 2d bd 0b 82 69 be 11 86 a6 3e
       -0.04242169 -0.042353746 -0.22803514 0.3252416
000040 78 f9 e0 be 8d 01 83 3d d2 26 ec 3c f0 d1 34 bc
       -0.4394033 0.0639678 0.028827105 -0.011036381
000050 93 1b 1e be 32 17 24 be 22 51 c7 3c aa 41 42 3e
       -0.15440206 -0.16024473 0.02433068 0.18970361
000060 81 b2 5b 3d fd e6 85 3d a8 b5 bf bd 88 4d 8f bc
       0.05363703 0.06538198 -0.0936082 -0.017493024
000070 c6 5a b8 3c f0 32 8d 3d 7a 3a 62 bd 81 04 d1 3e
       0.022504222 0.06894481 -0.05523155 0.4082375
000080 6d 5e 07 3e 20 a0 fa 3e 7d 1d 83 3c 04 84 0d 3e
       0.13219614 0.4895029 0.016005272 0.13819891
000090 29 9d db bd 1a eb 11 3e bf e4 8c 3e 5c b6 0d be
       -0.10723335 0.1424984 0.2751827 -0.13839096
0000a0 dc bc 52 3e 15 a9 0e 3e 75 dc a8 3e 10 6c 44 3e
       0.20579857 0.13931687 0.32980695 0.19181848
0000b0 24 cb 6f 3e 9b fd 99 3d 96 4e 42 be 70 f2 51 3e
       0.23417336 0.075190745 -0.1897529 0.20502639
0000c0 ff c4 a5 bc 92 c9 01 3e 56 95 43 3e b3 2d e9 bc
       -0.020235537 0.12674549 0.19099936 -0.028464174
0000d0 0c be cf 3e 0b 27 85 bd 29 0b f4 be ef 0b 0e 3d
       0.40574682 -0.065015875 -0.47664765 0.03467935
0000e0 c3 50 de be 92 ca 73 be 41 2c ff 3d d0 a4 d1 be
       -0.4342099 -0.23807743 0.12459613 -0.40946054
0000f0 78 16 9b 3e 7f 0c 00 3f 28 42 bf 3d 81 87 ad bd
       0.3029058 0.5001907 0.0933879 -0.08473111
000100 b1 53 ee bd 97 99 d6 3e 4e 71 8f 3b 41 5f 40 be
       -0.116370566 0.41914055 0.0043775206 -0.18786336
000110 6a 38 9b bc e0 9c f0 3d d9 e8 08 bf ce 8f b4 bd
       -0.018947799 0.117486715 -0.534803 -0.08816491
000120 2c 0a 1c bd 11 03 b4 bd d9 da a7 3e 3b 98 6b 3e
       -0.03809564 -0.08789647 0.32784155 0.2300729
000130 25 a3 50 bd b5 e0 39 bd 81 c8 65 bd 21 12 b4 3d
       -0.050936837 -0.045380313 -0.05609942 0.0879252
000140 97 53 10 be a7 e7 bc bd f0 4f ee bd cd 61 ac 3e
       -0.14094387 -0.09223872 -0.116363406 0.33668366
000150 8c f7 fb bc 81 4f 65 be 90 63 78 be d1 39 23 bd
       -0.030757688 -0.2239361 -0.2425673 -0.03985006
000160 3a 88 5c 3e 1f 5d 4b 3e bd 44 a3 be 07 a8 04 3e
       0.21536341 0.19859742 -0.3188838 0.12954722
000170 66 a4 21 be 79 43 38 3e a8 58 35 be ba 67 17 3d
       -0.1578537 0.17994489 -0.17709601 0.036964156
000180 54 ee d8 bb bb c1 fe 3d 92 ce 96 bd f8 ce 5a 3d
       -0.006620208 0.12439295 -0.07363619 0.053420037
000190 a5 d2 ef bd 91 c6 3a 3d 30 d2 a9 3b 46 62 a6 3d
       -0.11710099 0.045599524 0.005182527 0.08124213
0001a0 5d 76 4c be f7 67 b0 bd 77 70 17 3e f9 e6 f0 be
       -0.19967027 -0.0861358 0.14788996 -0.47051218
0001b0 70 a8 22 3e 7c 13 86 3e 17 ac 1a be b1 f6 47 3d
       0.15884566 0.2618674 -0.1510471 0.048819248
0001c0 19 e1 49 bd e8 ab 4a be 38 f2 1e 3e 3b 70 8c 3e
       -0.049286935 -0.1979214 0.15522087 0.27429375
0001d0 f6 f6 53 be a9 97 26 bd fe 38 a3 be dd 09 89 bd
       -0.20699677 -0.04067198 -0.3187942 -0.066913344
0001e0 3f b0 e9 bd 05 f1 c7 3d 35 e3 9f bd ba e1 82 be
       -0.114105694 0.09762768 -0.07807008 -0.2556284
0001f0 05 51 02 3e 51 da 85 be 5c 24 20 be 8c 94 9b bd
       0.12726219 -0.26143125 -0.1563887 -0.075966924
000200 10 97 86 3e 6c 9b ab be fa f7 28 3e a6 82 11 bc
       0.26287127 -0.33517015 0.16500846 -0.008881247
000210 67 7f 87 bd 4f 2a d5 bc 6d 75 13 bd c7 82 27 bd
       -0.06616097 -0.02602115 -0.036000658 -0.040896203
000220 a9 7a 11 3d 54 28 88 3e 89 d4 27 be 5a 1d bd 3d
       0.03551737 0.26593268 -0.1638967 0.09234114
000230 bd 48 81 3e 76 e2 87 be af f0 97 be 84 8a cf bd
       0.25250807 -0.26539963 -0.29675815 -0.10133842
000240 81 28 32 3e 1a 99 2e be 19 2f 1a be b9 2b a5 3e
       0.17398264 -0.17050591 -0.15057029 0.3225992
000250 e7 8c 91 3d 28 62 20 3e c6 e7 21 3e 14 05 33 3e
       0.07106953 0.15662444 0.15811071 0.17482406
000260 c9 2b 02 3e e8 aa a7 3b bc d5 60 3d ae 66 6c 3d
       0.12712015 0.005116809 0.054891333 0.05771511
000270 3f 1f 2e 3e 45 24 8f 3c 52 ab 64 be 36 6a 5c 3e
       0.17004107 0.01747335 -0.22330979 0.21524891
000280 a4 ab 18 be 9d 27 3b be 7a 5e 3d 3e 65 a7 e6 3d
       -0.14909226 -0.1827683 0.18493071 0.11262397
000290 de e3 f3 bd 4f f6 c0 ba be 08 0b 3d d5 a9 95 3e
       -0.119086966 -0.0014721843 0.033943884 0.29231134
0002a0 7d f6 9b bb 99 10 66 3e 48 84 d0 3c 8d 26 4b 3e
       -0.0047596083 0.22467269 0.025453702 0.19838925
0002b0 25 8e e5 3c e8 ba 3d bd cd 05 b4 be c7 a9 7b be
       0.028021881 -0.046320826 -0.35160676 -0.24576484
0002c0 c5 c0 d4 3d 78 ed 40 bd eb 68 61 3c c6 23 0f 3e
       0.1038833 -0.047101468 0.013757925 0.1397849
0002d0 4f c0 5c be 80 bf 3f be 84 96 73 3e 3d c9 f8 3c
       -0.21557735 -0.18725395 0.23787886 0.030369395
0002e0 5d f3 8a 3d 57 5c e8 be 49 a2 07 3e e2 be c7 3e
       0.06784699 -0.4538295 0.132455 0.3901282
0002f0 dc 89 fb 3d 1f 8b 9a be 92 cf 05 be d7 d9 97 3e
       0.12282154 -0.30184266 -0.13067463 0.29658386
000300 e4 1e f2 3d ee 22 b7 be 0e 3f 23 bf 75 0d ab be
       0.11822298 -0.35768837 -0.6376809 -0.33408704
000310 f1 0e 2a 3e b6 fd 18 be 7d ad 5f 3d ca 51 ad 3e
       0.16607262 -0.14940533 0.05460881 0.33851463
000320 84 ee d6 bd 36 e8 ab 3c 13 2c 07 3e 85 30 3a 3e
       -0.10494712 0.02098475 0.13200407 0.18182571
000330 cb 2e a0 bd 5b b5 4c be 0e 92 6b be d7 17 0c be
       -0.07821425 -0.19991057 -0.23004934 -0.13680969
000340 e3 1d bc 3e 06 07 ec 3d 6d d6 29 be 91 91 bd 3d
       0.36741552 0.11524777 -0.16585703 0.0925628
000350 69 68 e6 3b 9f 17 8a 3d 8f f8 8f bd bc 5b ee 3c
       0.0070314896 0.067427866 -0.07029831 0.029096477
000360 9e 46 3a 3e 79 1c a6 be e3 d1 a9 3d 07 e8 7a be
       0.18191001 -0.32443598 0.08291986 -0.24502574
000370 2d 8d 9d bd eb e5 61 be 22 32 1e bd fe ca 79 3d
       -0.07692943 -0.22060363 -0.03862203 0.060984604
000380 0e 8d fc 3d 68 29 01 bf 4b 52 ef bd 81 1f 1c bd
       0.123315915 -0.50453806 -0.11685618 -0.038115982
000390 58 43 0d be a7 a5 42 3d af 36 d5 bd b7 ae 8a 3e
       -0.13795221 0.04752126 -0.10410821 0.27086422
0003a0 4c 27 71 3e 08 86 17 be 87 e5 04 3e 88 d6 82 bd
       0.23550147 -0.14797223 0.12978183 -0.06388575
0003b0 9a 61 93 bd 5b 2e 09 be cd 07 c3 3d ba c8 b9 3d
       -0.071963504 -0.1339659 0.09522972 0.09071489
0003c0 29 6e 03 be ff 5e 27 be c7 0a a0 bd d1 83 47 3e
       -0.12834992 -0.16344832 -0.078145556 0.19483878
0003d0 1b 6d 73 bd d9 a0 ac bd 49 2a 5a 3e c2 02 cb 3d
       -0.059430223 -0.08429117 0.21305193 0.099126354
0003e0 0e c1 ed bc 48 a5 55 3e e1 40 b1 bd ca 0e 8e bd
       -0.02902272 0.20863831 -0.08654953 -0.069364145
0003f0 24 80 76 be 16 63 56 3e 16 0c c9 bd b9 b4 9d 3e
       -0.2407232 0.20936236 -0.09816758 0.30801943

critic_net.2.bias f4 [64]
000000 b7 19 8b bd 96 36 2b bd 98 ef 0f 3d 6e 71 a6 3c
       -0.06792014 -0.041800104 0.035140604 0.02031776
000010 22 e8 2a 3d 2d 1f 48 bc be f2 2e 3d 27 0a 6c bd
       0.041725285 -0.012214464 0.042711966 -0.05762687
000020 1a e5 43 bd d4 4d 88 3d 99 03 2e bd 29 42 e8 bc
       -0.04782591 0.066554695 -0.0424839 -0.02835186
000030 7b 0f 19 bd 11 aa 45 bd 95 c4 f6 bc 8f 3b 2e 3d
       -0.03736828 -0.04825789 -0.030123034 0.04253727
000040 9a 4a 3a 3d d9 0a 1a 3d 4b e7 27 3d 87 0e b5 3c
       0.0454813 0.037608 0.040992063 0.022101654
000050 65 78 91 3d 73 16 5f bd 9f bd 5b 3d 9e 63 60 3d
       0.071030416 -0.05446477 0.053647634 0.054782502
000060 37 3e 65 bd 5c 54 45 3d d5 c6 3f 3d d6 21 57 3d
       -0.055967536 0.048176154 0.04682048 0.052522503
000070 1c cf 12 bd 07 e2 48 bd 05 af 78 3d e5 d2 37 3d
       -0.035842046 -0.04904368 0.060713787 0.04487886
000080 c3 3b 29 bd 1f 24 21 bd e5 b7 11 bd 89 3f 41 3d
       -0.04131676 -0.03934109 -0.035575766 0.047179732
000090 84 40 34 bd 27 5a 19 bd 5e 9e 2f bd 3e 1f fe 3c
       -0.04400684 -0.03743949 -0.04287564 0.031020757
0000a0 ea e1 0e 3d d6 ee 5b 3d d0 96 67 bd 79 22 03 bd
       0.034883417 0.05369457 -0.05654031 -0.032015298
0000b0 89 9e 12 bd 7c 3c 07 bd 1e 6a 18 bd 2f 4f ea bc
       -0.035795722 -0.033016667 -0.037210576 -0.02860221
0000c0 d1 95 82 bd 46 b5 28 bd d6 b0 9e bd 48 c6 73 3c
       -0.063762315 -0.0411885 -0.077485725 0.014878817
0000d0 c7 66 31 bd e5 f8 2a 3d b4 74 83 3d a1 58 55 3d
       -0.043310907 0.04174127 0.06418744 0.052086476
0000e0 0e ae 50 bd 5a df 4f 3d dc a1 b4 bc 47 8f 01 bd
       -0.05094724 0.050750114 -0.022049837 -0.03163078
0000f0 fe 03 3b 3d 10 97 64 3d ed cc 90 bd 17 d5 06 3d
       0.045658104 0.055808127 -0.070703365 0.032918062

critic_head.weight f4 [1, 64]
000000 b8 ea 89 3e d6 5d 5d 3d 49 e5 06 be 0a 0a 49 be
       0.2693689 0.054044567 -0.13173403 -0.19632736
000010 ba cc 44 be fa ad 3b 3e d5 4a 3e be 48 30 01 3e
       -0.19218722 0.18328086 -0.18583234 0.12616074
000020 99 6f 92 3e 80 0d a5 be 0a b5 f1 3d d5 50 c7 3d
       0.28600767 -0.32236862 0.118021086 0.09732214
000030 e3 7f 85 3e b3 ab af 3e 25 de 93 3e 3c c7 55 bd
       0.26074132 0.34310684 0.2888042 -0.052191958
000040 53 c0 9e be 7e 00 bd bd dd 3e 3c be 97 d6 ba be
       -0.31006107 -0.092286095 -0.18383355 -0.36491844
000050 bf 59 41 be f1 d1 27 3e c5 80 f8 bd 44 16 2a be
       -0.18881892 0.1638868 -0.12133936 -0.16610056
000060 a2 22 01 3e 05 90 49 be 91 96 df bd 57 88 e6 be
       0.12610868 -0.19683845 -0.1091739 -0.45025894
000070 a5 e9 d3 3d 1f 7f 8c 3e 59 ab 3c be f9 b0 16 be
       0.103472985 0.27440736 -0.18424739 -0.14715947
000080 f4 76 85 3e dd 4e 6f 3e 12 2a 13 3e e6 b1 f2 bd
       0.26067317 0.23369928 0.14371517 -0.11850338
000090 68 a1 24 3e e4 f1 98 3e a3 92 84 3d 86 65 0e be
       0.16077197 0.29872048 0.06473281 -0.13905916
0000a0 ba 3b de bd e2 49 6d be 7d 20 4d 3e f9 41 91 3e
       -0.10851236 -0.23172715 0.20031925 0.28370646
0000b0 94 74 d5 3e ee 4d 99 3e 41 c0 39 3e 5c c5 e3 3d
       0.41690505 0.29942268 0.18139745 0.11121628
0000c0 4e 1b 1d 3e 01 b3 0a 3e 8a b7 b6 3d b0 0c 58 be
       0.15342447 0.13544847 0.08921726 -0.2109859
0000d0 74 b4 2e 3e 6a 85 bd be 76 c0 45 be 3c 79 3c be
       0.17061025 -0.3701585 -0.193117 -0.18405622
0000e0 fc 06 f7 3e 8e 7a 2a be 63 0c ad 3d ed d8 8d 3e
       0.48247516 -0.16648313 0.08449628 0.27704564
0000f0 e5 91 d9 be 76 2c 9b be 91 a8 ad 3e e8 46 91 be
       -0.4249412 -0.30307359 0.33917668 -0.2837441

exp_avg f4 [64, 8]
000000 71 99 6a 3a 10 7a 71 3a 98 ad 74 3a 65 19 9c 39
       0.0008949256 0.0009211609 0.0009333729 0.0002977356
000010 09 b1 b5 37 eb 60 0d b8 05 aa 09 3a a8 73 5e 3a
       2.165932e-05 -3.370728e-05 0.000525147 0.0008485862
000020 a6 38 53 ba 69 46 5a ba 05 0c 5e ba 17 8c 84 b9
       -0.00080574525 -0.0008326532 -0.0008470419 -0.00025281377
000030 78 2b 46 b7 ff 83 1c 38 22 58 ef b9 fb c9 2c ba
       -1.18118405e-05 3.731623e-05 -0.00045651296 -0.0006591377
000040 fc 48 9f 3a 59 87 a4 3a 4c 51 a7 3a b9 51 c5 39
       0.0012152488 0.0012552544 0.0012765317 0.00037635656
000050 8e 8b b1 37 78 41 80 b8 e5 1d 3d 3a f7 62 8a 3a
       2.116503e-05 -6.11571e-05 0.00072142325 0.0010558058
000060 bb 39 f3 39 a8 9d fa 39 82 d3 fe 39 fb b3 1e 39
       0.00046391584 0.0004780118 0.0004860424 0.00015135102
000070 b4 07 d7 36 e4 81 97 b7 e2 3a b5 39 57 a7 bb 39
       6.408396e-06 -1.8061088e-05 0.0003456688 0.00035792097
000080 72 2f ba 3a 80 46 bf 3a 44 8e c1 3a 5e 7d f4 39
       0.0014204814 0.0014593154 0.001476713 0.00046632712
000090 c3 5f 2a 38 0c cb 39 b8 3e 0c 51 3a d5 92 bd 3a
       4.0620343e-05 -4.429654e-05 0.00079745415 0.0014463315
0000a0 d1 da d4 ba f1 7a db ba 48 e4 de ba 8d dc 07 ba
       -0.0016239529 -0.0016745013 -0.0017005289 -0.0005182706
0000b0 4f f9 00 b8 31 1f 9a 38 6f 16 86 ba 26 11 bf ba
       -3.0749765e-05 7.349102e-05 -0.0010230074 -0.0014577254
0000c0 6c 2f 86 bb d3 9f 8a bb d6 e3 8c bb 48 88 a5 ba
       -0.0040950086 -0.0042304783 -0.004299621 -0.0012629116
0000d0 cc e2 95 b8 f3 53 55 39 53 98 1d bb 67 5d 68 bb
       -7.147118e-05 0.00020344536 -0.002404709 -0.0035456063
0000e0 7a dc 72 b9 82 d4 77 b9 02 d2 79 b9 81 8c af b8
       -0.00023161052 -0.00023634921 -0.00023824724 -8.370821e-05
0000f0 2c a3 fd b6 50 76 75 35 3c b5 22 b9 76 a9 83 b9
       -7.5589833e-06 9.144178e-07 -0.00015517039 -0.00025112525
000100 c6 7f 24 ba 9f 84 29 ba 97 35 2c ba 23 ef 55 b9
       -0.0006275143 -0.00064666005 -0.0006569265 -0.00020402348
000110 e9 4e 4a b7 e8 f9 c9 37 7e 70 b6 b9 49 be 0a ba
       -1.2058511e-05 2.4077439e-05 -0.00034797558 -0.0005292637
000120 73 2a 9b 3a 27 33 a0 3a 89 cf a2 3a 4d af c0 39
       0.0011838212 0.0012222276 0.001242147 0.00036751703
000130 4b 9d b7 37 07 c5 51 b8 ec a4 20 3a eb 1d 77 3a
       2.1888545e-05 -5.001298e-05 0.0006128091 0.00094267604
000140 5b a2 07 39 d1 7c 0d 39 78 f8 10 39 09 65 40 38
       0.00012935085 0.00013493306 0.00013825472 4.5870464e-05
000150 28 0c 01 b6 e6 0b 3f b7 53 b6 e9 38 ff 69 38 38
       -1.9229574e-06 -1.13872575e-05 0.00011144266 4.3967735e-05
000160 22 d3 b0 ba 73 df b6 ba 8c f4 b9 ba 4b 13 d3 b9
       -0.0013490657 -0.0013952091 -0.001418726 -0.0004025943
000170 e4 2d cc b7 41 74 90 38 41 ee 2c ba a3 ca 98 ba
       -2.4340065e-05 6.888109e-05 -0.0006596782 -0.001165707
000180 d8 c0 30 3b 53 af 36 3b 91 c7 39 3b 5f d8 5b 3a
       0.0026970413 0.0027875497 0.002834771 0.0008386429
000190 84 ac 38 38 8c 73 16 b9 9a 24 d4 3a 8b 58 14 3b
       4.4029686e-05 -0.0001434816 0.0016185225 0.0022635784
0001a0 83 1f 10 ba 70 3e 14 ba 42 64 16 ba 86 64 33 b9
       -0.00054978597 -0.0005655056 -0.00057369855 -0.00017108218
0001b0 31 aa 5b b7 df e4 8f 37 7a cc 98 b9 29 25 0b ba
       -1.3093043e-05 1.7153505e-05 -0.00029144046 -0.00053079665
0001c0 1c c2 0f 3b 9d 91 14 3b 2c 2e 17 3b 88 96 2e 3a
       0.0021935767 0.00226698 0.0023068292 0.0006660004
0001d0 f1 a5 0c 38 9d 15 ed b8 4f 60 b8 3a 12 2e f3 3a
       3.3533146e-05 -0.000113050664 0.0014066788 0.0018553159
0001e0 13 83 a3 39 e6 46 a9 39 a7 4e ac 39 91 8e af 38
       0.0003118744 0.00032287015 0.00032864997 8.371205e-05
0001f0 11 51 8c 36 1f 6f 3c b7 84 db 19 39 7c ec 81 39
       4.1817625e-06 -1.1231546e-05 0.00014672993 0.00024780992
000200 4b d7 0c 3b 7a 63 11 3b b9 d9 13 3b bf 6a 2e 3a
       0.002149063 0.0022184537 0.0022560193 0.00066534796
000210 81 22 15 38 ed 95 cd b8 2d 3f ab 3a 41 d8 eb 3a
       3.5556503e-05 -9.8030876e-05 0.0013065092 0.0017993526
000220 95 e9 ff ba 64 09 04 bb 0f 26 06 bb 8c d2 23 ba
       -0.0019524569 -0.0020147199 -0.0020469462 -0.00062493305
000230 b3 0d 0d b8 3c 9b c6 38 8c 6c a9 ba 65 84 e1 ba
       -3.3629778e-05 9.4702904e-05 -0.0012926026 -0.0017205594
000240 af fd 2d bb f6 a4 33 bb 88 7c 36 bb 64 4e 5a ba
       -0.0026548912 -0.0027411557 -0.0027845223 -0.0008327721
000250 13 c0 56 b8 6d 77 04 39 f2 fd bf ba 14 1e 1a bb
       -5.120046e-05 0.0001263299 -0.0014647825 -0.0023516463
000260 6c 1b 77 b9 90 d0 7c b9 fa fc 7e b9 04 6f c3 b8
       -0.00023565971 -0.00024110288 -0.00024317569 -9.319003e-05
000270 7d 81 c9 b6 92 66 bb 36 aa 88 3e b9 6e 92 6c b9
       -6.005341e-06 5.584975e-06 -0.00018170723 -0.00022561263
000280 89 fe 29 3b 4b 39 2f 3b b0 fb 31 3b e3 89 59 3a
       0.0025939068 0.002673703 0.0027158074 0.000829844
000290 34 d3 4c 38 0b 89 dd b8 6a 89 cd 3a ee 12 18 3b
       4.883409e-05 -0.000105636274 0.0015681211 0.0023204642
0002a0 b6 f9 a4 3a 2d 8b aa 3a ad a4 ad 3a 52 1e c7 39
       0.0012586627 0.0013011448 0.001324793 0.00037978828
0002b0 c9 d8 8e 37 53 6c 78 b8 7d 59 49 3a e3 e5 85 3a
       1.7028668e-05 -5.9228692e-05 0.00076808763 0.0010215606
0002c0 db 2e a4 ba 3c e4 a9 ba d4 b8 ac ba ee b0 ca b9
       -0.0012526171 -0.0012961696 -0.0013177642 -0.00038660265
0002d0 6c 3f a3 b7 c9 04 95 38 df 56 3b ba 2a ef 85 ba
       -1.9460647e-05 7.105765e-05 -0.00071464287 -0.0010218371
0002e0 fc e2 78 ba 80 d2 80 ba dd 21 83 ba 15 af 97 b9
       -0.00094942725 -0.0009828359 -0.0010004599 -0.0002893141
0002f0 bd 19 71 b7 b5 e3 69 38 0d 86 0d ba d2 cf 4b ba
       -1.4370712e-05 5.5763598e-05 -0.0005398698 -0.0007774803
000300 6b 03 8e b8 da 71 8e b8 0d 76 8e b8 dc 78 0e b8
       -6.771724e-05 -6.792294e-05 -6.793076e-05 -3.3967997e-05
000310 db 2c 3f b6 f9 9c 8c b6 f8 c0 cb b8 77 bb f8 b8
       -2.8487327e-06 -4.190599e-06 -9.7157375e-05 -0.000118604796
000320 d2 43 9c b9 07 a3 a0 b9 6e bc a2 b9 c2 fe d8 b8
       -0.0002980517 -0.00030639043 -0.0003103944 -0.00010347135
000330 e6 45 f6 b6 46 d0 79 37 83 8f 71 b9 ca 52 a0 b9
       -7.3395086e-06 1.4890049e-05 -0.00023037013 -0.0003057926
000340 a4 2d 4b bb dc a8 51 bb c4 10 55 bb f1 27 80 ba
       -0.0031002546 -0.0031991517 -0.0032511214 -0.0009777528
000350 d8 25 67 b8 71 cb 18 39 cf 14 fe ba 9c b7 34 bb
       -5.5109937e-05 0.00014571637 -0.0019384864 -0.002757526
000360 94 7f 2e 3b 66 d4 33 3b 9c 8a 36 3b c7 5f 5f 3a
       0.0026626335 0.0027439832 0.0027853614 0.0008521047
000370 7c a0 65 38 af 4c dd b8 25 12 ca 3a d4 de 1e 3b
       5.4747317e-05 -0.000105523846 0.0015416784 0.0024241703
000380 1a 78 b6 b8 3c 92 ba b8 df b1 be b8 52 88 09 b8
       -8.700807e-05 -8.8964094e-05 -9.093037e-05 -3.2790304e-05
000390 4f eb 9d 35 60 96 19 36 0a 2c 05 b9 31 37 80 b8
       1.1765895e-06 2.2886306e-06 -0.00012700274 -6.113796e-05
0003a0 96 91 1f 3a 61 7d 25 3a 76 90 28 3a e2 09 48 39
       0.00060870626 0.00063129334 0.0006430218 0.00019077168
0003b0 a0 93 ae 36 f9 cc 0d b8 9a 70 9f 39 bd f1 c5 39
       5.20279e-06 -3.3807915e-05 0.00030410738 0.00037754877
0003c0 44 01 dd ba 3d 28 e4 ba 82 b6 e7 ba f6 53 09 ba
       -0.0016861339 -0.0017407011 -0.0017678293 -0.00052386464
0003d0 da 2a 09 b8 93 84 bd 38 ef c7 8e ba dd ec c9 ba
       -3.2703254e-05 9.036916e-05 -0.0010893325 -0.0015405674
0003e0 6d 8a d6 b9 35 1e dd b9 fa f6 df b9 20 33 04 b9
       -0.00040920396 -0.0004217491 -0.00042717886 -0.00012607547
0003f0 ca e7 2a b7 97 0c 56 37 73 8d 2b b9 34 88 cd b9
       -1.0186757e-05 1.2758325e-05 -0.00016360525 -0.00039202126
