results/long_stable_training/models/final_model.pt (torch, 190319 bytes, 30 tensors)

actor_net.0.weight f4 [64, 8]
-0.039411485 -0.11460611 0.29706997 0.43409124 -0.22407527 0.33486596 0.21294886 0.0014412517
0.0625173 0.16148862 -0.08092825 -0.07479649 -0.24314551 0.04717068 0.16657121 -0.07887745
0.07651395 -0.22390364 0.09762164 0.097299516 0.1459492 -0.13155657 0.15890087 -0.17640515
0.018125527 -0.11995668 -0.022606647 0.13190135 0.5472036 -0.16064212 -0.16304682 -0.13817558
0.33736858 0.18521114 -0.16930607 0.18761505 -0.06634393 0.058719773 -0.32994038 0.503149
-0.0434843 -0.16913497 -0.030804858 -0.24709456 0.041704025 0.0626535 0.15764739 0.047938153
0.2853475 -0.20778008 0.3546068 -0.21952848 -0.56621253 0.12766571 -0.03537742 -7.522493e-05
-0.39081192 0.042885005 -0.32856667 -0.29574764 0.37332883 0.23697364 -0.02155344 -0.20309256
0.24777529 -0.10165154 0.014653231 -0.29894868 -0.06984794 0.050160468 -0.34909266 0.092106715
-0.29563805 -0.119219765 0.025975928 0.29525983 0.22353302 -0.14410979 -0.1776208 -0.18837053
-0.09314515 -0.102322586 -0.11161986 0.055006586 0.14760749 -0.007298451 -0.45450246 0.0047936034
0.052159376 -0.10798274 -0.09484973 -0.25338814 0.021710105 0.04950559 0.0029403893 0.1486288
-0.13107926 -0.111789055 -0.10269368 0.35089403 0.57402086 -0.016660688 -0.08561299 -0.023910252
-0.32634127 -0.0536431 -0.10132216 -0.28420588 0.18860905 0.09089547 -0.00041360274 0.20502959
0.07492237 -0.49211368 -0.27216393 0.25684017 0.4723945 -0.044303786 0.049629416 0.017632185
-0.03935392 -0.18648188 -0.36965528 -0.15855783 0.13177302 -0.2385462 0.11616485 -0.11790097
-0.30792925 -0.060929526 0.018561564 0.3484411 0.095289834 -0.05535084 -0.13114978 -0.01757285
0.046570934 0.12363537 -0.047662497 -0.24469614 -0.12466333 0.11345647 0.22053117 -0.17068829
0.099648744 -0.08636049 0.0860946 -0.33275822 0.23248616 -0.14920373 -0.061875753 -0.08992813
0.32701284 -0.14371616 -0.29811737 -0.058276307 -0.110432304 0.13401712 0.38811326 -0.0021747637
-0.015441536 -0.025594028 -0.026396802 0.5569694 0.28719988 -0.3328422 0.12269065 -0.15784463
0.032054573 -0.3341562 -0.1386795 0.10344139 0.10308175 -0.18842602 -0.022040775 -0.03642861
-0.14120896 -0.027005164 0.4368771 -0.08793749 -0.22106631 -0.06354395 0.08613311 0.095763415
-0.22807565 0.172818 0.07011021 -0.10756339 -0.3863192 -0.23117594 -0.10002837 0.086699225
0.10636336 0.109316744 -0.45742545 0.046171535 0.18951792 -0.00809562 0.2358845 -0.22208694
-0.10608614 -0.11143686 -0.15702671 -0.20153114 -0.16761194 -0.16773203 0.14232582 -0.08915528
0.18262331 -0.015528425 -0.113886766 -0.24193588 0.2191696 -0.013161088 0.17842762 -0.16079934
-0.05931584 -0.036330383 0.048981454 0.525336 -0.25363305 -0.52632225 -0.037739184 0.1581792
0.09848878 0.31204575 -0.11066265 0.08693492 0.0029440988 0.12274584 -0.11627438 -0.10304354
0.032055724 -0.17905241 -0.07181671 0.10608559 -0.18770644 -0.08396065 -0.42344302 -0.06873787
0.15225437 0.06461053 0.43228596 -0.03594916 -0.2398501 -0.17806655 -0.24155611 0.016301263
-0.37556702 -0.16197246 0.13002245 -0.081889324 0.19779795 0.22243255 0.09597788 0.087450355
00000000: f06d 21bd 9cb6 eabd 8e19 983e 3541 de3e
00000010: fd73 65be 8d73 ab3e 440f 5a3e 62e8 bc3a
00000020: 1209 803d 465d 253e b6bd a5bd e72e 99bd
00000030: 23fb 78be 0b36 413d a591 2a3e 808a a1bd
00000040: 59b3 9c3d ff46 65be dbed c73d f844 c73d
00000050: b573 153e c4b6 06be e9b6 223e 8da3 34be
00000060: fc7b 943c d9ab f5bd 9331 b9bc 2611 073e
00000070: 8915 0c3f 5e7f 24be bff5 26be e67d 0dbe
00000080: 93bb ac3e fda7 3d3e 925e 2dbe 291e 403e
00000090: 54df 87bd 2584 703d f2ed a8be 5fce 003f
000000a0: 981c 32bd b831 2dbe 785a fcbc 5b06 7dbe
000000b0: d7d1 2a3d 7a50 803d 516e 213e cc5a 443d
000000c0: 1119 923e 4dc4 54be 068f b53e 13cc 60be
000000d0: 4ef3 10bf cdba 023e eae7 10bd 14c2 9db8
000000e0: 8018 c8be 30a8 2f3d e439 a8be 3c6c 97be
000000f0: f524 bf3e 38a9 723e d790 b0bc 7ff7 4fbe
00000100: ceb8 7d3e af2e d0bd 1b14 703c cd0f 99be
00000110: 700c 8fbd 1075 4d3d 46bc b2be 72a2 bc3d
00000120: df5d 97be 7e29 f4bd 78cb d43c 4c2c 973e
00000130: d7e5 643e 8491 13be 3ae2 35be 34e4 40be
00000140: e2c2 bebd 818e d1bd f498 e4bd 964e 613d
00000150: 6b26 173e d827 efbb 8cb4 e8be a913 9d3b
00000160: 12a5 553d 0e26 ddbd 9340 c2bd 17bc 81be
00000170: 64d9 b13c 60c6 4a3d 8cb3 403b 2632 183e
00000180: a439 06be a9f1 e4bd 1051 d2bd 62a8 b33e
00000190: 08f3 123f ff7b 88bc dd55 afbd 6fdf c3bc
000001a0: 3416 a7be deb8 5bbd fe81 cfbd 6f83 91be
000001b0: bb22 413e 6727 ba3d d2d8 d8b9 47f3 513e
000001c0: e670 993d 53f6 fbbe 1259 8bbe 8e80 833e
000001d0: b1dd f13e e377 35bd 3748 4b3d 5f71 903c
000001e0: 9331 21bd 1bf5 3ebe 7543 bdbe fc5c 22be
000001f0: 82ef 063e 7445 74be d6e7 ed3d 1076 f1bd
00000200: e7a8 9dbe 3d91 79bd 6c0e 983c df66 b23e
00000210: 5127 c33d 90b7 62bd 214c 06be f0f4 8fbc
00000220: 2ac1 3e3d 8a34 fd3d c039 43bd a091 7abe
00000230: 7d4f ffbd de5b e83d ecd2 613e e9c8 2ebe
00000240: a414 cc3d c5dd b0bd 5e52 b03d 495f aabe
00000250: da10 6e3e ddc8 18be 6e71 7dbd 3d2c b8bd
00000260: 3a6e a73e 542a 13be d7a2 98be 23b3 6ebd
00000270: 552a e2bd c93b 093e c8b6 c63e 7b86 0ebb
00000280: 7ffe 7cbc 91aa d1bc 1b3e d8bc 8c95 0e3f
00000290: dd0b 933e 4b6a aabe 3c45 fb3d 06a2 21be
000002a0: a84b 033d 8516 abbe 0002 0ebe 14d9 d33d
000002b0: 861c d33d c0f2 40be db8e b4bc 2b36 15bd
000002c0: 1599 10be ef39 ddbc 5bae df3e 9218 b4bd
000002d0: 355f 62be 5523 82bd 8e66 b03d 9c1f c43d
000002e0: aa8c 69be 34f7 303e f195 8f3d 324a dcbd
000002f0: a1cb c5be 63b9 6cbe addb ccbd 5d8f b13d
00000300: 09d5 d93d 75e1 df3d ab33 eabe 5d1e 3d3d
00000310: fc10 423e 7ea3 04bc b58b 713e c26a 63be
00000320: b143 d9bd 0239 e4bd 9ccb 20be 2e5e 4ebe
00000330: 77a2 2bbe f2c1 2bbe dcbd 113e 0b97 b6bd
00000340: 9b01 3b3e ef6a 7ebc 773d e9bd 0abe 77be
00000350: ff6d 603e 9ba1 57bc bbb5 363e 95a8 24be
00000360: 2bf5 72bd 2bcf 14bd c7a0 483d 6c7c 063f
00000370: 31dc 81be 0ebd 06bf 6794 1abd baf9 213e
00000380: 7cb4 c93d 76c4 9f3e 19a3 e2bd ef0a b23d
00000390: c8f1 403b 2c62 fb3d 4321 eebd 7e08 d3bd
000003a0: dd4c 033d 8459 37be a414 93bd 6743 d93d
000003b0: 1e36 40be 90f3 abbd 86cd d8be 71c6 8cbd
000003c0: 92e8 1b3e 8752 843d 9654 dd3e 6d3f 13bd
000003d0: 449b 75be 1457 36be 7c5a 77be 3a8a 853c
000003e0: 524a c0be 1cdc 25be 9b24 053e 97b5 a7bd
000003f0: 8c8b 4a3e 5cc5 633e 0d90 c43d 2c19 b33d

actor_net.0.bias f4 [64]
0.05375656 0.00063779834 0.07257096 0.06298247 -0.030585038 0.026902571 -0.08379222 -0.060841836
-0.06589407 0.004166839 -0.011695391 -0.02256364 0.061250262 -0.027650807 0.08127359 0.054737676
0.015014123 -0.01691884 -0.01884012 0.00619876 0.042182595 -0.038759645 0.016461687 -0.06542679
0.034311708 -0.0058291396 0.026498647 0.019921059 0.06723516 -0.019525357 -0.082231164 0.031858683
0.030232262 -0.004605111 0.011871212 0.043091133 0.07232289 0.044076577 -0.030993145 -0.017766941
0.037838798 0.033589598 -0.021915933 0.04240526 -0.020474669 0.15149882 0.012606421 -0.022159303
0.028991943 -0.023502825 -0.02247002 -0.025172899 -0.013067283 0.032570828 0.047716983 0.00532672
-0.034516957 -0.07109993 0.014054921 -0.07419836 -0.034319684 0.024127139 0.017576104 -0.035765875
00000000: d72f 5c3d ec31 273a 15a0 943d f4fc 803d
00000010: 798d fabc c862 dc3c 419b abbd 4a35 79bd
00000020: 78f3 86bd fb89 883b 069e 3fbc 62d7 b8bc
00000030: 8ee1 7a3d f283 e2bc c572 a63d 9d34 603d
00000040: ccfd 753c 6199 8abc 9856 9abc f81e cb3b
00000050: a8c7 2c3d 6fc2 1ebd a9da 863c 7bfe 85bd
00000060: 6f8a 0c3d 5e02 bfbb b113 d93c 7d31 a33c
00000070: 96b2 893d a4f3 9fbc d068 a8bd 407e 023d
00000080: a6a9 f73c 79e6 96bb 797f 423c 5480 303d
00000090: 061e 943d a489 343d 56e5 fdbc fa8b 91bc
000000a0: dbfc 1a3d 3f95 093d 0b89 b3bc 23b1 2d3d
000000b0: 7eba a7bc 8222 1b3e 298b 4e3c 6d87 b5bc
000000c0: 8380 ed3c ff88 c0bc 0c13 b8bc 6537 cebc
000000d0: 2818 56bc fd68 053d e272 433d c48b ae3b
000000e0: a761 0dbd d79c 91bd 9d46 663c 4ff5 97bd
000000f0: cc92 0cbd 47a6 c53c c3fb 8f3c 3d7f 12bd

actor_net.2.weight f4 [64, 64]
0.1259127 -0.05216026 -0.2590759 0.059122 0.29387695 -0.38466206 -0.291128 0.118222475
0.19709338 0.016913436 -0.038550254 -0.17102677 -0.08748396 -0.006761179 -0.2139804 0.13974144
0.2786502 -0.20306845 -0.0936978 -0.16518538 0.16602577 0.29085204 0.124635406 0.105584234
0.12422108 -0.27479598 -0.16172285 -0.22976902 -0.14372168 0.24956775 0.12591904 0.24934089
-0.18043032 -0.10382759 0.009008085 -0.11684396 0.25847292 -0.3282275 -0.051887445 -0.17811583
-0.37224412 0.0225596 -0.20716596 -0.17074275 -0.13416655 0.19868368 0.0071924343 -0.09473334
0.19574963 0.21008708 0.026229301 0.07505909 0.1391144 0.36256537 -0.06312739 -0.08405899
0.1511075 0.14672743 -0.034794632 -0.13398197 -0.01359095 0.062586665 0.117358 0.0603957
0.08557349 0.22080627 -0.153011 0.41174474 0.18464676 -0.3311185 -0.056817792 -0.1105918
0.16860229 0.21983947 0.08367004 0.33314395 0.1062494 -0.15894534 0.26696724 -0.18127653
0.35957128 -0.28479058 0.19490013 -0.23922586 0.22806635 0.02646002 0.0171424 0.16817199
-0.13820301 -0.17942709 0.010677347 0.14226896 0.030696934 -0.34645495 -0.21828637 0.0016280159
-0.069077015 -0.108941466 -0.29570547 -0.27967617 0.17635871 0.26321167 0.18481807 0.21139783
0.005823079 0.11041687 0.31070155 0.098801814 -0.036312327 0.25738826 -0.23107494 -0.12583208
0.24008137 0.008888027 0.31212544 0.40139148 -0.053706307 -0.057717178 -0.27035677 -0.2174364
0.032292835 -0.11525249 -0.038467627 0.13990897 0.10218018 0.3701603 -0.2556558 0.10779681
0.023221835 0.11388355 0.17651907 -0.0069231577 0.1698073 -0.06663941 0.09291373 -0.11991501
0.2804967 0.15040937 -0.12444573 -0.04648723 -0.028526785 0.07634003 -0.0049973875 -0.11890319
0.16542093 -0.06265812 -0.14295277 -0.0069702314 -0.1885643 0.10237971 -0.19012554 0.37291253
0.29630762 0.22251016 -0.26985404 0.120850235 0.10111903 0.14790937 -0.016715007 -0.32495743
-0.2176002 0.10808759 0.012336927 0.29319656 0.24359785 -0.02518154 0.23574324 0.15190211
0.22141823 0.05676991 -0.30181375 0.3562186 0.317326 0.12196827 0.29657322 -0.006026739
-0.18871264 0.09168248 -0.0020085613 0.06259045 0.029444778 0.24100387 0.047685165 -0.06739621
0.016424388 -0.07933931 0.08357492 0.18315084 0.43271258 0.10080682 -0.17054357 0.28898853
-0.15067127 -0.021724198 -0.03127331 -0.15397504 0.012101471 0.024430443 -0.1070056 -0.04800167
-0.29566085 0.11106002 0.04218685 0.021427894 0.14541613 0.06831 0.10511077 -0.23111737
0.20197341 0.28360522 -0.20481974 -0.19795331 -0.24211995 -0.03077231 0.31038737 -0.11272216
0.17658454 -0.21270268 -0.25240254 -0.09832562 0.15556714 -0.26618284 0.030251216 0.009204167
0.36316487 -0.28180712 0.020256953 0.055219032 0.37221035 0.03003455 -0.29424933 0.1323014
-0.38598377 -0.074161604 0.14162847 0.09484985 0.28581214 -0.05212369 -0.111808755 0.22682416
-0.288475 -0.105263844 0.20868993 -0.09192846 -0.16433261 -0.062218197 0.044830583 0.12087733
0.23109862 0.15187413 0.13059826 -0.06124471 -0.111233 -0.051381584 -0.09446869 0.36112925
00000000: 42ef 003e ffa5 55bd 99a5 84be e929 723d
00000010: 0a77 963e 6df2 c4be bb0e 95be a01e f23d
00000020: d9d2 493e 0c8e 8a3c dfe6 1dbd a421 2fbe
00000030: ca2a b3bd e18c ddbb ae1d 5bbe 6118 0f3e
00000040: 3dab 8e3e 2df1 4fbe a2e4 bfbd 5b26 29be
00000050: a902 2a3e 8fea 943e d940 ff3d 8c3c d83d
00000060: 9f67 fe3d 0fb2 8cbe ad9a 25be 9248 6bbe
00000070: c72b 13be b08e 7f3e ecf0 003e 3853 7f3e
00000080: bac2 38be 8fa3 d4bd a696 133c e34b efbd
00000090: 9056 843e 6f0d a8be ee87 54bd ff63 36be
000000a0: c896 bebe e9ce b83c 5023 54be 30d7 2ebe
000000b0: f562 09be bc73 4b3e 83ae eb3b 8e03 c2bd
000000c0: 9772 483e 1121 573e d5de d63c 95b8 993d
000000d0: 0174 0e3e 2ba2 b93e ef48 81bd 1f27 acbd
000000e0: edbb 1a3e b73f 163e d184 0ebd 9232 09be
000000f0: 93ac 5ebc 702d 803d 6459 f03d 7b61 773d
00000100: 2741 af3d 0a1b 623e eaae 1cbe 35d0 d23e
00000110: 0a14 3d3e 5d88 a9be c6b9 68bd f47d e2bd
00000120: 14a6 2c3e 991d 613e 335b ab3d d891 aa3e
00000130: 4999 d93d 91c2 22be eeaf 883e 8ea0 39be
00000140: ba19 b83e 12d0 91be e693 473e a0f7 74be
00000150: 3a8a 693e afc2 d83c 386e 8c3c 4735 2c3e
00000160: 1785 0dbe bcbb 37be 0af0 2e3c f4ae 113e
00000170: 2378 fb3c 8b62 b1be 7686 5fbe 2663 d53a
00000180: 4078 8dbd b41c dfbd b566 97be b731 8fbe
00000190: 6197 343e aec3 863e f340 3d3e ac78 583e
000001a0: 87cf be3b 3d22 e23d 4614 9f3e 9b58 ca3d
000001b0: 3cbc 14bd 65c8 833e e99e 6cbe 20da 00be
000001c0: e4d7 753e 169f 113c e8ce 9f3e 2f83 cd3e
000001d0: 25fb 5bbd d968 6cbd 346c 8abe a6a7 5ebe
000001e0: 7e45 043d 7f09 ecbd 3b90 1dbd 4c44 0f3e
000001f0: d843 d13d a785 bd3e 51e5 82be 93c4 dc3d
00000200: b83b be3c c73b e93d 6ac1 343e a8db e2bb
00000210: f7e1 2d3e 3e7a 88bd 8e49 be3d 0096 f5bd
00000220: 439d 8f3e ea04 1a3e 67dd febd 6569 3ebd
00000230: 01b1 e9bc 2958 9c3d 20c1 a3bb 8483 f3bd
00000240: 1b64 293e e752 80bd 3662 12be 8a66 e4bb
00000250: 0017 41be 74ac d13d 45b0 42be 64ee be3e
00000260: a2b5 973e b4d9 633e 4f2a 8abe 5480 f73d
00000270: 7e17 cf3d 8e75 173e e9ed 88bc d260 a6be
00000280: 96d2 5ebe 075d dd3d d220 4a3c dc1d 963e
00000290: b771 793e 8449 cebc ad66 713e 3a8c 1b3e
000002a0: 76bb 623e 9187 683d 5587 9abe 4962 b63e
000002b0: 8e78 a23e 80ca f93d 72d8 973e f37b c5bb
000002c0: e33d 41be 06c4 bb3d 11a2 03bb 6c2f 803d
000002d0: 2d36 f13c b8c9 763e 8551 433d 0607 8abd
000002e0: 708c 863c a67c a2bd 5429 ab3d e58b 3b3e
000002f0: 818c dd3e ce73 ce3d f9a2 2ebe 4ef6 933e
00000300: 9249 1abe f2f6 b1bc 7118 00bd a2ab 1dbe
00000310: 4045 463c 5a22 c83c c125 dbbd 669d 44bd
00000320: dc60 97be 7073 e33d 1ecc 2c3d 8d89 af3c
00000330: f7e7 143e 1de6 8b3d 5144 d73d 08aa 6cbe
00000340: 1ed2 4e3e b434 913e 44bc 51be 46b4 4abe
00000350: 4bee 77be 3616 fcbc 18eb 9e3e e0da e6bd
00000360: 94d2 343e bbce 59be e83a 81be f15e c9bd
00000370: fe4c 1f3e 1e49 88be 66d1 f73c 13cd 163c
00000380: bff0 b93e 0649 90be e9f1 a53c 5a2d 623d
00000390: 5b92 be3e 040b f63c d9a7 96be 057a 073e
000003a0: aa9f c5be 0ae2 97bd 0e07 113e a340 c23d
000003b0: f855 923e a67f 55bd fdfb e4bd 9844 683e
000003c0: ffb2 93be 9294 d7bd d0b2 553e fd44 bcbd
000003d0: cf46 28be 82d8 7ebd 46a0 373d 898e f73d
000003e0: 1ea5 6c3e e484 1b3e 8dbb 053e bcdb 7abd
000003f0: 21ce e3bd 7f75 52bd cd78 c1bd efe5 b83e

actor_net.2.bias f4 [64]
-0.030916978 -0.0028974845 -0.02508944 -0.03543505 -0.028552564 0.0007469014 0.026092619 -0.031707585
0.0033736364 0.008182693 0.03153858 -0.015707368 -0.0073326905 -0.03649589 -0.014800767 -0.008157961
0.024193458 0.009190294 -0.031947993 0.02265518 -0.007086729 -0.017795846 0.041571468 -0.004012356
0.0182587 -0.008742858 0.01604784 0.024402015 -0.027721925 0.021557607 0.025775753 0.025041573
0.03525434 0.022381566 -0.024621544 -0.029303275 0.0012332232 0.059027195 -0.022682909 0.0010402787
-0.024760123 0.028492313 0.0031618604 -0.023437677 -0.016965795 0.0061946376 -0.006775083 -0.040491093
-0.0064000976 0.027134337 0.05791325 -0.0030952627 -0.023386363 0.0010688981 0.029532982 -0.028365023
-0.022550266 -0.015026001 -0.0068188314 0.029513754 -0.028541323 -0.025154343 0.026007537 -0.025463741
00000000: 9a45 fdbc b9e3 3dbb 5f88 cdbc 5824 11bd
00000010: 11e7 e9bc b4cb 433a 30c0 d53c d0df 01bd
00000020: 3a18 5d3b b410 063c 992e 013d bdac 80bc
00000030: 1147 f0bb b77c 15bd eb7e 72bc f8a8 05bc
00000040: 5c31 c63c e392 163c e6db 02bd 5b97 b93c
00000050: cb37 e8bb 98c8 91bc d846 2a3d 157a 83bb
00000060: 4593 953c 343e 0fbc c276 833c bce6 c73c
00000070: 1719 e3bc 9499 b03c ac27 d33c fc23 cd3c
00000080: db66 103d 8c59 b73c 1fb3 c9bc 6c0d f0bc
00000090: 1ba4 a13a 80c6 713d 82d1 b9bc f659 883a
000000a0: bed5 cabc b668 e93c 3737 4f3b 5f00 c0bc
000000b0: dafb 8abc 63fc ca3b 8401 debb fdd9 25bd
000000c0: e9b7 d1bb d448 de3c 7236 6d3d e4d9 4abb
000000d0: c294 bfbc 451a 8c3a 27ef f13c c45d e8bc
000000e0: 56bb b8bc 9e2f 76bc 8170 dfbb d4c6 f13c
000000f0: 7ecf e9bc 7b10 cebc c20d d53c 5699 d0bc

actor_mean.weight f4 [1, 64]
0.005547818 0.05260688 0.01637864 0.025817093 -0.051455144 0.065407015 -0.026997305 0.03885666
0.0465764 -0.053305853 -0.021547103 0.034454357 -0.053264983 0.01084047 0.02031317 0.048270594
-0.028384035 0.080447644 -0.005642783 -0.035797473 0.029727193 -0.07701788 -0.016445009 0.050519463
-0.028347436 -0.06576434 -0.033425357 -0.051817674 0.018017134 -0.053822268 0.071174935 -0.036164936
-0.01896025 -0.02030744 0.044493545 0.05035829 0.13768458 0.09623776 0.030245805 0.0155585455
0.038524445 0.087720364 -0.043731216 0.026673561 0.030422548 -0.045639712 0.029455734 0.022256795
0.028917506 -0.04436881 0.08582534 -0.032905146 0.02904413 0.036529444 -0.029399736 0.022555135
0.019153375 0.04360771 -0.06894302 -0.035426944 0.030917091 0.015751176 -0.027850669 -0.035631035
00000000: 78ca b53b 507a 573d 7f2c 863c 5e7e d33c
00000010: a1c2 52bd 1df4 853d 7429 ddbc 2928 1f3d
00000020: e5c6 3e3d 3d57 5abd 8d83 b0bc 0320 0d3d
00000030: 622c 5abd 3a9c 313c ce67 a63c 63b7 453d
00000040: a385 e8bc bcc1 a43d 18e7 b8bb 5fa0 12bd
00000050: 7186 f33c 8dbb 9dbd afb7 86bc 7fed 4e3d
00000060: e238 e8bc 74af 86bd 07e9 08bd c53e 54bd
00000070: ab98 933c bd74 5cbd 2ac4 913d af21 14bd
00000080: 8752 9bbc ca5b a6bc dd3e 363d 7f44 4e3d
00000090: 30fd 0c3e 4d18 c53d 0dc6 f73c 45e9 7e3c
000000a0: cfcb 1d3d bca6 b33d 811f 33bd 8382 da3c
000000b0: b538 f93c b5f0 3abd 274d f13c e253 b63c
000000c0: 68e4 ec3c 12bc 35bd 32c5 af3d 8cc7 06bd
000000d0: f5ed ed3c e69f 153d b7d7 f0bc 8cc5 b83c
000000e0: 8ae7 9c3c 009e 323d 0032 8dbd d81b 11bd
000000f0: d745 fd3c 9c08 813c 1627 e4bc d9f1 11bd

critic_net.0.weight f4 [64, 8]
0.10108039 -0.01258773 -0.07821363 -0.09115516 0.35826677 0.13635643 0.13183047 -0.10885367
-0.056970246 -0.41925696 0.07453948 0.14467748 -0.45228407 -0.16274464 0.032475054 -0.5090665
0.11042409 -0.061342493 0.34773266 0.08101679 -0.15412499 0.04968015 -0.18134496 0.18036816
0.09121213 0.08184651 0.25470376 -0.102409765 -0.4330813 0.31133133 0.22781913 -0.3371876
0.038704693 0.031929426 -0.11884957 -0.11169819 0.20700726 -0.052088205 0.16927816 0.2846923
0.30456793 0.05297406 -0.04766361 -0.14069292 -0.6634043 -0.04469567 -0.17294599 -0.10259468
-0.055045612 0.020399278 0.047688406 0.08980492 0.40900618 -0.17186652 0.023146993 -0.14379714
0.106954746 -0.12563531 0.022938835 -0.30105966 -0.3300718 -0.029682025 0.06531049 -0.07762816
0.24628846 0.008561927 -0.028615108 0.09849951 -0.32172504 0.11838095 0.3440171 0.35420078
0.030742384 0.40374175 -0.026658623 0.007284434 -0.3401923 0.33119947 -0.30321714 0.07797216
0.04701006 -0.30411586 -0.15504888 -0.27696693 -0.5605095 -0.0226035 -0.22966336 -0.1060945
-0.16040544 -0.06897336 -0.37703592 -0.21825919 0.5005982 0.098336264 0.14840728 0.077995084
0.05764982 0.19377744 -0.11538415 0.022145318 -0.52033293 0.09721639 -0.0018391423 0.09320382
-0.041402407 0.16076648 0.21987805 -0.037716467 -0.32109183 -0.030227335 0.22471274 0.037321605
0.08157059 0.094252594 -0.0017847967 0.32935768 -0.28832334 0.13339496 -0.1848491 -0.024689736
0.07547392 0.13764611 -0.051340856 -0.34310207 -0.38285685 0.050426517 0.022235451 -0.1905867
0.22941102 -0.39991927 -0.11629778 0.018261535 0.6296831 -0.027318258 0.107457496 -0.04394984
-0.010674752 -0.39356092 -0.2685677 0.1359818 0.5834694 -0.16271724 0.03631195 -0.027561873
-0.082011156 -0.096731536 -0.012808255 0.03604342 -0.6596914 -0.22394204 0.07377861 -0.013626666
0.1399235 -0.17948978 -0.31413835 0.08609302 0.11735955 -0.027010318 -0.115443915 -0.060313392
-0.23005375 -0.15031378 -0.0131604895 -0.35438135 -0.59665006 0.004556664 0.014987654 0.07943044
-0.35340318 0.27207413 -0.02260057 0.07242996 0.5827032 -0.30852726 -0.052663326 0.08905958
-0.2280864 -0.0072827595 -0.3327348 -0.049431205 0.35405767 -0.11163164 0.0013915848 0.30187893
0.20565574 -0.2582044 0.28396258 -0.33727136 0.38746858 -0.2753249 -0.2814635 -0.18387139
-0.107753836 0.06397025 -0.2121663 0.10290815 0.4528126 0.08722701 0.06937756 -0.19946425
0.14675513 0.19330907 0.17828764 -0.010807498 0.44309336 -0.18343705 -0.5437949 -0.11508365
0.26224217 -0.118436806 0.10057408 0.20087929 0.41254 0.112730235 -0.018541595 -0.1510759
0.14569804 0.31116933 0.25284123 -0.06862694 -0.49591127 0.050581045 -0.32009783 0.11880351
-0.34861943 0.1128068 0.19678722 0.15398985 -0.35375667 0.06825598 0.41671944 -0.3148662
0.22936916 -0.12076403 0.06278379 0.18525428 -0.2796058 0.11969545 -0.1356232 0.1479789
-0.0045115002 0.1474983 -0.1454238 -0.15321407 0.66111845 -0.036100615 -0.1817839 -0.17821239
-0.08717519 0.22265224 0.05521188 -0.24493 0.25883642 -0.04744356 0.22330627 -0.13724245
00000000: 3c03 cf3d c43c 4ebc 782e a0bd 8eaf babd
00000010: be6e b73e 05a1 0b3e 91fe 063e acee debd
00000020: a259 69bd d9a8 d6be 28a8 983d 5526 143e
00000030: c791 e7be 88a6 26be 9004 053d 2f52 02bf
00000040: 0626 e23d 4442 7bbd 040a b23e 21ec a53d
00000050: f1d2 1dbe 6a7d 4b3d 7eb2 39be 6eb2 383e
00000060: 6dcd ba3d 259f a73d 8868 823e 36bc d1bd
00000070: d5bc ddbe d266 9f3e 6b49 693e daa3 acbe
00000080: d088 1e3d 6ec8 023d 6767 f3bd 05c2 e4bd
00000090: b6f9 533e 715a 55bd 4157 2d3e 30c3 913e
000000a0: 54f0 9b3e 54fb 583d eb3a 43bd ce11 10be
000000b0: ddd4 29bf cf12 37bd c118 31be 291d d2bd
000000c0: 8277 61bd 631c a73c eb54 433d a4eb b73d
000000d0: 4269 d13e c7fd 2fbe c39e bd3c 8f3f 13be
000000e0: 170b db3d 8ba6 00be 39ea bb3c 7e24 9abe
000000f0: 2cff a8be b827 f3bc 82c1 853d 83fb 9ebd
00000100: 0b33 7c3e 5347 0c3c 3b6a eabc 1cba c93d
00000110: 25b9 a4be b671 f23d 0223 b03e ce59 b53e
00000120: 74d7 fb3c 3db7 ce3e 2f63 dabc 43b2 ee3b
00000130: af2d aebe fa92 a93e 473f 9bbe deaf 9f3d
00000140: 9f8d 403d 13b5 9bbe 22c5 1ebe 9cce 8dbe
00000150: 8d7d 0fbf fa2a b9bc df2c 6bbe 1348 d9bd
00000160: 5341 24be e841 8dbd da0a c1be 567f 5fbe
00000170: 3427 003f 8664 c93d 14f8 173e e3bb 9f3d
00000180: 3822 6c3d 986d 463e 864e ecbd 196a b53c
00000190: 8a34 05bf 6319 c73d 600f f1ba a5e1 be3d
000001a0: 9295 29bd f89f 243e b627 613e 957c 1abd
000001b0: 2666 a4be 519f f7bc 191b 663e 8ade 183d
000001c0: 7b0e a73d 8107 c13d d7ef e9ba 92a1 a83e
000001d0: 1e9f 93be b098 083e 1549 3dbe 2142 cabc
000001e0: 1292 9a3d 1af3 0c3e ca4a 52bd 13ab afbe
000001f0: d005 c4be 098c 4e3d 1f27 b63c 2929 43be
00000200: b9ea 6a3e 38c2 ccbe 882d eebd 3799 953c
00000210: e932 213f 8aca dfbc ad12 dc3d bf04 34bd
00000220: 28e5 2ebc d180 c9be b581 89be d03e 0b3e
00000230: 405e 153f 599f 26be d7bb 143d 70c9 e1bc
00000240: 77f5 a7bd 2f1b c6bd b7d9 51bc 44a2 133d
00000250: 89e1 28bf 1051 65be 3d19 973d 6142 5fbc
00000260: 1b48 0f3e 2bcc 37be bed6 a0be 8a51 b03d
00000270: 345a f03d be44 ddbc dc6d ecbd 2d0b 77bd
00000280: 3693 6bbe dbeb 19be 189f 57bc 7971 b5be
00000290: 0fbe 18bf 1150 953b c78e 753c 6dac a23d
000002a0: 43f1 b4be 4d4d 8b3e d524 b9bc 2956 943d
000002b0: 092c 153f 49f7 9dbe 80b5 57bd de64 b63d
000002c0: 7b8f 69be 37a4 eebb 375c aabe 6078 4abd
000002d0: 0c47 b53e 219f e4bd d665 b63a e08f 9a3e
000002e0: 6b97 523e 5e33 84be 8b63 913e d5ae acbe
000002f0: 4862 c63e 63f7 8cbe fc1b 90be c848 3cbe
00000300: 0bae dcbd d602 833d 1f42 59be 82c1 d23d
00000310: 0ed7 e73e 13a4 b23d d215 8e3d 5b40 4cbe
00000320: fa46 163e d0f2 453e 0991 363e ef11 31bc
00000330: 22dd e23e ecd6 3bbe 2436 0bbf fab0 ebbd
00000340: 9b44 863e ff8e f2bd c9f9 cd3d 4db3 4d3e
00000350: 7138 d33e 1cdf e63d 8be4 97bc a4b3 1abe
00000360: de31 153e 9651 9f3e 6874 813e 488c 8cbd
00000370: 15e8 fdbe 122e 4f3d dde3 a3be 414f f33d
00000380: 3f7e b2be 4007 e73d 9782 493e 84af 1d3e
00000390: 981f b5be cbc9 8b3d 405c d53e 2436 a1be
000003a0: c0df 6a3e 2253 f7bd ca94 803d 4cb3 3d3e
000003b0: 7e28 8fbe e322 f53d cfe0 0abe c887 173e
000003c0: 35d5 93bb cb09 173e fae9 14be 26e4 1cbe
000003d0: 0f3f 293f 3dde 13bd 8f25 3abe 4f7d 36be
000003e0: e888 b2bd f3fe 633e da25 623d eece 7abe
000003f0: 3586 843e 2e54 42bd 66aa 643e 4989 0cbe

critic_net.0.bias f4 [64]
0.027597167 -0.050780967 0.07013692 -0.08730785 0.027582256 -0.062426254 0.05055761 -0.05190264
-0.09701572 0.13345927 -0.08073841 -0.004016586 -0.059878338 -0.055214707 0.0689062 -0.05279496
0.05078886 0.063008904 -0.066736944 0.045049425 -0.0574556 0.025124725 0.0566801 0.05441299
0.048230913 0.11645172 0.03785295 0.01772615 -0.03705158 -0.048648786 0.07105957 -0.018089537
-0.050763987 -0.077839345 -0.08055187 -0.03112706 -0.013727696 0.0068449276 -0.06860949 0.061807204
-0.051267557 -0.007931391 -0.046612304 0.06169066 0.06759196 -0.05909261 0.030425955 -0.05204359
0.050978072 0.08499187 -0.069382936 0.026958235 -0.08378746 -0.0058694105 0.07264497 0.04781014
0.07434613 0.046373527 -0.014644938 0.07367872 -0.0664835 0.03264981 -0.043345124 0.037378047
00000000: 7413 e23c b4ff 4fbd f2a3 8f3d 75ce b2bd
00000010: 2ff4 e13c acb2 7fbd 7f15 4f3d dd97 54bd
00000020: 2eb0 c6bd 8ca9 083e 2e5a a5bd 919d 83bb
00000030: fd42 75bd d128 62bd b21e 8d3d 873f 58bd
00000040: fb07 503d d00a 813d 61ad 88bd bf85 383d
00000050: 9056 6bbd 5ed2 cd3c 6429 683d 28e0 5e3d
00000060: c78d 453d 3d7e ee3d b20b 1b3d 6e36 913c
00000070: 66c3 17bd f343 47bd ae87 913d 8230 94bc
00000080: e6ed 4fbd 3c6a 9fbd 61f8 a4bd 2dfe febc
00000090: 21ea 60bc 6a4b e03b 2283 8cbd 8d29 7d3d
000000a0: eefd 51bd aaf2 01bc 8bec 3ebd 58af 7c3d
000000b0: a76d 8a3d 180b 72bd da3f f93c a92b 55bd
000000c0: 62ce 503d 3810 ae3d a418 8ebd 84d7 dc3c
000000d0: c398 abbd 2f54 c0bb e3c6 943d 91d4 433d
000000e0: c942 983d 2bf2 3d3d 52f1 6fbc dee4 963d
000000f0: 8028 88bd cfbb 053d a88a 31bd b919 193d

critic_net.2.weight f4 [64, 64]
0.07403951 0.00373838 -0.1496832 0.0063325525 0.28407544 0.10109964 -0.076550506 0.03041466
0.1874409 -0.21734871 -0.009316609 0.04419417 -0.054001953 -0.051910657 -0.22070095 0.32885072
-0.42684957 0.074373595 0.03555607 -0.0005453459 -0.15115567 -0.16505411 0.021223718 0.19693549
0.06647226 0.07598624 -0.091942295 -0.02598 0.019285213 0.06300226 -0.04658112 0.39794165
0.114206366 0.4833259 0.0062410017 0.1318319 -0.11684682 0.1375446 0.26157865 -0.14562866
0.21235558 0.13075311 0.3277872 0.21153659 0.24477793 0.05985988 -0.18753418 0.19517277
-0.026863303 0.140065 0.19473636 -0.0348556 0.41638413 -0.06949394 -0.47609836 0.025246374
-0.42148677 -0.24532893 0.11437787 -0.38856 0.30356982 0.5280276 0.09915494 -0.07496058
-0.11880249 0.41723388 0.0064528207 -0.1997979 -0.01739914 0.11804382 -0.5353857 -0.090631664
-0.03798364 -0.082429476 0.3273796 0.22943406 -0.053149555 -0.047958802 -0.05110409 0.0856198
-0.13789462 -0.0910824 -0.11926749 0.33905935 -0.0317377 -0.22156931 -0.23089336 -0.037174247
0.21482821 0.2062134 -0.31834432 0.13235153 -0.16837248 0.18133527 -0.17471626 0.031662464
-0.008094766 0.11726381 -0.0751479 0.053112548 -0.11442466 0.04713713 0.0045942436 0.08241249
-0.2023594 -0.08653233 0.14567445 -0.46933553 0.15831257 0.24164557 -0.1455556 0.04430166
-0.047261268 -0.19063105 0.15417114 0.2704345 -0.20924291 -0.04550792 -0.3135224 -0.06564907
-0.108986184 0.098089285 -0.07807844 -0.25280532 0.12309558 -0.25658205 -0.15523817 -0.07573103
0.2569913 -0.33386678 0.16568269 -0.00815951 -0.06896845 -0.025840633 -0.036113616 -0.043082695
0.03424011 0.26561767 -0.16331746 0.09033923 0.2548145 -0.2654815 -0.29427028 -0.10262603
0.16689621 -0.1710765 -0.1499692 0.32215714 0.07058827 0.1623949 0.15065359 0.1735556
0.12658675 0.0053891973 0.056546632 0.058765702 0.17220674 0.02231741 -0.22403681 0.21241683
-0.14609493 -0.1798969 0.18567353 0.112552755 -0.12776656 0.00090830476 0.03317086 0.29187042
-0.0039143697 0.22336653 0.028431421 0.19754052 0.02745121 -0.0314574 -0.349332 -0.24404816
0.10443186 -0.04520612 0.014060437 0.1366537 -0.21845451 -0.18570851 0.23274484 0.026827022
0.07002966 -0.45462304 0.1295363 0.39471778 0.120533735 -0.29749504 -0.13032562 0.29542014
0.11656403 -0.35649395 -0.63864344 -0.3305225 0.1649054 -0.15095285 0.0522644 0.3388619
-0.10509925 0.016880717 0.13240811 0.18273143 -0.07608295 -0.19861686 -0.23326059 -0.13692254
0.3643708 0.11516634 -0.16370791 0.09119471 0.007887775 0.07073551 -0.07318352 0.026363535
0.18164653 -0.32936022 0.081692845 -0.24679561 -0.071441695 -0.21941897 -0.04072781 0.062073
0.12654038 -0.50002307 -0.11416291 -0.038392954 -0.14068118 0.04602751 -0.10390679 0.27004305
0.23523152 -0.14839053 0.13101277 -0.06487007 -0.072200805 -0.119734965 0.093065195 0.09411569
-0.12830536 -0.16502693 -0.076620296 0.19524546 -0.060097355 -0.08085621 0.20755799 0.09733441
-0.030644588 0.20842502 -0.087062255 -0.07059318 -0.23942284 0.21051554 -0.09847886 0.30740082
00000000: 07a2 973d 9cff 743b 8e46 19be 4d81 cf3b
00000010: 5672 913e 540d cf3d 83c6 9cbd 2a28 f93c
00000020: 82f0 3f3e a990 5ebe b1a4 18bc f204 353d
00000030: 2731 5dbd 45a0 54bd 6eff 61be 1f5f a83e
00000040: 078c dabe 2f51 983d 3ea3 113d 8bf5 0eba
00000050: 8dc8 1abe f203 29be 5ddd ad3c 75a9 493e
00000060: 9c22 883d ac9e 9b3d 3e4c bcbd 02d4 d4bc
00000070: 06fc 9d3c 5407 813d d8cb 3ebd 02bf cb3e
00000080: 07e5 e93d 7e76 f73e 5181 cc3b f1fe 063e
00000090: 634d efbd 7ed8 0c3e a3ed 853e ae1f 15be
000000a0: be73 593e 25e4 053e b9d3 a73e 0c9d 583e
000000b0: 11a7 7a3e a22f 753d f608 40be 5fdb 473e
000000c0: 6e10 dcbc 336d 0f3e f868 473e bfc4 0ebd
000000d0: 4d30 d53e d752 8ebd 2ac3 f3be 7cd1 ce3c
000000e0: 1dcd d7be 8237 7bbe f23e ea3d 56f1 c6be
000000f0: 816d 9b3e d12c 073f bf11 cb3d ef84 99bd
00000100: b84e f3bd ae9f d53e 2f72 d33b d297 4cbe
00000110: a488 8ebc f5c0 f13d 0a0f 09bf 189d b9bd
00000120: bc94 1bbd c9d0 a8bd 4d9e a73e c3f0 6a3e
00000130: 59b3 59bd 7370 44bd 8652 51bd 6f59 af3d
00000140: 3f34 0dbe 6989 babd 8442 f4bd 3099 ad3e
00000150: 64ff 01bd 11e3 62be 4f6f 6cbe 0644 18bd
00000160: edfb 5b3e 9b29 533e 07fe a2be 2987 073e
00000170: d669 2cbe f4af 393e d2e8 32be 80b0 013d
00000180: e99f 04bc 0228 f03d 24e7 99bd 8b8c 593d
00000190: 7a57 eabd dd12 413d 4f8b 963b e1c7 a83d
000001a0: 4d37 4fbe dd37 b1bd af2b 153e bf4c f0be
000001b0: b11c 223e f071 773e 870c 15be a875 353d
000001c0: 0895 41bd c934 43be 0adf 1d3e 6476 8a3e
000001d0: c643 56be 8366 3abd 0286 a0be 0573 86bd
000001e0: 2634 dfbd 09e3 c83d 97e7 9fbd b36f 81be
000001f0: 8919 fc3d b95e 83be c1f6 1ebe df18 9bbd
00000200: 5d94 833e 96f0 aabe b9a8 293e 77af 05bc
00000210: 553f 8dbd bcaf d3bc dfeb 13bd 7b77 30bd
00000220: 5c3f 0c3d 0aff 873e b13c 27be c603 b93d
00000230: 0c77 823e 31ed 87be 98aa 96be 992d d2bd
00000240: d7e6 2a3e ae2e 2fbe 8791 19be c8f1 a43e
00000250: 9590 903d d94a 263e ef44 1a3e 8fb8 313e
00000260: f59f 013e dd97 b03b 719d 673d 4eb4 703d
00000270: f756 303e 00d3 b63c e869 65be cc83 593e
00000280: e999 15be e536 38be 3421 3e3e 0f82 e63d
00000290: 3dd5 02be 4d1b 6e3a 2bde 073d 0a70 953e
000002a0: 1d44 80bb 32ba 643e 03e9 e83c 1048 4a3e
000002b0: 5ce1 e03c 7ad9 00bd a5db b2be c3e7 79be
000002c0: 5fe0 d53d 0d2a 39bd bf5d 663c f3ee 0b3e
000002d0: 8ab2 5fbe 5f2a 3ebe aa54 6e3e 58c4 db3c
000002e0: b66b 8f3d 5ac4 e8be 2aa5 043e 7318 ca3e
000002f0: 64da f63d 4551 98be 1474 05be 4f41 973e
00000300: 1fb9 ee3d 6086 b6be 237e 23bf 3f3a a9be
00000310: f6dc 283e 6293 1abe 3213 563d 4f7f ad3e
00000320: 473e d7bd 6e49 8a3c fe95 073e f31d 3b3e
00000330: 61d1 9bbd 3862 4bbe dddb 6ebe 6c35 0cbe
00000340: cf8e ba3e 54dc eb3d 0ca3 27be 4bc4 ba3d
00000350: ba3b 013c c7dd 903d 3ee1 95bd 57f8 d73c
00000360: 8c01 3a3e e7a1 a8be 944e a73d fdb7 7cbe
00000370: 0650 92bd 5eaf 60be 34d2 26bd 4240 7e3d
00000380: cd93 013e 8301 00bf 3ece e9bd ee41 1dbd
00000390: ba0e 10be 5887 3c3d 15cd d4bd 1543 8a3e
000003a0: 88e0 703e b0f3 17be 3628 063e 99da 84bd
000003b0: 04de 93bd 9b37 f5bd f798 be3d babf c03d
000003c0: 7b62 03be d2fc 28be 1aeb 9cbd 6dee 473e
000003d0: a528 76bd f197 a5bd 158a 543e 4357 c73d
000003e0: 5c0a fbbc 5e6d 553e b24d b2bd 2893 90bd
000003f0: 432b 75be 6391 573e 49af c9bd a463 9d3e

critic_net.2.bias f4 [64]
-0.07154634 -0.03735829 0.031047445 0.016181437 0.037650447 -0.008974118 0.040555816 -0.049307834
-0.044705562 0.06624292 -0.038082838 -0.02562889 -0.033591 -0.044852834 -0.027385589 0.038345337
0.04315896 0.032431148 0.036848463 0.018684302 0.070209004 -0.052895512 0.048530452 0.05084564
-0.044611238 0.04403234 0.042803477 0.048536405 -0.030224334 -0.04730036 0.056981184 0.0403507
-0.037938956 -0.035840355 -0.032029517 0.042741112 -0.050135612 -0.0343422 -0.04005087 0.027986366
0.03214828 0.050028436 -0.05226253 -0.028931491 -0.031313837 -0.030752594 -0.03381045 -0.025717344
-0.05994869 -0.03924558 -0.08004858 0.011555094 -0.03799624 0.0382908 0.053226907 0.047963865
-0.049521316 0.044843134 -0.01986596 -0.028626032 0.04179709 0.06030318 -0.06963462 0.028872829
00000000: e386 92bd 0205 19bd 3657 fe3c ef8e 843c
00000010: 5b37 1a3d 2e08 13bc db1d 263d 03f7 49bd
00000020: 2e1d 37bd 5eaa 873d c0fc 1bbd aef3 d1bc
00000030: b796 09bd 9bb7 37bd be57 e0bc 0010 1d3d
00000040: 73c7 303d 86d6 043d 6aee 163d d20f 993c
00000050: bdc9 8f3d f7a8 58bd dec7 463d 8543 503d
00000060: 46ba 36bd 415b 343d b352 2f3d 1cce 463d
00000070: 0699 f7bc 06be 41bd 1a65 693d c746 253d
00000080: e165 1bbd 56cd 12bd 6231 03bd 4e11 2f3d
00000090: 005b 4dbd 68aa 0cbd 620c 24bd aa43 e53c
000000a0: eaad 033d 9eea 4c3d 3c11 56bd bc01 edbc
000000b0: f042 00bd ddec fbbc d47c 0abd 2ead d2bc
000000c0: c28c 75bd f9bf 20bd 83f0 a3bd 9451 3d3c
000000d0: f2a1 1bbd d0d6 1c3d 7504 5a3d c275 443d
000000e0: ddd6 4abd 6fad 373d f0bd a2bc 2481 eabc
000000f0: 6d33 2b3d 7800 773d 989c 8ebd b686 ec3c

critic_head.weight f4 [1, 64]
0.26748717 0.05269583 -0.13009368 -0.18796827 -0.18712623 0.17549321 -0.17956905 0.12510206
0.27993482 -0.31421536 0.11689398 0.09296673 0.25038365 0.33286738 0.2836849 -0.048302084
-0.3062456 -0.090962805 -0.18362229 -0.36467034 -0.18374327 0.15892074 -0.116108514 -0.15613796
0.12401908 -0.19031486 -0.104582146 -0.4406912 0.101912454 0.26866275 -0.17614135 -0.14174816
0.2502977 0.23066492 0.1381193 -0.11494138 0.15861711 0.289845 0.057954922 -0.13808466
-0.10570767 -0.21739557 0.19536886 0.28067622 0.41328645 0.29317865 0.17452034 0.110048085
0.14030492 0.13199344 0.08549945 -0.2025233 0.16989715 -0.3677612 -0.1923467 -0.18065928
0.47560227 -0.16584095 0.07876866 0.27125883 -0.41748205 -0.30028176 0.33079794 -0.2770862
00000000: 14f4 883e 95d7 573d 4737 05be c17a 40be
00000010: 059e 3fbe 7eb4 333e f3e0 37be c11a 003e
00000020: 9e53 8f3e d6e0 a0be 1c66 ef3d 5765 be3d
00000030: 4932 803e 986d aa3e 263f 913e 68d8 45bd
00000040: 39cc 9cbe b54a babd 7b07 3cbe 12b6 babe
00000050: 3227 3cbe 1ebc 223e 4dca edbd a1e2 1fbe
00000060: b7fd fd3d e6e1 42be 2a2f d6bd 47a2 e1be
00000070: 7ab7 d03d 2a8e 893e 665e 34be 6e26 11be
00000080: 0527 803e 6d33 6c3e 256f 0d3e 6366 ebbd
00000090: 866c 223e 9066 943e 2462 6d3d 1166 0dbe
000000a0: 437d d8bd f29c 5ebe c60e 483e cbb4 8f3e
000000b0: 489a d33e 831b 963e 76b5 323e e460 e13d
000000c0: 18ac 0f3e 4a29 073e 561a af3d 4562 4fbe
000000d0: 85f9 2d3e 324b bcbe 89f6 44be bffe 38be
000000e0: 2482 f33e 36d2 29be 7751 a13d 70e2 8a3e
000000f0: 35c0 d5be 88be 99be 595e a93e 3ede 8dbe

exp_avg f4 [64, 8]
0.00026291373 0.00026837573 0.00028569563 -6.289411e-05 -3.896113e-05 -2.0260852e-05 0.0003574331 0.00034939402
-0.00019305952 -0.00019962156 -0.00021995716 0.00010787487 4.8503993e-05 2.3134766e-05 -0.00033186132 -0.00023877027
0.00045128306 0.00046714113 0.00051392784 -0.00027782924 -0.00011601736 -5.9057216e-05 0.0006739263 0.0005762602
0.0001925922 0.00019995587 0.00022106024 -0.00012858487 -6.146325e-05 -2.635669e-05 0.00043796378 0.00023698331
0.00038264514 0.0003892184 0.00040936028 -5.7476474e-05 -4.4191172e-05 -2.5042355e-05 0.00046598463 0.0005142665
-0.00037586773 -0.0003864125 -0.00041650856 0.00014616671 7.443916e-05 3.9206963e-05 -0.0006250005 -0.00049104437
-0.0011192625 -0.0011612718 -0.0012865544 0.00077076163 0.0003155805 0.0001564702 -0.0017456635 -0.001438089
-0.0001259943 -0.00012717908 -0.00013122741 -1.0828637e-05 8.662337e-06 3.7254506e-06 -0.00018733935 -0.00016755024
-0.00019723363 -0.00020341072 -0.0002216385 8.9937246e-05 4.5002387e-05 2.1647878e-05 -0.00033993958 -0.00023974109
0.00022809414 0.00023898625 0.00027023422 -0.00021560819 -9.0323956e-05 -3.78017e-05 0.00046222995 0.0002630459
-6.9188405e-05 -6.866735e-05 -6.9603026e-05 -1.4990543e-05 -3.957599e-06 -2.071515e-06 -2.3936202e-05 -9.245002e-05
-0.0003317733 -0.0003451253 -0.0003858815 0.00026752485 9.682917e-05 5.0292263e-05 -0.00040575053 -0.00042727054
0.00070668577 0.00073637755 0.0008183707 -0.000510442 -0.00021335484 -0.000112446505 0.0012453463 0.00089272845
-0.00023638422 -0.00024189954 -0.00026010562 8.7892e-05 4.0544193e-05 1.955862e-05 -0.00029116878 -0.0003114377
0.00050429336 0.0005272139 0.000595139 -0.0004769985 -0.00018340652 -8.729156e-05 0.0009167317 0.0006436692
0.000131788 0.00013635303 0.00015581664 -0.00014394583 -4.9751907e-05 -1.5007265e-05 0.00013663058 0.00016747272
0.0004192683 0.00043701121 0.0004895716 -0.00034896127 -0.00014239391 -6.392827e-05 0.000797885 0.0005123971
-0.00049441174 -0.0005094726 -0.00055196823 0.00021257314 0.00010736961 5.723447e-05 -0.0008762033 -0.00064329273
-0.0006126156 -0.00063295313 -0.00069328264 0.00033471952 0.0001431431 7.5010554e-05 -0.00085585495 -0.00079262245
-0.00013638077 -0.00013851214 -0.00014131982 -3.3151708e-05 6.321575e-06 7.706936e-06 -0.0002565177 -0.00017839082
0.00090004265 0.0009244665 0.001000038 -0.0003652206 -0.00017801646 -8.848532e-05 0.0013680381 0.0011643308
0.00018247668 0.0001922158 0.00022419765 -0.0002359403 -8.7239634e-05 -3.48674e-05 0.00038204595 0.00021647816
-0.000287274 -0.00030025915 -0.00033520616 0.00020935855 8.923499e-05 4.950979e-05 -0.00053240923 -0.00035308037
-0.0003475664 -0.00036183148 -0.0004030214 0.00025705306 0.00010388362 5.4029155e-05 -0.00055994233 -0.00043911446
0.00015056244 0.00015741953 0.00017550166 -0.00012351341 -4.619323e-05 -2.57174e-05 0.00016964918 0.00018128291
-8.350699e-05 -8.498922e-05 -8.736772e-05 -8.401213e-06 5.190605e-06 6.776174e-06 -0.00014257239 -0.00011867898
-0.0005507787 -0.00056872854 -0.0006219885 0.00029871744 0.00013180761 6.7230816e-05 -0.0009076832 -0.00071513787
0.00057954184 0.000595215 0.0006479293 -0.00028181833 -0.00012756836 -5.5919994e-05 0.00083596085 0.00075682066
-8.524337e-06 -8.4811845e-06 -7.4658456e-06 -2.2196467e-05 -2.0626808e-06 -1.3642555e-06 -7.678362e-05 2.3583818e-06
1.8218452e-05 2.2706337e-05 3.4032488e-05 -8.837832e-05 -3.6313533e-05 -1.5991705e-05 0.00016430838 -5.059317e-06
-0.0006034203 -0.00062301895 -0.000677303 0.00030534557 0.0001350781 7.645056e-05 -0.0008943012 -0.00079792313
-6.471974e-05 -6.561204e-05 -7.037088e-05 2.0589529e-05 9.055693e-06 2.4779965e-06 -3.732689e-05 -8.710855e-05
00000000: afd7 8939 c8b4 8c39 6bc9 9539 05e6 83b8
00000010: 326a 23b8 d9f5 a9b7 dc65 bb39 df2e b739
00000020: 0570 4ab9 8151 51b9 4da4 66b9 e13a e238
00000030: c470 4b38 8811 c237 acfd adb9 685e 7ab9
00000040: 309a ec39 9fea f439 1db9 063a 9ca9 91b9
00000050: 594e f3b8 34b4 77b8 6eaa 303a 2b10 173a
00000060: 93f2 4939 3fab 5139 68cc 6739 bdd4 06b9
00000070: d5e5 80b8 9018 ddb7 819e e539 b97e 7839
00000080: c39d c839 0210 cc39 689f d639 e512 71b8
00000090: e959 39b8 0c12 d2b7 664f f439 d7cf 063a
000000a0: 1d10 c5b9 6897 cab9 d55e dab9 5444 1939
000000b0: 381c 9c38 2872 2438 13d7 23ba 6eb9 00ba
000000c0: 38b4 92ba d135 98ba 9aa1 a8ba f00c 4a3a
000000d0: 7f74 a539 2612 2439 bfce e4ba 427e bcba
000000e0: 561d 04b9 605b 05b9 179a 09b9 a4ac 35b7
000000f0: 7454 1137 c102 7a36 8670 44b9 6db0 2fb9
00000100: 80d0 4eb9 a64a 55b9 a267 68b9 b19c bc38
00000110: f2c0 3c38 7798 b537 eb39 b2b9 0263 7bb9
00000120: 8e2c 6f39 6298 7a39 39ae 8d39 e214 62b9
00000130: 4e6c bdb8 448d 1eb8 7457 f239 6ce9 8939
00000140: 3e19 91b8 8101 90b8 d7f7 91b8 e47f 7bb7
00000150: 84cb 84b6 5b04 0bb6 9aca c8b7 bae1 c1b8
00000160: dcf1 adb9 eff1 b4b9 2350 cab9 9442 8c39
00000170: c410 cb38 e8f0 5238 eaba d4b9 4803 e0b9
00000180: e140 393a 7609 413a ee87 563a 2fcf 05ba
00000190: 01b8 5fb9 42d1 ebb8 e33a a33a fe05 6a3a
000001a0: e8dd 77b9 6aa6 7db9 c95e 88b9 a852 b838
000001b0: ff0d 2a38 d111 a437 03a8 98b9 7648 a3b9
000001c0: 8e32 043a ba34 0a3a 1a03 1c3a a815 fab9
000001d0: d050 40b9 4d10 b7b8 d350 703a e9bb 283a
000001e0: 9230 0a39 fdf9 0e39 b662 2339 2af0 16b9
000001f0: b4ac 50b8 b6c7 7bb7 7e44 0f39 9e9b 2f39
00000200: 3dd1 db39 a71e e539 9856 003a caf4 b6b9
00000210: 934f 15b9 3b11 86b8 2829 513a 6352 063a
00000220: 699b 01ba 218e 05ba f6b1 10ba 2be6 5e39
00000230: 9f2b e138 0b0f 7038 02b1 65ba a5a2 28ba
00000240: f097 20ba c4ec 25ba 69bd 35ba 4b7d af39
00000250: af18 1639 fc4e 9d38 745b 60ba fec7 4fba
00000260: 6f01 0fb9 923d 11b9 402f 14b9 600c 0bb8
00000270: ea1d d436 0a4d 0137 397d 86b9 6c0e 3bb9
00000280: d7f0 6b3a e657 723a b513 833a 147b bfb9
00000290: eea9 3ab9 3291 b9b8 be4f b33a 759c 983a
000002a0: 3657 3f39 898d 4939 9916 6b39 be66 77b9
000002b0: 6cf4 b6b8 963e 12b8 574d c839 6afe 6239
000002c0: 439d 96b9 1a6c 9db9 9cbe afb9 4287 5b39
000002d0: ac23 bb38 bba8 4f38 6191 0bba a51d b9b9
000002e0: 9339 b6b9 33b4 bdb9 9e4c d3b9 14c5 8639
000002f0: 18dc d938 5d9d 6238 18c9 12ba f238 e6b9
00000300: 4ce0 1d39 fc10 2539 de06 3839 6183 01b9
00000310: 9abf 41b8 b2bb d7b7 dbe3 3139 c316 3e39
00000320: 7920 afb8 3d3c b2b8 3039 b7b8 eff2 0cb7
00000330: f52a ae36 e45e e336 7c7f 15b9 4be3 f8b8
00000340: 2262 10ba ba16 15ba f10c 23ba 2d9d 9c39
00000350: d635 0a39 45fe 8c38 97f1 6dba 1778 3bba
00000360: 65ec 173a 3408 1c3a cdd9 293a 04c1 93b9
00000370: dfc3 05b9 a38b 6ab8 6224 5b3a 6065 463a
00000380: c003 0fb7 694a 0eb7 2083 fab6 8d32 bab7
00000390: 966c 0ab6 761b b7b5 e406 a1b8 b144 1e36
000003a0: d4d3 9837 7d79 be37 1bbe 0e38 c057 b9b8
000003b0: 5c4f 18b8 ed25 86b7 324a 2c39 34c3 a9b6
000003c0: da2e 1eba 1852 23ba 098d 31ba ca16 a039
000003d0: c0a3 0d39 1554 a038 8a6f 6aba b72b 51ba
000003e0: 25ba 87b8 3299 89b8 1494 93b8 adb7 ac37
000003f0: e8ed 1737 a84b 2636 718f 1cb8 0cae b6b8

exp_avg_sq f4 [64, 8]
7.308719e-06 7.3028627e-06 7.305113e-06 1.8507703e-06 5.5450332e-08 1.3912154e-07 1.9269706e-05 1.47300525e-05
9.543554e-06 9.552593e-06 9.567343e-06 3.6079032e-06 8.98105e-08 2.2320279e-07 2.093508e-05 1.9298963e-05
3.7890804e-05 3.7908558e-05 3.796717e-05 1.3739049e-05 3.1308142e-07 6.968132e-07 9.155943e-05 7.643597e-05
8.533065e-06 8.544138e-06 8.563628e-06 3.7717994e-06 8.985052e-08 1.485206e-07 1.8196868e-05 1.7072794e-05
1.5649299e-05 1.5636473e-05 1.566038e-05 5.2112387e-06 1.5335614e-07 2.7215862e-07 4.6510246e-05 3.1825402e-05
2.6606194e-05 2.6582284e-05 2.6621765e-05 9.1685315e-06 2.4806872e-07 6.5364037e-07 6.349708e-05 5.437328e-05
0.0003085273 0.00030862156 0.00030911027 0.00012436799 2.8718307e-06 6.136293e-06 0.0007555733 0.0006242952
4.208393e-07 4.2162932e-07 4.2248703e-07 1.3280223e-07 4.00509e-09 3.0460119e-09 1.1115211e-06 8.4436925e-07
5.724307e-06 5.732633e-06 5.7409084e-06 1.9775464e-06 4.499512e-08 1.1297439e-07 1.232944e-05 1.1303273e-05
2.1625357e-05 2.1651358e-05 2.1701027e-05 9.755566e-06 2.3262196e-07 4.0885894e-07 4.7771086e-05 4.2588545e-05
1.9124472e-07 1.9038585e-07 1.9113446e-07 6.5923615e-08 1.7592234e-09 1.1120459e-08 4.0063495e-07 3.575072e-07
3.498577e-05 3.4970606e-05 3.500727e-05 1.2269281e-05 3.0768015e-07 7.4949685e-07 9.0719e-05 7.101822e-05
0.00013449712 0.00013443668 0.00013465551 5.2305986e-05 1.2415926e-06 3.1357501e-06 0.00031248786 0.00027091676
6.0474463e-06 6.057169e-06 6.0676357e-06 2.0750917e-06 4.681493e-08 7.823848e-08 1.6488833e-05 1.2271e-05
9.269411e-05 9.270126e-05 9.287648e-05 3.8778984e-05 9.07528e-07 1.8383645e-06 0.00021903626 0.00018868217
6.090737e-06 6.1104197e-06 6.120265e-06 3.018157e-06 6.141896e-08 4.4620254e-08 1.6358199e-05 1.2251457e-05
6.214804e-05 6.219153e-05 6.230755e-05 2.5733985e-05 6.272682e-07 1.2775321e-06 0.0001400392 0.00012538624
4.6214405e-05 4.617663e-05 4.6255722e-05 1.7319147e-05 4.509582e-07 1.1552175e-06 0.00010720291 9.447741e-05
7.921058e-05 7.9197314e-05 7.92967e-05 2.7534172e-05 6.8767565e-07 1.7263368e-06 0.00019988146 0.00015994745
6.372864e-07 6.35115e-07 6.3662816e-07 1.4680678e-07 4.8837476e-09 2.5441963e-08 1.2752471e-06 1.2257324e-06
0.00010813061 0.00010820347 0.000108334294 3.302042e-05 8.165354e-07 1.9592835e-06 0.00026304685 0.00021882216
2.2555572e-05 2.2595817e-05 2.264414e-05 1.0588884e-05 2.4179377e-07 4.1244147e-07 5.0510575e-05 4.578555e-05
2.437567e-05 2.4365969e-05 2.4400191e-05 1.0830181e-05 2.434396e-07 6.3324006e-07 5.446088e-05 4.8815647e-05
2.8268825e-05 2.8269067e-05 2.8318193e-05 1.0624313e-05 2.4140664e-07 5.9608766e-07 6.722787e-05 5.6847966e-05
4.746159e-06 4.7580515e-06 4.7739104e-06 3.4059556e-06 5.4172457e-08 7.1596546e-08 1.2143168e-05 9.345088e-06
5.6779766e-07 5.63625e-07 5.647361e-07 1.474935e-07 4.9213065e-09 2.4255444e-08 1.4895028e-06 1.2014534e-06
8.580736e-05 8.574587e-05 8.587237e-05 3.0743653e-05 8.3254116e-07 2.1505182e-06 0.00020516157 0.00017626595
6.931549e-05 6.931957e-05 6.938784e-05 2.2136262e-05 6.2083365e-07 1.3394089e-06 0.00017685625 0.00014090199
2.6479188e-07 2.6425306e-07 2.646046e-07 2.1351245e-07 3.4877332e-09 3.6952914e-09 1.084367e-06 5.21239e-07
3.4189827e-06 3.4256257e-06 3.4409886e-06 2.5258664e-06 5.0026625e-08 1.1563768e-07 5.436639e-06 6.556945e-06
5.5229404e-05 5.518763e-05 5.5282446e-05 2.3124401e-05 5.01543e-07 1.1467756e-06 0.00013940001 0.000112105045
1.8003456e-06 1.8039569e-06 1.8107883e-06 1.2692961e-06 2.5722699e-08 3.436543e-08 5.7185653e-06 3.7003747e-06
00000000: 6b3d f536 1d0b f536 711e f536 fc67 f835
00000010: 4928 6e33 7061 1534 61a5 a137 1821 7737
00000020: 411d 2037 1344 2037 6d83 2037 4e1f 7236
00000030: d8dd c033 84a9 6f34 be9d af37 35e4 a137
00000040: f1ec 1e38 0100 1f38 f03e 1f38 c480 6637
00000050: 9515 a834 a30c 3b35 9803 c038 404c a038
00000060: 3c29 0f37 cb58 0f37 81ac 0f37 051f 7d36
00000070: d9f3 c033 0879 1f34 7aa5 9837 8c37 8f37
00000080: 9d46 8337 122b 8337 695e 8337 33dc ae36
00000090: 37aa 2434 321d 9234 ff13 4338 447c 0538
000000a0: 5e30 df37 05fd de37 ce51 df37 8bd2 1937
000000b0: 4e2e 8534 d375 2f35 bc29 8538 dd0e 6438
000000c0: d5c1 a139 7cce a139 1410 a239 c768 0239
000000d0: adb9 4036 5be6 cd36 aa11 463a bea7 233a
000000e0: b7ef e134 4b5c e234 2dd2 e234 6698 0e34
000000f0: 259d 8931 0252 5131 932f 9535 9da8 6235
00000100: 6c13 c036 f15a c036 07a2 c036 fdb5 0436
00000110: a840 4133 549c f233 8bda 4e37 30a3 3d37
00000120: 1a68 b537 f09f b537 9a0a b637 d6ab 2337
00000130: a3c6 7934 2581 db34 d05d 4838 1aa1 3238
00000140: f358 4d34 dd6c 4c34 a43a 4d34 e491 8d33
00000150: 2cc9 f130 4c0c 3f32 d916 d734 6aef bf34
00000160: afbd 1238 67ad 1238 c5d4 1238 29d8 4d37
00000170: 3d2f a534 0831 4935 6440 be38 9eef 9438
00000180: cc07 0d39 92f7 0c39 5032 0d39 2063 5b38
00000190: cca4 a635 c76f 5236 69d5 a339 d509 8e39
000001a0: 2beb ca36 af3e cb36 9898 cb36 ce41 0b36
000001b0: 8f11 4933 0f04 a833 8051 8a37 8bdf 4d37
000001c0: c564 c238 9c68 c238 aec6 c238 9ea6 2238
000001d0: d99c 7335 b9bd f635 19ad 6539 fcd8 4539
000001e0: 085f cc36 1b08 cd36 ad5c cd36 8b8b 4a36
000001f0: 6ee5 8333 7da4 3f33 f738 8937 9b8b 4d37
00000200: 7a55 8238 d36c 8238 1cab 8238 50df d737
00000210: 8b61 2835 ab77 ab35 7dd7 1239 1d7a 0339
00000220: 57d6 4138 c7ad 4138 b402 4238 9648 9137
00000230: 391b f234 f90c 9b35 20d2 e038 2c22 c638
00000240: db1d a638 bc16 a638 174c a638 2ff9 e637
00000250: b698 3835 7bb4 e735 4597 5139 91b7 2739
00000260: fd11 2b35 c57c 2a35 c1e4 2a35 f1a1 1d34
00000270: e6cd a731 788b da32 2829 ab35 d883 a435
00000280: 2ec4 e238 4ceb e238 8831 e338 687f 0a38
00000290: e32f 5b35 3c7c 0336 8de9 8939 a073 6539
000002a0: b935 bd37 268c bd37 ecf3 bd37 e9a6 3137
000002b0: e2cf 8134 866d dd34 51db 5338 dc09 4038
000002c0: 5a7a cc37 8565 cc37 03af cc37 46b3 3537
000002d0: 15b2 8234 edfb 2935 ed6c 6438 67bf 4c38
000002e0: d722 ed37 5c23 ed37 db8c ed37 143f 3237
000002f0: ad9a 8134 d502 2035 b0fc 8c38 0a70 6e38
00000300: 3241 9f36 5aa7 9f36 942f a036 df91 6436
00000310: 3fab 6833 9ec0 9933 82ba 4b37 d9c8 1c37
00000320: c26a 1835 044c 1735 5f98 1735 b45e 1e34
00000330: 4518 a931 495a d032 edea c735 a041 a135
00000340: 7af3 b338 77d2 b338 6116 b438 bff2 0038
00000350: cb7b 5f35 9f51 1036 a420 5739 08d4 3839
00000360: 785d 9138 a95f 9138 5084 9138 43b1 b937
00000370: 5da7 2635 bdc5 b335 7d72 3939 17bf 1339
00000380: b828 8e34 aade 8d34 fb0e 8e34 db41 6534
00000390: daac 6f31 41f0 7d31 918a 9135 45eb 0b35
000003a0: ad71 6536 cde3 6536 bceb 6636 0e82 2936
000003b0: dbdc 5633 7d54 f833 606c b636 bb03 dc36
000003c0: 1fa6 6738 4479 6738 13df 6738 46fb c137
000003d0: c6a1 0635 e9ea 9935 e82b 1239 f019 eb38
000003e0: 67a3 f135 7d1f f235 360a f335 af5c aa35
000003f0: d0f4 dc32 3199 1333 1ae2 bf36 f453 7836

exp_avg f4 [64]
0.0002852751 -0.00013834293 0.00030260943 0.00011005576 0.0004551307 -0.00035208953 -0.0006547434 -0.00017967983
-0.00016188048 5.5271386e-05 -0.00011684865 -0.00016282588 0.00038405746 -0.0002281552 0.00015372546 1.627548e-05
0.00017714238 -0.00043029984 -0.00045876627 -0.0002156025 0.0008114697 -2.0764699e-05 -0.00015032582 -0.00018154999
6.744727e-05 -0.00012385553 -0.00042044985 0.00047026956 -3.1543237e-05 -8.970212e-05 -0.00048499973 -6.30766e-05
7.968204e-05 0.00015058786 9.470415e-05 0.00025535794 0.00025110506 0.00058855966 0.00020127157 5.4553566e-05
2.8153941e-05 -6.124836e-05 0.0004816352 0.00030707015 1.2261123e-06 7.461824e-05 -0.000105756044 0.00019911998
-1.7413175e-06 0.00034909594 0.00026446235 0.0004563319 -0.00015658622 3.5759243e-05 -3.4735345e-05 -0.00040460916
-8.012155e-05 -0.00013576396 0.00016163175 -0.00012449906 0.00022792115 0.00038179697 -6.958673e-05 -0.00013949502
00000000: fa90 9539 2610 11b9 8da7 9e39 bccd e638
00000010: 9c9e ee39 a898 b8b9 16a3 2bba 7068 3cb9
00000020: 76be 29b9 33d3 6738 a40c f5b8 3dbc 2ab9
00000030: 525b c939 f23c 6fb9 5d31 2139 5487 8837
00000040: 4cbf 3939 de99 e1b9 9186 f0b9 5b13 62b9
00000050: cfb8 543a da2f aeb7 c8a0 1db9 745e 3eb9
00000060: 7a72 8d38 37df 01b9 d36f dcb9 838e f639
00000070: 4b4d 04b8 751e bcb8 9047 feb9 fe47 84b8
00000080: f81a a738 1fe7 1d39 e79b c638 90e1 8539
00000090: c0a6 8339 9249 1a3a 6d0c 5339 72d0 6438
000000a0: 212c ec37 7772 80b8 fb83 fc39 42fe a039
000000b0: e690 a435 5d7c 9c38 58c9 ddb8 ddca 5039
000000c0: 37b7 e9b5 dd06 b739 89a7 8a39 d53f ef39
000000d0: 4b31 24b9 32fc 1538 cbb0 11b8 b921 d4b9
000000e0: ee06 a8b8 dc5b 0eb9 b17b 2939 f68b 02b9
000000f0: 1efe 6e39 ec2b c839 17ef 91b8 6945 12b9
